example/calculators/intralayer_beefy.pth (torch, 554789 bytes, 25 tensors)

_mean f4 [8]
00000000: 68ff 6c3e 416c 353e fc37 563e abcb 3e3e
00000010: 6be5 503e bb01 423e ce81 4e3e 2b95 433e
0.23144305 0.17717077 0.20919794 0.1863238 0.20400016 0.18945973 0.20166704 0.19099872

_inv_std f4 [8]
00000000: 5eba fc40 48ae 3c40 59fe 1640 df54 f83f
00000010: b2e9 dc3f a1e5 c53f 0bc6 b63f 5252 a93f
7.89775 2.9481373 2.3592741 1.9400901 1.7258818 1.5460702 1.4279188 1.3228247

bessel_weights f4 [8]
00000000: db0f 4940 db0f c940 e4cb 1641 db0f 4941
00000010: d253 7b41 e4cb 9641 e0ed af41 db0f c941
3.1415927 6.2831855 9.424778 12.566371 15.707964 18.849556 21.99115 25.132742

env_sum_normalizations f4 [3]
00000000: 47fa 8d3e 47fa 8d3e 47fa 8d3e
0.2773001 0.2773001 0.2773001

_latent_resnet_update_params f4 [3]
00000000: 0000 0000 0000 0000 0000 0000
0.0 0.0 0.0

per_layer_cutoffs f4 [4]
00000000: 0000 8040 0000 8040 0000 8040 0000 8040
4.0 4.0 4.0 4.0

_weight_0 f4 [12, 32]
00000000: 29be 6dbf 04e7 a73e b838 55bd bc80 e73f
00000010: 94a8 18bf 8df2 563f e769 b03e 8526 ce3f
00000020: 44d1 723e d680 8e3f 6b19 9d3f 83a7 1e3f
00000030: 3fb4 383e 92d8 21bf 8484 9a3f 5143 f83f
00000040: d505 a0bd 8edb aebf fe61 9bbe ba61 b3bf
00000050: c209 40bc c3a3 9dbe f8ee 123f a10c d33f
00000060: ff35 fd3d 1472 05bf 7e45 4c3f f9a5 86bd
00000070: 6f8d aebe 98c0 c5bf eae4 ab3f 3a58 8c3f
00000080: 61a7 3bbe 04f4 893f bad9 21c0 da22 b73f
00000090: 51b8 e13f 9464 dd3c 96e4 ffbe e518 2c3f
000000a0: 2c69 903f 5768 a53e a78a 213e 7df3 a03f
000000b0: ad1b c53f f081 a1bf a167 45be 73d6 e2bd
000000c0: de19 7e3f c22d b13e 0e8a 89bf 9686 44be
000000d0: 149a b93f 213a d3bf 8781 993f dcb1 adbf
000000e0: 9297 273e 0b47 99bf 743a 02bf 2259 593f
000000f0: d65d b23f 3203 d2bd 922b 8abe 1726 bd3e
00000100: 644e c2bf dc78 c4bf b054 9c3d ab36 263e
00000110: 84ff 01be b154 b93e 088c d0bd e18d ca3f
00000120: a0de f1bf 3e6e 503e e697 13c0 7064 69bf
00000130: d7d6 c1bf 2cc4 7c3f 536c 87bf d8a6 bd3f
00000140: f1c0 c5bf fc2e 873f b3e8 0c3e 1be2 a6be
00000150: b415 b03f 4f04 4f3f 96ec d03f 9490 b6bf
00000160: 64e8 f93e 3de4 07c0 31af e5bf da7f e93f
00000170: d225 eb3f feaa a73f a249 113f 1cf9 e6bf
00000180: 0bb4 c8bf 57fd 4bbf 4585 febe ebe9 1d3f
00000190: b0f1 ec3f f2f4 9ebf cfa6 39bf 4153 66bc
000001a0: 46e0 c33f c720 43be d4bd a43f 4cbe d13e
000001b0: 03c1 0ebe 2167 9bbf a22f 0d3f 5879 23bf
000001c0: 42e6 6f3f 6348 a93d c0be a13e 5c70 bfbf
000001d0: cd40 96bf f7f6 093f cc97 463f 9cdb ec3f
000001e0: e525 c83f bb69 433f 225a 13bf c80f 0f3d
000001f0: 0dd2 ffbe a18f e83f 321e 91be c9ec c23f
00000200: 3a86 6c3e 9367 d5bf f279 c83f 41dc 98bb
00000210: 35fa 57be e34b 92be 607e f63e e06f e33f
00000220: 8a6c dcbe 7f3f 0240 620b b4bf 4265 1a3f
00000230: c1fd 933f c144 223f 646b aabe 762c e73e
00000240: c06c 1bbf 7bdd ed3e 463d 5cbf b677 bb3e
00000250: f076 debf 78f6 b23d 6604 bfbf dc2c 8f3f
00000260: 7d29 a8bf 5ef3 e4bf 0326 ef3d e467 f0bf
00000270: c9fa 223f 2130 f03f ef2d 203f 1512 23bf
00000280: 0101 273f e2e9 923f 05bf 0540 12f0 83bf
00000290: 739e c43f 3a02 133f 1a05 a03e 13de 8fbf
000002a0: c74e 143f 6cde 0cbf 315f e63e 5eba a3bf
000002b0: 6f8e cbbf b410 c7bf 2bdb 683f 0140 c53e
000002c0: 3f69 9c3f fbda 58bf ea25 d0bf fd60 a3bf
000002d0: a805 903f 4fe8 78bf 5819 813f 0748 27be
000002e0: 5746 f0bd 97e6 683e a495 a93f f51b 29be
000002f0: c338 aebf cd70 b1be 471b 733f 7416 15bf
00000300: 4467 a8be 4184 c0bf f683 bf3f 07e4 09bf
00000310: b368 babf adfc 8c3f bb66 a3be a1d6 633f
00000320: 211b 873f 44ee e6be 4f5f ad3f 9a79 1a3e
00000330: 52d0 d0bf 3468 61bf d84d cdbf 909f 3a3f
00000340: aa85 05bf 1197 c1bf 176b 933f 16b4 693f
00000350: f470 1c3f 657d a0bf 041c 8b3e b339 7b3f
00000360: 2775 d53f dc6f babf f12e 84bf 762b 9a3e
00000370: dfbc bfbf a233 b33f d463 b5bf cbe3 25be
00000380: af9c 513f 8b41 413f 0e6f 863d d990 70bd
00000390: 8be2 963f 5cf1 29be 0d99 953f 0452 9c3f
000003a0: 3309 ab3f 0bdd 7ebf 4e4c 85bf 6ea3 aebe
000003b0: 8ab0 90bf 6fc0 ccbf 0f36 a93f 2393 d3bf
000003c0: 7891 d13f d203 cdbf 8578 32bf 4c66 70bf
000003d0: cc94 e2bd 6c7a 573e 643d a6be 40d2 263f
000003e0: 6699 d3bf 60ac edbf 66b3 ae3e 90a8 263d
000003f0: 5d4a 293f 37af 21bf 5071 d1bf 5505 4a3f
-0.92868286 0.32793438 -0.052056044 1.8086162 -0.5963223 0.83963853 0.34455797 1.6105505
0.23712641 1.1133068 1.2273382 0.6197435 0.18037508 -0.63221085 1.207169 1.9395543
-0.07813612 -1.3660753 -0.303482 -1.4014199 -0.011721076 -0.30789003 0.5739589 1.6488229
0.123638146 -0.52127194 0.79793537 -0.065746255 -0.3409228 -1.54494 1.3429234 1.0964425
-0.18325569 1.0777593 -2.528914 1.4307511 1.7634374 0.027025498 -0.49979085 0.67225486
1.1282096 0.32306167 0.15775548 1.2574307 1.5399071 -1.2617779 -0.19277813 -0.11076059
0.9925822 0.34605223 -1.0745256 -0.19191965 1.4500146 -1.6502115 1.1992654 -1.3569903
0.16366413 -1.1974806 -0.5087044 0.8490163 1.3934886 -0.10254516 -0.26986367 0.36943123
-1.5180173 -1.5349383 0.0763334 0.16231792 -0.12695128 0.36197427 -0.10182959 1.5824548
-1.8896065 0.20354554 -2.3061461 -0.9116888 -1.5143689 0.98736835 -1.0579933 1.4816542
-1.5449506 1.0561213 0.13760643 -0.3259438 1.3756623 0.8086595 1.63222 -1.4262872
0.48810112 -2.1233056 -1.7944089 1.8242142 1.8370917 1.3099058 0.5675298 -1.8044772
-1.5679945 -0.7968344 -0.49711052 0.61685055 1.8511257 -1.2418501 -0.72520155 -0.014057935
1.5302818 -0.19055472 1.2870431 0.40965497 -0.13940816 -1.2140847 0.55150807 -0.6385703
0.9371072 0.0826576 0.31590843 -1.4956164 -1.1738526 0.53892463 0.77575374 1.850452
1.5636564 0.76333207 -0.57559407 0.03492716 -0.49964944 1.8168832 -0.2834335 1.5228511
0.23098078 -1.6672233 1.5662215 -0.004664928 -0.2109154 -0.28573522 0.4814329 1.7768517
-0.4305156 2.0351255 -1.4065974 0.6031076 1.1561815 0.6338616 -0.33285058 0.45151109
-0.60712814 0.4645804 -0.86030996 0.3661477 -1.7380047 0.087384164 -1.4923217 1.1185565
-1.3137661 -1.788677 0.11677172 -1.8781705 0.6366392 1.8764688 0.6257009 -0.63699466
0.65235907 1.1477625 2.089784 -1.0307639 1.5360855 0.5742527 0.31253892 -1.1239647
0.57932705 -0.5502689 0.449945 -1.279125 -1.5902842 -1.5551972 0.90959424 0.38525394
1.2219619 -0.8470914 -1.626157 -1.2763973 1.1251726 -0.97229475 1.0085859 -0.1633607
-0.11732166 0.22744213 1.3248792 -0.16514571 -1.3611072 -0.34656373 0.94963497 -0.58237386
-0.32891285 -1.5040361 1.4962146 -0.5386357 -1.4563202 1.101461 -0.31914315 0.8899937
1.0555154 -0.45103657 1.3544711 0.1508545 -1.6313574 -0.88049626 -1.6039381 0.72899723
-0.5215708 -1.5124227 1.1517056 0.91290414 0.6110985 -1.2538267 0.27169812 0.9813492
1.6676377 -1.4565387 -1.0326825 0.30111283 -1.4979514 1.4000132 -1.417109 -0.16200177
0.81879705 0.75490636 0.06564151 -0.058731887 1.1787885 -0.16595978 1.1687332 1.2212529
1.3362182 -0.99556035 -1.0413911 -0.34109062 -1.1303875 -1.5996226 1.3219622 -1.6529278
1.6372519 -1.6016791 -0.6971515 -0.9390609 -0.11063537 0.21042794 -0.32468712 0.65164566
-1.6531188 -1.856823 0.34121245 0.040688097 0.66129094 -0.6315798 -1.6362705 0.78914386

_weight_1 f4 [32, 64]
00000000: fd9c 8f3d 2e43 2b3f 47cf c8be 9a5d ae3f
00000010: 35a7 783f ad5b bb3f d3fb 48be 60fb d3bf
00000020: f3e9 d33f 9ecc 87bf 31a7 91bf 295f 8f3f
00000030: 65fd ce3f 8b25 8bbf 7272 9d3e f4cc b03e
00000040: e095 f33e c84c c43d 8e67 03bf 0b37 933f
00000050: edd1 b4bf 5271 973f 2b8d 5fbf cc2e 393f
00000060: 1316 a63f fc36 44bf e611 cebf 04fb c0bf
00000070: 9c9c 603e ea1d a43e 84b5 97be 670b 8bbe
00000080: c6cb 6a3f a95c 6b3f c929 f13f 81ff 633f
00000090: eb92 b7bf 42c8 c5bf ec43 52bf 6239 11bf
000000a0: dd8b 2abf bf96 903f 73d3 33bf 4632 a83f
000000b0: 9fb7 44bf 234f b4bf 6a7b 743f 2d00 8fbf
000000c0: f370 ad3f d093 2b3f d6bb 5ebf f232 073f
000000d0: f0bc ef3f edf7 9a3f edf8 063e 5b60 10bf
000000e0: a417 993f b8a8 c2bf 2d08 ac3e 8445 9b3f
000000f0: 1c52 a5bf bd94 94be 8954 97bf cde0 ad3f
00000100: e96f 56bf 7ae0 80bf d7ee 1e3e d89a 363f
00000110: 2b0c 02bf 8151 ef3e b08c 32bd 078a f6be
00000120: 35e4 893f 89d7 573f a817 213f 6f0e d93e
00000130: 9800 27bf 1776 47be f6b2 b23f ed7a 52bf
00000140: d51a 703e 84a4 eabe dc3a 1dbf d005 cb3f
00000150: df65 4f3f fb8c afbf 929b 5e3e 7b3e c03f
00000160: 3394 85bf 6d69 a63f 89e6 89bf 95b5 72bf
00000170: 2f22 ac3f de0a 5ebd 763c 20bf 7cef bb3e
00000180: ed13 fbbf e6b5 6c3f 764e e83f 96cd 8abf
00000190: 06f7 a63f 6abe 2abf e31f 093f 5c6c dd3e
000001a0: b004 f63f 3822 b1bf 581a d6bf 8835 91bd
000001b0: 6251 2ebe 96fa d0bf edeb a8be 5468 86bf
000001c0: 1157 883f 88ce 633f 3c9b 503f e936 2340
000001d0: 3354 6fbf cb94 a5be 375f 13bf 7b16 423e
000001e0: 634f 0340 4db4 b23e 251e 90bd b484 903f
000001f0: 5d5c 96bc 284d 4d3f ac18 c9bf d16c 653f
00000200: af5d 4bbf adad 8a3e a6a7 d2bf 942e 7f3f
00000210: 0de6 9bbe 11d3 8cbe 7b76 b5bf b6be 71bf
00000220: d4ff 8bbf ffb1 bebe 48f0 8c3f 58b3 d7bf
00000230: 9ed3 52bf c805 c4bf 153f 82bf b510 e43c
00000240: eada 63bf d778 bcbf d0db b33f 55bc 03be
00000250: d7a8 0b3f ff25 9c3f 986f 8cbf cf79 bdbf
00000260: bc98 b0bf b1e0 5ebf fead df3d 2600 3abf
00000270: f1fb 8ebe d85d e13f 176c aabf bff1 923e
00000280: 98a5 8abf c893 8dbf eeb9 9e3f 9d13 9e3f
00000290: 7979 b1bf 2dad 79bf 2fe9 1e3f 7bab c53f
000002a0: 76a6 31bf 8e1e d8bf c14b 893e e4b2 b9bf
000002b0: 71ce 36be c59c 923f 7596 713f b0d5 c73e
000002c0: 325c 0e3f c133 b43f a916 cf3f ec29 603a
000002d0: 1270 743f a578 eabe c593 e8be db57 a1bf
000002e0: f89a c93f 39bd c43f f67b b0bf 78c7 a5bd
000002f0: 2e62 a0bf 73b8 64bf b138 283f 6eb3 753f
00000300: 9df9 3d3f e4a2 54bf 9233 1d3f 6899 dd3f
00000310: 1f36 b3bf bb56 c83e 8f54 babe b4dd d7bf
00000320: 4ef7 da3f c820 9dbe b529 1f3e 76b8 9f3f
00000330: 1cf6 dd3f ed94 513e c659 63bf 5e2f aebf
00000340: 00cc 2cbf abd4 9cbf 8c8e 2bbd aa57 c23f
00000350: 27d7 a6bf f156 183f 09a3 073f 180b cabd
00000360: 50a7 363f 946c 9a3f cc43 a9bf 85f8 8d3f
00000370: 94e2 86bf d9a2 0dbf a32f d43f 55d6 89bf
00000380: ad80 7abf e483 84bf 2d53 493e 205c 973f
00000390: f9fb ae3f 6291 7bbf e90a 50bf 49af a13f
000003a0: 2ddd 8dbf 1f17 39bf c542 bd3f 006b a03e
000003b0: ec7f 6c3e 7bc6 c93e 2a91 963f 646a 5dba
000003c0: 068d d43f 6fb0 32bf e17f ea3e d053 f7be
000003d0: 74ea a9bf 2a12 013e 0721 c43f 6664 51bf
000003e0: 908d d2bf 8212 833f 4a2e e5bf 4632 863f
000003f0: 0863 c5bf c920 d13f 014f 36bd 9226 8dbf
0.07012365 0.66899383 -0.3922064 1.3622315 0.9713014 1.4637352 -0.19627313 -1.6561089
1.6555771 -1.0609319 -1.1379148 1.1200916 1.617108 -1.0870832 0.30751377 0.34531367
0.47575283 0.09584957 -0.51329887 1.1501173 -1.4126564 1.1831458 -0.8732478 0.7233703
1.2975487 -0.766464 -1.6099212 -1.5076604 0.21934742 0.32054073 -0.29630673 -0.27157137
0.91717184 0.91938263 1.8840877 0.89061743 -1.4341711 -1.5451739 -0.8213489 -0.56728184
-0.66619664 1.1296004 -0.7024452 1.3140342 -0.76842684 -1.4086651 0.95500815 -1.1171929
1.3550094 0.6702242 -0.87005365 0.5281211 1.8729534 1.2106911 0.13180895 -0.56397027
1.196034 -1.5207739 0.33599988 1.213059 -1.2915683 -0.29019728 -1.1822673 1.3584229
-0.8376451 -1.0068505 0.15520798 0.7133002 -0.50799817 0.4674187 -0.0435912 -0.48152182
1.0772768 0.84313256 0.6292672 0.42393824 -0.6523528 -0.19478641 1.3960865 -0.8221882
0.23447736 -0.4582864 -0.6141794 1.5861149 0.8101482 -1.3714899 0.21739033 1.5019068
-1.0435852 1.3000923 -1.0773479 -0.9480832 1.3447932 -0.054209583 -0.62592256 0.3670615
-1.9615456 0.92465055 1.8148944 -1.084399 1.3044136 -0.666968 0.5356428 0.43246734
1.922018 -1.3838568 -1.672679 -0.070902884 -0.17023233 -1.6326473 -0.32992497 -1.0500588
1.065157 0.88987017 0.8148687 2.5502264 -0.9348785 -0.32340083 -0.5756716 0.18953888
2.0517204 0.34903184 -0.070369996 1.1290498 -0.01835459 0.80195856 -1.5710654 0.89619166
-0.79439825 0.2708563 -1.6457412 0.9968045 -0.30448952 -0.2750478 -1.4176782 -0.94431627
-1.0937448 -0.37245175 1.1010828 -1.6851606 -0.8235415 -1.5314264 -1.0175501 0.027839998
-0.8900591 -1.4724377 1.4051456 -0.12864812 0.54554504 1.2199095 -1.0971556 -1.4802798
-1.3796611 -0.870616 0.10921858 -0.72656476 -0.2792659 1.7606764 -1.3314236 0.28700063
-1.0831785 -1.1060724 1.2400491 1.2349735 -1.3865196 -0.9752987 0.6207456 1.5442957
-0.69394624 -1.6884325 0.26815608 -1.4507718 -0.17852189 1.1454092 0.94370204 0.39030218
0.5560943 1.4078294 1.617879 0.0008551169 0.95483506 -0.4579517 -0.4542524 -1.2604936
1.5750418 1.5370246 -1.378783 -0.08094686 -1.2529962 -0.8934395 0.65711504 0.9597691
0.74209005 -0.8306105 0.61406815 1.7312441 -1.4000891 0.3912867 -0.36392638 -1.6864533
1.7106721 -0.30689073 0.15543254 1.2478168 1.7340732 0.20466967 -0.8880886 -1.3608205
-0.6749878 -1.2252401 -0.04188399 1.5183003 -1.3034409 0.5950766 0.52983147 -0.09865397
0.7134905 1.2064385 -1.3223815 1.1091467 -1.0537896 -0.5532661 1.6577038 -1.0768534
-0.97852594 -1.035275 0.19660635 1.1824989 1.3670646 -0.9826871 -0.8126665 1.2631618
-1.1083122 -0.72300905 1.4786001 0.31331635 0.23095673 0.3940924 1.176305 -0.00084463344
1.6605537 -0.69800466 0.4580069 -0.4830613 -1.3274674 0.12604585 1.5322579 -0.8179382
-1.6449451 1.0240023 -1.7904751 1.0484092 -1.5420847 1.633813 -0.044508938 -1.1027396

_weight_2 f4 [64, 128]
00000000: 54b1 253f fb3b 133f 79cb 763f febc 093f
00000010: a8a2 c63d aa12 11bf 6b0d c43f 70cf d33f
00000020: fe0e afbf 7707 13bf f5b2 50bf 507d d8be
00000030: dcad 2e3f b10c d83e 6a70 ddbf 63e2 2e3e
00000040: 63db 41be 30c3 19bf 8b02 bdbf ccb4 59bf
00000050: 7059 883e 4bc5 9a3f 9912 993f 32f5 543f
00000060: 1335 f53e 9bcd 7d3f 29e2 84bf 6db8 68bf
00000070: f95e ad3e 39af c1bf 5a09 af3f 3961 383f
00000080: 980c 753f 0d2b cdbf 36cc b6bf 9e39 cb3f
00000090: 4768 2cbf a575 9f3f 31c1 20bf 8177 d6bf
000000a0: 1ecc 063f 3dea b43f 821b 723f 910b b03f
000000b0: 6f23 1fbf 0ae9 5abf 6651 9abf 7820 fabc
000000c0: 72f9 74bf 1b01 083f 69f8 f63b fe87 833f
000000d0: 742f cdbf c86e 6f3f fd77 af3e d1ab aa3e
000000e0: 6a53 1fbf 6ede 4f3f 231f 57bf 9fe2 b03e
000000f0: f60f dd3e f3e3 093e 041a 9ebf 5b51 81bd
00000100: 7af8 a43e 38cc b8bf 4f75 753f 07c2 9cbf
00000110: ce5f 0bbf 9b03 503f ee5f 5d3f c4b9 63bf
00000120: 02ab c5bf 37e4 75be 64cf cdbf 9039 c2bf
00000130: e614 373f 3ff1 d9bf adbe 273f 0c9b 8fbe
00000140: f071 6c3f e538 a7bf 0ed4 2e3f 4617 693f
00000150: 2767 643f a3b0 d9bf 60c3 8f3e 9460 333e
00000160: 5e91 093e b1e9 a03f 6087 bdbf 4fe2 22bf
00000170: 9004 6dbe 8a4e a23f 0ccd a03f 24ae 763f
00000180: 7cfc 923f 6b6d 42bf 2a84 1b3f 9df6 d73f
00000190: 322d db3f 57ca b43e 8d73 253e 2e0a 00bf
000001a0: 1e24 5abe 6086 5f3f cc00 b93f 1744 afbf
000001b0: 3df3 f33e 0ae8 9bbf e4a9 633f be05 80bf
000001c0: a9c8 9ebe 2b5e 343f 2301 b5bf 00b0 4dbf
000001d0: 2d41 98bf c884 d2bf ec56 bd3f 54ef 933f
000001e0: 1d9b af3f d735 91be 33bb 313d 2d80 3a3f
000001f0: 2c6b ac3c 7315 c1be adaa c5bf a91a cd3f
00000200: 38e8 373f 8517 583f f3bf 61bf d919 8fbf
00000210: ac29 94bf 3449 4cbf 8645 9abf a3a3 e53f
00000220: 33be a2bf 5ee5 c43f e6c4 1d3f d453 aebf
00000230: ee75 c4bf da07 aebf 7608 8a3f e185 aabf
00000240: 31b8 353f b573 cfbe 2b99 263f 6181 6b3f
00000250: 00db 5cbf 5075 78bf df52 203e 1348 723f
00000260: db20 b03f 564b ac3f c707 9ebf 713d 83bf
00000270: 26dc 7e3f 8060 e33f bb3b b13f 0219 5c3e
00000280: d086 843d c470 c6bf 095e c13e e2bc 193f
00000290: c6e6 4b3d c67a ae3f 15c7 973e 208a 3ebf
000002a0: 1e5e 423e b057 153f 380b 113f a504 24bf
000002b0: b18a 483d 2b59 3a3f a42f 913e 3e80 d4bd
000002c0: 8029 b4bf 28ec d4bf 16c1 adbe af87 bbbe
000002d0: a451 133f 83ed d33f 1da8 d83e e97a 8e3e
000002e0: ed34 bf3f 2171 d2bf c650 c23e fe47 dbbf
000002f0: 94b1 a8bf 7d51 c0bf 9ac9 2a3f c133 823f
00000300: 7d16 2f3f 724a d1be f8b9 36bf 3a07 3fbd
00000310: 1ae6 f73c b31f c13f 5656 54bf 255f ad3f
00000320: 4aa0 823b 17fc 31bf 570c 843f 2312 57be
00000330: c60a ddbd f2ab 58bf bc9d debf 891f 9ebf
00000340: de6c 073f 5a81 9c3f 8ca8 b6be 5d40 83bf
00000350: a275 2cbf 61ac 02bf c368 20bf 7a42 5e3f
00000360: 4d65 c93f 3ffb db3f c817 c3be 65c7 3b3f
00000370: c57e 2cbc 2811 49be ca8c dc3e ae9c 54bf
00000380: f8f0 debe 3386 e23f 4d9c ca3f 3193 c5bf
00000390: 0b24 20bc 30c0 a33f e40f c5bd 7735 a93f
000003a0: e3f1 9dbf 364d 2d3f 7006 9e3d 0aed 70bf
000003b0: 8daa 2abf 0d45 b33f 0725 4cbf afef 03c0
000003c0: e8bc a5bf 94e2 2bbd 6f41 efbe 4348 0a3f
000003d0: 50b3 9cbf bbc5 4d3f c9e9 683f 5332 223e
000003e0: 6ee8 c4bf 8931 d63e 5278 363e 9d27 9dbf
000003f0: d71c 0e3f 4e4d 53bf cd6b 80bf ff35 b33f
0.64723706 0.575134 0.96404225 0.53804004 0.09698993 -0.56669104 1.5316595 1.654768
-1.367645 -0.57433265 -0.81523067 -0.42283106 0.6823404 0.42197183 -1.7299931 0.17078547
-0.18931346 -0.6006346 -1.4766401 -0.850415 0.26630735 1.2091459 1.19588 0.8318664
0.47892055 0.99141854 -1.0381519 -0.9090641 0.3386152 -1.5131599 1.3674729 0.7202335
0.9572234 -1.6028763 -1.428107 1.5876958 -0.67346615 1.2457777 -0.62794787 -1.675522
0.5265521 1.4133984 0.94573224 1.375353 -0.6216344 -0.8551184 -1.2056091 -0.03053306
-0.95693123 0.53126687 0.007536937 1.0275877 -1.6030107 0.93528414 0.3427123 0.3333421
-0.62236655 0.81198776 -0.84031886 0.34547898 0.4317624 0.13465862 -1.2351689 -0.063143454
0.32220823 -1.4437323 0.95882124 -1.2246712 -0.5444306 0.812555 0.864745 -0.8895533
-1.5442812 -0.24012838 -1.6078916 -1.5173817 0.71516263 -1.7026747 0.65525323 -0.2804798
0.92361355 -1.3064238 0.6829232 0.9105114 0.892199 -1.700703 0.28078747 0.1751731
0.1343436 1.2571317 -1.4806938 -0.6362657 -0.23146272 1.2680218 1.2562575 0.9635947
1.1483302 -0.7594821 0.6074854 1.6872135 1.7123168 0.35310623 0.1615736 -0.5001553
-0.2130284 0.87314415 1.4453368 -1.3692654 0.47646514 -1.2180188 0.8893111 -1.0001752
-0.31012467 0.7045619 -1.4140972 -0.8034668 -1.189489 -1.6446772 1.4792151 1.1557412
1.3719212 -0.2836139 0.043391418 0.7285183 0.021047197 -0.37711677 -1.5442711 1.6023761
0.7183871 0.8441089 -0.88183516 -1.1179763 -1.1575217 -0.797992 -1.2052467 1.7940563
-1.2714294 1.5382497 0.6162857 -1.3619332 -1.5348489 -1.3596146 1.0783832 -1.3322107
0.7098418 -0.40517965 0.65077466 0.9199429 -0.8627167 -0.97054005 0.15656613 0.94641227
1.3760027 1.3460491 -1.2346123 -1.0253125 0.9955467 1.7763824 1.3846353 0.21493915
0.06471026 -1.5503163 0.37767056 0.6005384 0.04978063 1.3631217 0.29644075 -0.7442951
0.18981215 0.58336926 0.56657743 -0.64069587 0.04896039 0.7279231 0.2835666 -0.10376023
-1.4075165 -1.6634569 -0.33936375 -0.36626956 0.5754645 1.6556858 0.4231576 0.27828148
1.4938027 -1.6440774 0.3795225 -1.7131345 -1.3179193 -1.5024868 0.6671387 1.0172044
0.6839369 -0.4087711 -0.71377516 -0.04663775 0.030261088 1.5087799 -0.8294424 1.3544661
0.003986393 -0.69525284 1.0316266 -0.21003012 -0.107930705 -0.8463737 -1.7391887 -1.2353374
0.52900493 1.2226975 -0.35675466 -1.0254017 -0.67366993 -0.5104428 -0.62659854 0.86820185
1.573404 1.7186049 -0.3810408 0.73351127 -0.010528271 -0.19635451 0.43076164 -0.83051574
-0.4354322 1.7697204 1.5828949 -1.5435544 -0.009774218 1.2793026 -0.096221715 1.3219441
-1.2339443 0.6769594 0.077160716 -0.9411169 -0.6666649 1.4005448 -0.79744 -2.0615041
-1.2948275 -0.04196413 -0.4672961 0.5401651 -1.2242222 0.8037984 0.9098173 0.1583951
-1.5383432 0.41834667 0.17819336 -1.2277714 0.55512756 -0.8253983 -1.0032898 1.4000853

_weight_0 f4 [144, 128]
00000000: 597a b5bf 6e2e 893f 78f2 6b3f f771 96bf
00000010: 9727 95bf af80 b4bf 367c aabf 3308 c4bf
00000020: 5229 8bbf c0f2 b1bf 5809 c23f 594d fdbe
00000030: 85c1 de3e 7d0c 94bc 5333 bf3e 7d3d f63e
00000040: 4aaa 9b3f 4686 c93f 44ff 823f 547e 883f
00000050: 8f27 a63f 286d 0c3f 9843 e9be f779 c43e
00000060: 3fef d03f 0717 82bf 6547 62be 6b24 963f
00000070: d836 bfbf e761 5ebe 41db c0be a1a6 dcbf
00000080: f63c abbf d72a b9bf 0c47 fbbe c535 0bbf
00000090: 2be7 b5bd 7032 9d3f 5094 46bf 2ff8 84be
000000a0: 8237 d63f f46f 1c3f 72d7 92bf 0038 dfbf
000000b0: 8d2a bc3f 38ab e63e 3e57 d13f 80d6 8e3f
000000c0: 6519 9a3e b42b 493d 5841 b23e 0a9a b9bf
000000d0: 415a 813f 4300 033f c60d 96be 79e2 e73e
000000e0: 899f d73e 026a 903f 2d8a 9a3f 4c95 c13f
000000f0: 9e6b 873f f30a 8ebf dba2 82bf 2c45 a3be
00000100: 60df 83be 5e51 40bf 3f32 97bf a880 f33f
00000110: 42e2 f03e 4545 bf3f c4ce a5bf 0da9 e63e
00000120: 6067 a33f a435 48bf bfb8 193f fbc4 803f
00000130: 5eec 183f 31e0 f1bf fa5b a13e 2c71 a23f
00000140: d131 273f 88cb 9dbf d59d 53bf 78bc 9e3e
00000150: 6b93 9fbd a86c 9b3f 1873 eabe 4561 6bbe
00000160: 12ab 90bf 4075 173e aff4 4bbe 7643 bf3f
00000170: 9f0f 04bf 822a d53f 88cd afbf ea83 d23f
00000180: 27b3 dbbe c7d2 543f 7c37 143f 1222 d03f
00000190: 6b60 c3be 35d4 90bf d539 703f 6c5e c63f
000001a0: 68b3 b8bf c5c6 8a3f 28ca 81bf 5f55 3f3e
000001b0: de3d ce3e 4560 fabe 3c92 7cbf f4e4 af3c
000001c0: 39bf 113e b841 83be 9dd1 ad3f 595e 9ebf
000001d0: 7024 fbbe b812 0f3f 44bf a83f b501 953f
000001e0: cf4f 3a3d f774 c53f eb35 0bbf d93f 3d3f
000001f0: 384a 893f 75c3 a43f 7f31 463f de04 a7bf
00000200: 868f a13f 13c8 993f 0488 a1bf 2266 45bf
00000210: 0ec0 913e 8f51 fcbe 6f97 8b3f a94e 2dbf
00000220: 36b0 c93f c961 c63e 1813 913f a805 42bf
00000230: 8051 9e3e 61f6 e1be 2911 10be aa2d c0bf
00000240: 1956 ba3e 34dd 65bf 7ecc cdbf 69f1 d7be
00000250: bc07 0fbf 58d1 b2bf fd7f 25bf 78ec adbf
00000260: 35be d0bf 555e 713f 0859 c73f 9208 063f
00000270: d84b 943f 2bcb ae3d c8b7 0f3f 5cbe dbbe
00000280: 1283 a1be 123e c6bf 5411 023e b8f1 f83e
00000290: d912 1ebf 49bd d03f 3834 aabf 97d4 7b3e
000002a0: f607 79bf f02e bf3f 17ba cf3f b7c1 bd3f
000002b0: 9687 c7be cde1 aabf 4a47 c33f 96d7 b43f
000002c0: 3335 b5bf 45e9 a9bf 44d7 4f3f 65c5 ba3f
000002d0: 9c04 0d3e ef48 93bf 6bde a4bf 049d d43f
000002e0: 31a8 89bf 0e53 633e 54ef 653f 98bc 153f
000002f0: a6dc a43f c296 68bf bbee 603e fe0b b1bf
00000300: 3f03 bbbf 2ddc d2be 6a57 b0bf 97b8 cebd
00000310: a133 be3e 02c5 c23f f626 a7bf c062 853f
00000320: e881 c93f f5b9 6d3e 1cbc cb3f 4b9a 49bf
00000330: 6ba2 cfbf 5d9f 59be 9661 fb3e d360 803f
00000340: dfbc 973e 4018 a1bf a5bc 903f e7f7 d33f
00000350: 9500 903f 2986 333f 682b b33f 56bc b5bf
00000360: 3899 58bf df7f 98bc c688 85bf 7e60 bb3f
00000370: 7e2e dcbf 4b72 74bc 1331 043f 8ddd f13e
00000380: 27c7 5a3f 1ea0 99bf 1b26 58bf c004 6bbf
00000390: f646 d4be 20f5 5b3d 6a4c 2cbf 8e57 98be
000003a0: 3098 cfbf 8992 043f a5c3 39bf cfe4 8c3d
000003b0: 41b1 ab3f bfef c83c 240c c4be 1ddf 62be
000003c0: fdda 7abf 4a06 933f 859a 8bbf 9f0a 313f
000003d0: 11b1 853f 9226 9d3f e254 b3bf d14a 543f
000003e0: 15d3 8cbf 02e8 aabf 278d bdbe bb3b aa3f
000003f0: 064e 8dbf e5ab b73e 14ed 6cbf c239 5dbf
-1.4177963 1.0717294 0.9216685 -1.1753529 -1.1652707 -1.4101771 -1.3319156 -1.5315002
-1.0871985 -1.3902206 1.5159101 -0.49473074 0.4350702 -0.018072361 0.37343845 0.48093787
1.2161343 1.5744102 1.0234151 1.0663552 1.2980822 0.5485406 -0.45559382 0.38374302
1.6323012 -1.0163277 -0.22097547 1.1729864 -1.4938612 -0.21717034 -0.37667277 -1.7238351
-1.3377979 -1.4466199 -0.49077642 -0.5437892 -0.088819824 1.2281017 -0.77570057 -0.259706
1.673569 0.61108327 -1.1471999 -1.7438965 1.4700485 0.45052505 1.6354749 1.115921
0.300975 0.049113944 0.34815478 -1.4500134 1.0105668 0.51172274 -0.29307383 0.45289972
0.42113903 1.1282351 1.2073418 1.5123687 1.0579717 -1.1097091 -1.020595 -0.3188871
-0.2575636 -0.75124156 -1.1812209 1.9023638 0.4704762 1.4943014 -1.2953725 0.4505085
1.2765923 -0.7820685 0.60047525 1.0060114 0.5973567 -1.8896543 0.31515485 1.2690787
0.6531039 -1.2327738 -0.8266271 0.31003165 -0.077917896 1.2142534 -0.45790935 -0.22986324
-1.1302207 0.14790821 -0.19917558 1.4942462 -0.51586336 1.6653597 -1.3734598 1.6446507
-0.4291012 0.8313412 0.5789716 1.6260397 -0.381595 -1.131476 0.93838245 1.5497565
-1.442975 1.084191 -1.0139818 0.1868491 0.40281576 -0.48901573 -0.98660636 0.021471478
0.14233102 -0.25636077 1.3579594 -1.2372543 -0.49051237 0.5588794 1.318337 1.1641146
0.045486268 1.542632 -0.5437915 0.7392555 1.0725775 1.2872149 0.77419275 -1.304836
1.2621925 1.2014183 -1.2619634 -0.7710897 0.2846684 -0.49280974 1.0905589 -0.6769815
1.57569 0.3874648 1.1333952 -0.7578988 0.30921555 -0.44133285 -0.14069046 -1.5013936
0.36393812 -0.89790654 -1.6078031 -0.4217637 -0.55871177 -1.3970137 -0.6464842 -1.358779
-1.6308047 0.94284564 1.5574045 0.5235683 1.1585646 0.08534845 0.561398 -0.4291867
-0.3154531 -1.5487692 0.12701923 0.48621917 -0.6174751 1.6307765 -1.3297186 0.24592815
-0.9727777 1.4936199 1.6228665 1.4824742 -0.3897063 -1.3350159 1.5256131 1.4128292
-1.415686 -1.3274313 0.81187844 1.459149 0.1377129 -1.1506633 -1.2880377 1.6610417
-1.0754453 0.22199652 0.8981831 0.58490896 1.2879837 -0.9085504 0.21966068 -1.3831785
-1.4610366 -0.41183606 -1.3776677 -0.100938015 0.37148765 1.5216372 -1.3058765 1.0420761
1.5742769 0.23215468 1.5916781 -0.7875106 -1.6221441 -0.21252199 0.4909789 1.0029548
0.29636285 -1.2585526 1.130757 1.6560029 1.1250178 0.7012659 1.3997622 -1.41981
-0.84608793 -0.018615661 -1.0432365 1.4638822 -1.7201688 -0.014919828 0.5163738 0.47239342
0.8546013 -1.2001989 -0.84433144 -0.9180412 -0.4146039 0.053700566 -0.673041 -0.297543
-1.6218319 0.51786095 -0.72564155 0.06879579 1.3413469 0.024528382 -0.38290513 -0.22155423
-0.979904 1.1486294 -1.0906531 0.6915683 1.0444661 1.2277396 -1.4010279 0.8292666
-1.1001917 -1.3352053 -0.37021753 1.3299478 -1.1039436 0.35873333 -0.9254925 -0.86416256

_weight_0 f4 [144, 128]
00000000: b083 cb3f a35f a0bf 95bc bc3f 64ec 7c3f
00000010: cb54 a7bf 4c56 8bbe 3481 c3bd cc77 41bf
00000020: d177 0b3f 8f18 ad3f e3a4 45bf dfc7 563f
00000030: 0452 1f3f db13 383f ea38 8fbf d76f 973f
00000040: 8acf 31bf 7b4b b33f 34af c93f f53a bb3e
00000050: d11f 30be 4b65 d2bf 9e13 cdbf f9e8 3cbe
00000060: 79a4 e0be 0c11 d23d 5095 83bf bc26 a7bf
00000070: 2292 0e3f 6cbb 273f 896c 2ebf 2974 e8be
00000080: f875 543e cc08 873f 1f01 0dbf b77c e3be
00000090: 1751 a73f 8104 d5be 20a6 fabe d90c 323f
000000a0: 1d43 a7bf aa32 8dbf 65f0 a63e 5e6c 073f
000000b0: 0004 a43f b4a4 373f 2aae cfbf d636 c5be
000000c0: de4d f03e cfb2 243f d4f1 61bf 1dc1 b4be
000000d0: 5fb1 903f 2c13 6c3f 6f8b 4b3f 0acb 86be
000000e0: 684c cabf 06c3 9c3d 790c c43f 3430 993e
000000f0: 2f1c 2e3f 22b5 de3f d6f1 21bf da0e a3bf
00000100: 7bac 25bf 651f 9cbf 6dcd 92bd c86d b83e
00000110: 3ce4 94bf 9495 113f d1c6 8b3f 2593 2dbf
00000120: 3667 ca3f c5c9 293f 38ed 6f3f 2cf6 3dbf
00000130: f083 e13e 9246 943f b907 a23e 446d d03f
00000140: 5423 88bf 9a0a bebe 4eb5 da3e 5b72 9dbd
00000150: fbc7 0dbf 70ac b3bf dc0c b03e 9a45 9e3f
00000160: f0a4 9dbf 6662 c0bd a8c5 8fbd f9ad 7ebf
00000170: 7bbe bbbf 9d3e 9f3f feba 3f3e a36a eb3e
00000180: 1433 b7bf 7e85 7ebf 3543 30bf 026d 6cbe
00000190: 78a8 00be 1934 f6bf aa62 8ebf a606 673f
000001a0: c7e7 d33e 7250 253f 2055 84bf dcf0 cfbf
000001b0: 9a98 a7bf 1161 8ebf 6470 7b3f cab2 7f3f
000001c0: 82e3 28bf 05b5 5dbf 9487 d23f ed5f bdbf
000001d0: 7091 d9bf e27e bd3f c29e cbbe 4ced 9ebf
000001e0: b1ba 7f3f f379 9e3f 3014 753f 8aac d13f
000001f0: 49a8 6d3f 516f 3e3f 61dd 0a3f 6f5c 27bf
00000200: 56ee c53f 623b afbf d668 f03d dae1 34bf
00000210: ec16 b33e f4fd 30bd 7a4b cdbf 5329 713f
00000220: cf2b be3f 7e9c 323c 2247 7cbf 677a e0be
00000230: b2bc 8e3e 31c5 77bf 2ff4 b23f ef3a b93f
00000240: 5209 d5bf f413 c8bf 9234 833f 5529 e03e
00000250: f3bd 7e3f 06e7 b03f 2d1e b73f cedc a4be
00000260: 3f4c a23f 7fad 5bbf 30bb e53f 1efa 833f
00000270: dc8d 903f 7c2e 9d3e 0b52 16be d763 ce3f
00000280: ba75 393f 18cd 1b3e a570 b6bf c8c0 923f
00000290: 4947 adbf 0d6f 97bf d89f c43f dcbc d6bf
000002a0: ef97 79bf 5eb9 22bf de94 b9be b3f1 dc3f
000002b0: c737 15bd 8bf1 d0bf 6382 cc3f 60a9 d7bf
000002c0: 1f14 8e3f 7f56 613e 1c00 913f bc30 c53f
000002d0: 3667 1e3f 2451 7bbe a0f9 a63f abd3 aabf
000002e0: 6e33 36bf 5a16 94bf b536 e23f 3cfd 35bf
000002f0: a95a a8bf 6458 bebf 7b33 bb3f 573b c2bf
00000300: 4d0c d03f 9880 3d3e ec46 a2bf 08dd 9a3c
00000310: b73a 2a3f ddd3 cfbf 3f9c b23f b414 073e
00000320: 6f3e 21bf 6ea6 c03f 599a a3bf b1d8 bbbf
00000330: e9a0 bdbf 9a42 b93f 97a7 a8bf c82d ad3f
00000340: 915e 103f 5f86 22bf 2b24 0bbe 34f4 c8bf
00000350: d4c9 a13e 3c80 cf3f 5d6b f4be e11b 2a3d
00000360: a699 9fbf f827 babf 78cc 2ebf 2648 353f
00000370: fd36 b23f 3ab1 91bf e233 7b3e 11a9 313f
00000380: 5f8c d3bc a02e c6bf 3269 bcbf 86b3 a13e
00000390: 904c f2bf b0ee afbe f2bf 6f3f 7665 7abf
000003a0: 020c 67bf e0a1 a8be 2430 ecbe 5735 98bf
000003b0: 47d2 f7bd 5a13 9dbf d8c9 edbe eda4 89be
000003c0: 82d1 a7bf c3ee e1bb aad4 0dbf a5da f73d
000003d0: e0aa a23f 44fb 32bf 11d9 16bf 7cea 123f
000003e0: 9aa6 a23f 1bde 0b3f 1504 dbbe 475b 23bc
000003f0: b4ce 9fbf 3533 ebbd 708a c7bf 6eac abbf
1.5899563 -1.2529186 1.4745051 0.98798203 -1.3072752 -0.27214277 -0.09546128 -0.7557342
0.544797 1.352312 -0.7720472 0.8389873 0.6223452 0.719053 -1.1189244 1.1831006
-0.69457304 1.400741 1.5756593 0.36568418 -0.17199637 -1.6437162 -1.6021612 -0.18448247
-0.43875483 0.10257158 -1.0279942 -1.3058696 0.5569173 0.6552036 -0.6813436 -0.45401123
0.20748127 1.054956 -0.55079836 -0.44431087 1.3071622 -0.41605 -0.48954868 0.69550854
-1.3067356 -1.1031086 0.3260528 0.5289973 1.2813721 0.7173569 -1.6225026 -0.385184
0.46934408 0.6433534 -0.88259625 -0.35303584 1.1304129 0.92216754 0.79509634 -0.26326782
-1.5804567 0.07654385 1.5316306 0.2991959 0.68011755 1.7399027 -0.6325964 -1.2738907
-0.6471631 -1.2197081 -0.07168088 0.36021256 -1.1632152 0.56868863 1.0920049 -0.6780265
1.5812747 0.663235 0.9372134 -0.74203753 0.44045973 1.1584036 0.31646517 1.6283345
-1.0635781 -0.37117463 0.4271645 -0.07687827 -0.5538327 -1.4036999 0.3438481 1.2364991
-1.231596 -0.09393768 -0.07020122 -0.9948421 -1.4667505 1.2440983 0.18723676 0.45979795
-1.4312463 -0.9942244 -0.6885255 -0.23088458 -0.12564266 -1.9234649 -1.112386 0.9024452
0.4138777 0.64575875 -1.0338478 -1.624538 -1.3093445 -1.1123372 0.9821837 0.99882185
-0.6597215 -0.8660434 1.6447625 -1.4794899 -1.6997509 1.4804347 -0.3976956 -1.2416167
0.99894243 1.2380966 0.9573393 1.638078 0.9283491 0.74388605 0.5424405 -0.6537542
1.5463359 -1.3689997 0.11738746 -0.7065712 0.34978426 -0.04321094 -1.6038659 0.9420368
1.4857119 0.010901568 -0.9854604 -0.43843386 0.27878338 -0.96785265 1.3980769 1.447111
-1.6643469 -1.5631089 1.0250418 0.43781534 0.9950859 1.3820503 1.4306084 -0.3219971
1.2679518 -0.8581161 1.794775 1.0310705 1.1293292 0.30699527 -0.14679734 1.6124219
0.7244526 0.15214956 -1.4253126 1.1465082 -1.353738 -1.1830765 1.536128 -1.6776385
-0.9749746 -0.635641 -0.3624639 1.7261261 -0.036430147 -1.6323713 1.5977291 -1.6848564
1.109989 0.22005652 1.1328158 1.5405498 0.6187624 -0.24542671 1.304493 -1.3345846
-0.71172225 -1.1569321 1.7672945 -0.7108953 -1.3152667 -1.4870725 1.4625086 -1.5174359
1.6253754 0.18506086 -1.2677894 0.018904224 0.6649584 -1.623653 1.3953933 0.13191491
-0.6298589 1.505079 -1.2781478 -1.4675504 -1.4814731 1.447345 -1.3176144 1.3529596
0.56394297 -0.63486284 -0.13588016 -1.5699525 0.31599295 1.6211009 -0.47738162 0.041530494
-1.2468765 -1.4543447 -0.68280745 0.70813215 1.3923031 -1.138221 0.2453151 0.693986
-0.02582377 -1.5482979 -1.4719603 0.31582278 -1.8929615 -0.34361792 0.9365226 -0.9781107
-0.902527 -0.32936 -0.46130478 -1.1891278 -0.12100654 -1.2271531 -0.46443057 -0.2688364
-1.3110812 -0.0068949177 -0.55402625 0.1210225 1.2708397 -0.6991465 -0.5892497 0.57389045
1.2707093 0.5463578 -0.42776552 -0.009970493 -1.2484956 -0.11484376 -1.5589123 -1.3411996

_weight_0 f4 [128, 32]
00000000: d240 3b3f 3783 d33f 27c3 953f 595a 853f
00000010: 6e2f 773e f025 a53f 8bae 48bf b454 d4bf
00000020: de13 ab3f 77a0 8ebf c59d 5b3f f6da 533f
00000030: 9d22 4fbf e6d8 d8be f04a f9bd 541f 1abf
00000040: ee37 97bf 40f2 333f 6865 f73e 4573 4abf
00000050: 0a06 563f 8b7d 6fbf a10b 5abf 7e66 a03f
00000060: e36d 833e dac1 a73f c733 e4be fc68 233f
00000070: 252f 9ebe 26d8 f2be 0475 7dbf 66f7 c73d
00000080: 2d26 f83e 0d10 883e 027f c9bf 4a50 09bf
00000090: 8229 58bf 244b 803f 9583 a73f c8d4 bebf
000000a0: 0a37 e7be 04ce 12be 14c0 613f 1e12 eabe
000000b0: 6be8 613e 2248 b93e e65b 12bd 82b6 89bc
000000c0: 7b20 c5bf 5fe5 d4bf aa93 5f3f dacc ce3d
000000d0: 753e b1bf 13a0 1a3f 93db 0c3e db98 99be
000000e0: 7e9e 76bd 8637 3e3f 4a6c 313f f7ca 303e
000000f0: 09a3 2abf dd53 c4be 2960 b43f 2d53 d7be
00000100: bbb9 f2bf e0b8 ddbf 5a69 863f 2cdd 22bf
00000110: aee8 37bf d976 093f 2c52 c43f 7b20 4abf
00000120: 9c2b 80bd cbfd b3bb 311d 423f 02ff f6bf
00000130: 0bed 2bbf 6048 39be 8c95 433f 6eda 953f
00000140: 8459 5abf bebd 9a3f 2f94 cebf 9dd2 87bf
00000150: ac21 c73c 0a27 b1bf 0a66 d03e 3bec 82be
00000160: 79b8 443f 9e72 803c 2c42 ee3d 6e64 7a3e
00000170: 8440 ddbf 965a 843e 5b54 243e a2be f9bf
00000180: ccce 443f 479e c7bf 0598 9abe 2b38 cd3e
00000190: 89ea b03e 6449 a0bf 6056 a1bf a5ef c63f
000001a0: b47b 17bd b1b2 50bf cddb dbbf a061 a73e
000001b0: a1e9 aebe 76e1 27bf d951 b3bf 99d7 41bf
000001c0: c6f0 ebbe 4fe3 a43e ce96 8c3f 8264 f93f
000001d0: 0e56 9cbf e463 9bbf 50c5 75bf 45e1 083e
000001e0: 675e 9fbf 00ca d5bf 8a78 ccbe 1c86 b6bf
000001f0: 5b1d b03e 0d87 473f b12f 88bf 21c8 193f
00000200: a23e 49bf 16fa 6c3f a217 4abf 72ef 503e
00000210: 77f2 c1bf 7698 43bf d89c 1a3f 77de 83bf
00000220: b822 44bf 8ddf a33f 0a2f e2bf c3a2 493e
00000230: 9d30 edbc ba0a 0e3f c9fe c63e 226b 593f
00000240: a1cc 253f af7d 95bf 8e30 db3f 1011 d13e
00000250: 6780 5d3f 9a27 8a3f 2193 3c3f 4e2e 853f
00000260: ef7e 763f 1a50 85bf 6fa2 a9bf 4dbf 0cbf
00000270: c4af a73f 697b b2bf f8b3 c13f 7d3a b73f
00000280: f1ce a5bd 3451 c2bf e111 64bf 9881 fdbd
00000290: 75c8 07be 0e27 0d3f fbb8 32bf 4274 1f3d
000002a0: 8649 873f 0571 d33f 5d9c acbf 9455 2f3f
000002b0: 432c 29bf 7ecf d73f a726 57bf e1ca e8be
000002c0: c4ad 9fbf 1476 c33f c18a 5d3f 50e2 28be
000002d0: 01d4 cfbe acef ddbf cef2 97bf 5302 b53d
000002e0: df14 913f dc46 10bf 53c6 283f c52c f53f
000002f0: 78f1 553f 1e13 2c3f 49e9 ca3e fb19 d4bf
00000300: d355 923f d593 27bf 76ca 9c3f 4ac5 f6be
00000310: 8607 82be 7e2e 40be 1d67 8fbe 1d97 ecbf
00000320: 2d7f 9bbf 65b7 103f b0c9 bc3f 09ee 943f
00000330: ed02 d3bf 9b36 aa3f 26a9 983d 6fb7 5cbf
00000340: 4888 95bf 99b6 87bf 0b0f 9ebe b9e2 3fbf
00000350: 9003 f53e 1b32 37be 0dd7 e4bf 7612 823e
00000360: b2c0 7abf db0a 77bf 5b9f fb3f f961 08be
00000370: 7697 af3f 6855 6a3f d6b0 b9bf 5258 cdbe
00000380: b718 453f a744 1ebf 90bd e7bf 0b46 f73e
00000390: 9b87 273f a046 10bf 7f4c 2c3f 0b32 8e3f
000003a0: 14ab 653f d2b0 ca3e 41fa 17bf e57f bdbf
000003b0: c162 6fbe 00de d63f 2016 153f 7465 b03f
000003c0: b679 dcbe 7373 dc3f d821 0840 9cbe c8be
000003d0: f82e 9cbf c039 5bbf a696 17bf c6d2 debf
000003e0: ad45 9bbf e24d d3bf fab9 813f 5930 e63f
000003f0: 347d 8dbf 1b59 c33f e68d 8d3e fa58 b9be
0.7314578 1.6524419 1.1700181 1.0418197 0.24139187 1.2902203 -0.7839133 -1.6588349
1.3365438 -1.114272 0.8578761 0.8275598 -0.8091219 -0.4235298 -0.12172496 -0.6020405
-1.1813943 0.7029152 0.48319554 -0.7908214 0.83602965 -0.9355094 -0.85173994 1.2531278
0.25669774 1.3106034 -0.44570753 0.6383207 -0.30895343 -0.47430533 -0.99006677 0.097639844
0.48466626 0.26574746 -1.5741885 -0.53638136 -0.84438336 1.0022931 1.3087031 -1.4908686
-0.4515918 -0.14336401 0.8818371 -0.45716947 0.22061317 0.36187845 -0.035732172 -0.01681066
-1.5400537 -1.6632499 0.8733469 0.10097666 -1.3847185 0.60400504 0.13755636 -0.29999432
-0.060209744 0.7430347 0.6930586 0.17264925 -0.6665502 -0.38345233 1.4091846 -0.42055646
-1.896293 -1.7322044 1.0500901 -0.6361873 -0.71839416 0.5369697 1.5337577 -0.7895581
-0.06258318 -0.005492901 0.7582579 -1.9296572 -0.67158574 -0.18094015 0.76400065 1.1707284
-0.8529284 1.2089155 -1.6138972 -1.0611149 0.024308048 -1.3840039 0.4070285 -0.25570855
0.7684398 0.015679654 0.11633715 0.24452373 -1.7285314 0.25850362 0.16047804 -1.9511302
0.76878047 -1.5595177 -0.30194107 0.40081915 0.34553936 -1.2522397 -1.2604485 1.5541884
-0.036983207 -0.8152266 -1.7176453 0.3269167 -0.3416262 -0.655784 -1.4009353 -0.757196
-0.46082133 0.32204673 1.0983522 1.9483798 -1.2213762 -1.2139859 -0.960042 0.13367184
-1.2450684 -1.670227 -0.39935714 -1.4259677 0.34397396 0.77940446 -1.0639554 0.60071
-0.78611195 0.925691 -0.7894231 0.20403841 -1.5152119 -0.7640451 0.60395575 -1.0302266
-0.76615477 1.2802597 -1.7670605 0.19690995 -0.028953845 0.5548512 0.3886626 0.84929097
0.64765364 -1.167898 1.7124193 0.4083333 0.8652405 1.0793335 0.73662 1.0404756
0.96287435 -1.041507 -1.3252696 -0.549794 1.3100514 -1.3943912 1.5133047 1.4314724
-0.080961116 -1.5181031 -0.8908978 -0.12378234 -0.13260062 0.5513772 -0.6981351 0.03892923
1.0569313 1.6518866 -1.3485218 0.68489957 -0.66083163 1.6860197 -0.84043354 -0.45467284
-1.2474904 1.527041 0.86539847 -0.16492581 -0.40591434 -1.7338767 -1.1870973 0.08838334
1.1334494 -0.5635812 0.6592762 1.9154288 0.8357158 0.6721667 0.39631107 -1.6570429
1.1432441 -0.6545995 1.2249286 -0.48197395 -0.25396365 -0.18767735 -0.28008357 -1.8483616
-1.2148186 0.5652984 1.474905 1.1635143 -1.6485268 1.3297914 0.074541375 -0.862174
-1.1682215 -1.0602599 -0.30870852 -0.74955326 0.4785428 -0.17890207 -1.7878128 0.2540471
-0.9795028 -0.9650094 1.9658006 -0.13318624 1.3718097 0.9153657 -1.4507091 -0.40106446
0.76990837 -0.61823505 -1.8104725 0.48295626 0.6544129 -0.56357765 0.67304224 1.1109022
0.8971417 0.39588028 -0.5936623 -1.4804655 -0.23377515 1.6786499 0.58236885 1.3780961
-0.43061608 1.7222732 2.1270657 -0.39207923 -1.2201834 -0.85634995 -0.59214246 -1.7408073
-1.2130638 -1.6508143 1.013488 1.7983505 -1.1053834 1.5261568 0.27647322 -0.36200696

_weight_0 f4 [128, 16]
00000000: 9091 58bf 3cd6 bebf 18ba b43e e5a4 41bd
00000010: b163 cdbc e452 813f 2835 713e 0036 a9bf
00000020: d8a1 b5bf a386 82bf d023 05bf 048a c03e
00000030: 74c6 4d3f 2650 153f 34e5 67bf 3c16 e33e
00000040: 523e a3bf 56b9 a63f eeaa 003e a864 29bf
00000050: 56f1 bbbe 21a2 babf 29b9 db3f a474 b33d
00000060: 584b 2c3f d4f8 c0bf 8eff da3e cd6c d63f
00000070: 1069 4fbf cc26 f93f 3121 e63c 4d47 913f
00000080: 696f 8c3f e604 9ebf 749b d33f 4517 adbf
00000090: 5afe 93bf 97d1 2ebf 4534 c5bf 068e 663f
000000a0: a8bb dcbf 3cc3 82be 65ef 94bf abdf 49bf
000000b0: 399f 05be 79c5 4ebf 4c01 163f 74bb a7be
000000c0: d7e4 12bf 0adc 9a3f d37e a1bf 3b52 cb3f
000000d0: 678c 4dbe 5094 0fbf 79b0 5f3f 10a0 b2be
000000e0: a111 f2bf ff25 1a40 79ae bfbf eb79 9e3f
000000f0: 7700 9ebe a44d abbf a0fa bebf 1407 a73f
00000100: 1fe7 c6be eb06 953f 6ad8 06bf 4acc c5bc
00000110: 3974 653b 6b22 3cbf 974a bdbd ca67 b4bf
00000120: d25f 8fbf 5f6e 85be e0f9 4cbf c242 2e3e
00000130: 1079 8d3f 2724 54be 7f4f 86be 3ca3 9cbe
00000140: 5fe9 db3f 3bcb bcbe e595 0d3f cea3 8dbf
00000150: ffea 7dbf 843e 0a3f 0a93 dbbe 1fb7 a93f
00000160: d0d6 82bf d92d e63e 6b8f 173e ea83 dd3d
00000170: 7ca2 12bf b8fe aa3e 4d69 923e 1759 93be
00000180: e3ec a8be f822 b9bf 9a5a 813f 4148 c8bf
00000190: df17 3c3e faef 4abf a433 703f 0b49 ba3f
000001a0: e5e9 b9bf 43ff 733f 1140 adbf ce70 323f
000001b0: fc4c 9b3f c3c9 6abf ca41 adbf e9ac 7f3f
000001c0: 4f6b 833f a559 74bf ccd7 1d3f 2f94 acbe
000001d0: 22e3 e73f 6a15 8b3f b197 9d3f b1ef ccbf
000001e0: 7d46 8f3f c0c3 ddbe b57a b3bf ea2e c93d
000001f0: 685e 413f 90d0 b93f 7db9 d8bf db5c 233f
00000200: 441e 4c3f 0e9c 82bf 734b b73f 9838 a63e
00000210: 31d2 913f dbc8 b43f e65a 323f f54d 5a3f
00000220: 1433 52bf 8486 3b3f 24c6 82be a236 063f
00000230: 3e32 bbbf 4c01 9b3e 01dc e13e 1130 7cbf
00000240: cd4f 04bf 35dc e1bf 4617 dc3f e033 313f
00000250: aacf 8d3e 8d60 d3bd 69ea 883f c7a0 b9bf
00000260: 4568 42bf 6aac 84bf ccfb e03f 2e15 abbf
00000270: 33cc febf ef79 f63e 9802 733f f52e a7bf
00000280: 4efb a43f 1043 c6bf 6fac 68bf d2da 9a3f
00000290: 3a31 dd3f a8a5 8cbf 774e 4f3f 73ec df3e
000002a0: 38f0 2e3f 13df 873f cd21 c9be 0b4b ecbe
000002b0: e644 dcbf 8196 03bf e154 d73f d256 83bf
000002c0: 1259 0c3e 6ccd 1c3e c781 873f 7ecd 853e
000002d0: 7dd6 43bf 2c3f f63f 86c6 9e3f 6493 243f
000002e0: 59a6 57bf ce15 883f b8ec 7dbf be30 c5bf
000002f0: d9c9 96bf 5124 e3bf 802a 11be c649 89bf
00000300: 4734 0440 e53a e5be 8bf4 7cbf 35bf 06bf
00000310: 528d e93d 1b57 323d ba51 b0bf 0bc7 2fbf
00000320: 4b6d c33f e005 86bf 9917 223e f629 953f
00000330: deee 8b3f 2185 6abf 5597 a93d 8111 b03f
00000340: 502c fbbe 6b6b d13f 63e5 f8be 655a 513d
00000350: b7bc 473e 2730 56bf a909 093f c9c6 743f
00000360: f3a2 993f 6d50 1bbf 980a 0bbf 0cf4 02bb
00000370: 8428 98bf 0663 7ebf 0d70 04bf 1786 5dbf
00000380: 3802 b3be db2d c93f 0f91 cfbd 0ce7 ef3f
00000390: 47ce 863f d301 9fbc 76f5 b33e b90b b8be
000003a0: c718 83bf 39db c3bf 9e9f d13f 237e 78bf
000003b0: 319c 9e3e f933 a73f 512a 89bd 0b5d 023f
000003c0: 4e9c 76bf 88b1 01bf be14 11be c8cc a9be
000003d0: 2df5 c33f 53df b23f ebb2 97be a829 febe
000003e0: 97e8 d43f ce70 07bf c550 ee3d 9eb9 7e3e
000003f0: de2f 153f bcba debd a36e 763f bfc6 3dbf
-0.8459711 -1.4909129 0.35298228 -0.047276396 -0.02507195 1.0103421 0.23555434 -1.3219604
-1.4190016 -1.0197338 -0.5200777 0.37605298 0.8038094 0.5832542 -0.9058411 0.443529
-1.2753394 1.302531 0.12565205 -0.66169214 -0.36707562 -1.4580728 1.7165881 0.08762482
0.67302465 -1.5075936 0.42773098 1.6751953 -0.8101969 1.9464965 0.028091999 1.1349884
1.09715 -1.2345245 1.6531816 -1.3522726 -1.1561997 -0.6828856 -1.5406576 0.9006046
-1.7244768 -0.25539577 -1.1635557 -0.78856915 -0.1304902 -0.8077007 0.5859573 -0.32760203
-0.5738043 1.20984 -1.2616829 1.588447 -0.2007309 -0.5608568 0.8737865 -0.34887743
-1.891163 2.408569 -1.497512 1.2380956 -0.3085973 -1.3383069 -1.4920235 1.3049035
-0.38848206 1.1642736 -0.5267397 -0.024145264 0.00350119 -0.7349002 -0.092427425 -1.4094174
-1.1201117 -0.2606077 -0.8006878 0.17017654 1.105257 -0.20716916 -0.26232526 -0.30593288
1.7180594 -0.36873803 0.55306846 -1.1065614 -0.991867 0.5400164 -0.4288562 1.3259009
-1.0221806 0.44956854 0.14800803 0.10816176 -0.5727918 0.3339746 0.28595963 -0.28778908
-0.3299323 -1.4463797 1.0105774 -1.564705 0.18368481 -0.79272425 0.938288 1.4553541
-1.4524504 0.95311373 -1.3535177 0.69703376 1.2132869 -0.91714114 -1.3535702 0.99873215
1.0267123 -0.95449287 0.61657405 -0.33706805 1.811619 1.086591 1.2311918 -1.6010648
1.1193386 -0.43313408 -1.4021822 0.09823401 0.7553468 1.4516773 -1.6931607 0.6381356
0.7973368 -1.0203874 1.43199 0.32465053 1.139227 1.4123796 0.6966995 0.85275203
-0.8210919 0.7325213 -0.25541794 0.52427113 -1.4624708 0.30274427 0.44113162 -0.98510844
-0.51684266 -1.7645327 1.7194602 0.6921978 0.27697498 -0.1032115 1.0696536 -1.450219
-0.7594035 -1.0365117 1.7576842 -1.3365839 -1.9906067 0.48139903 0.9492583 -1.3061205
1.2889192 -1.5489216 -0.9088811 1.2098029 1.7280648 -1.0988054 0.809791 0.43735084
0.68335295 1.0614952 -0.392836 -0.46151003 -1.7208526 -0.51401526 1.6822778 -1.026087
0.13705853 0.15312737 1.058648 0.2613334 -0.7649916 1.9238029 1.2404335 0.642874
-0.842382 1.0631654 -0.9918933 -1.54055 -1.1780349 -1.7745458 -0.14176369 -1.0725639
2.0656908 -0.44771495 -0.9881064 -0.5263551 0.11403908 0.0435401 -1.3774941 -0.6866309
1.5267729 -1.0470543 0.15829314 1.165343 1.0932271 -0.9160939 0.082808174 1.3755342
-0.49057245 1.6360906 -0.48612508 0.051111598 0.19505583 -0.83667225 0.53530365 0.9561582
1.2002853 -0.60669595 -0.5431304 -0.001998189 -1.1887364 -0.9936985 -0.51733476 -0.8653273
-0.3496263 1.5717119 -0.101350896 1.8742385 1.0531701 -0.01941005 0.3514821 -0.35946444
-1.0241936 -1.5301276 1.6376836 -0.9706747 0.3097854 1.3062736 -0.06697524 0.5092322
-0.9633225 -0.50661516 -0.14168069 -0.33164048 1.5309197 1.3974403 -0.2962869 -0.49641156
1.6633481 -0.529065 0.11636499 0.24875495 0.58276165 -0.108754605 0.9626257 -0.7413139

_weight_0 f4 [128, 16]
00000000: 0af5 ae3f 7704 263f a783 053f 13e0 803f
00000010: e067 cebd d339 a03f 8502 8d3e c66d c7bf
00000020: 94ad 93be 191d da3f 0fff 90bf 5a4e 5dbf
00000030: 2338 33bf 0fb1 b83f 1d1a 01bf 90a0 013f
00000040: 6d9f c4bf da9e 99bf 85a3 80bd aa25 c33f
00000050: 9c57 3dbe 68e0 6fbf 0bf6 203f 0a1e 44be
00000060: 4e5f 173f 4819 c33f 0bf0 bb3c fdd0 3cbd
00000070: 7d66 6abf 6a41 5ebf 31bd c63e b25d 683f
00000080: 2393 cf3e 0246 1d3f 6b80 873f ee0c 91bf
00000090: ae1d e93e 6108 bbbf 46f4 433f ed0c 3ebf
000000a0: 9914 b2bf 8b88 e73f 5603 6cbf e629 583f
000000b0: 537d 62be cfe1 253f 69c9 63be 3a62 78bf
000000c0: c6c5 f0bf ea00 b2bf 265b cc3f f372 70bf
000000d0: 2177 31bf 1056 c63f dab5 933e 111a b6bc
000000e0: ee7b 253f 1fa9 d4be 64ca cdbe ae1a 89bf
000000f0: 50ae cfbe 3620 ee3f 876e 633e 9f4f b83d
00000100: fcc3 0e3e 433b 8a3f a439 923e 2cec 46be
00000110: 2432 5e3c e75e 383f 040d a7be ca99 963f
00000120: adc4 833f a5a3 05bf 0bc2 2b3f 3cf7 a7bf
00000130: 3ed0 4d3f 1a81 c3bf 711f 23be 9e25 cb3f
00000140: 8530 803f 3780 213f 1e0a 133f 1df2 bebf
00000150: a814 bdbf 562c b23f 9ce9 513f 0038 c3bc
00000160: bb9c ecbe 1348 52be c354 77be e7f8 73bf
00000170: 0e09 ffbe 4ecc ca3f 5113 843f 236c a33f
00000180: e203 773f 935d b43f afd8 093f ff07 7f3f
00000190: b32a 9ebf 6d37 44be 5ebd d13f e1f6 8fbf
000001a0: a252 4c3f 9868 59bf 7f97 58bd f27d b83f
000001b0: ac9c 663f f274 fdbf 1962 34bf 9338 af3f
000001c0: 52c8 863f c067 653f 0614 c0bf 1eb1 573f
000001d0: 8be9 b9bf 7d22 8cbf 4b54 023e cd90 c5bf
000001e0: 8719 ea3e 98f5 963f 9c50 303e d283 0ebe
000001f0: 37ad 8abf 46f7 6bbe 3e81 bbbf 212d e63f
00000200: 3849 c53d 4ecb 9abf 69be 27bf 60c7 87bf
00000210: e701 bf3f 7918 723f e43b 39bf bc23 983f
00000220: 3c7f 4fbf f53a 0bbc 3a2e 633f c1e6 80bf
00000230: 5c98 1b3f 24ef 68bf fdf3 c63f 6b27 813d
00000240: de4b 823f 7046 e13f ae42 51bc 253f cc3c
00000250: 5a65 e4be f188 bbbf 9a41 15bf df7e de3b
00000260: db46 b9be 8d62 6f3f 340a 833f 4291 493e
00000270: d00e c5bd f982 fc3e 464f 263f 569f 54bf
00000280: de68 a5bf 5496 68bf c177 88bf 2323 ccbf
00000290: 45e0 cf3f 48c4 40bf 7116 9cbf e71b 9cbe
000002a0: 7c32 b33f aab4 d83f 400c 2bbf 2441 8b3f
000002b0: b605 febe 1f42 9dbf cdf6 36bf ef00 c23f
000002c0: 9e31 d83e bb92 e33e 56d9 433f c5c4 e7bd
000002d0: b121 7cbe 0e1b 113e f5b2 f93d 6d06 8a3e
000002e0: 0b0a b53e 8779 92bf 7e15 8f3f 7faf b53f
000002f0: 8098 c7bf 3a8c bdbe 1b61 d1be f668 f73e
00000300: 8fbc 98be a3c6 be3e 123d d0be b7ef 57bf
00000310: fdcb 823e f9ca 29bf 2413 d23f 689e b0bf
00000320: 5903 3a3f dc04 803f fbf4 b4bf 82f3 8f3f
00000330: d727 843f 277d 723f efb2 e2bf 85b3 93bf
00000340: 509f 21bf c013 953f 4ab4 2f40 0a03 babf
00000350: ff1c a5be 3860 cc3f 3279 34bc 6e3d 003f
00000360: ac5b 07c0 e682 8b3f 7402 20bf 8af7 4b3f
00000370: 2542 febd 843b b13f 33c1 89bf 41e5 6fbf
00000380: 61fd e93f 105b bdbf 161a c4be 11a7 fabe
00000390: e513 9abf 82c6 433e 0018 d2bf 913d ac3f
000003a0: 37c4 453f 7bf9 b6bf f70f 113f 413b 073f
000003b0: 2b30 13bf 5414 c13f bf28 863f 18ee 5f3f
000003c0: 1fdb c43e eb21 f0be fc56 2fbe 9544 a2bf
000003d0: 99ed b4bf a744 07bf f234 e03f 06b2 42bf
000003e0: a72a dd3f 925a 2cbf 010d 58bf 0516 cdbf
000003f0: 919b 3dbf 975c 093f 1dca b7bf 2715 0dbf
1.366853 0.6485056 0.5215401 1.0068382 -0.10078406 1.2517647 0.27540985 -1.5580375
-0.28843367 1.704013 -1.1327838 -0.8644768 -0.7000753 1.4429034 -0.5043047 0.50635624
-1.5361153 -1.2001603 -0.06281189 1.5245869 -0.18490452 -0.9370179 0.6287543 -0.19152084
0.591298 1.524209 0.02294161 -0.046097744 -0.91562635 -0.86818564 0.38816217 0.9076797
0.40541944 0.6143495 1.0586065 -1.1332071 0.45530456 -1.4611932 0.76544607 -0.74238473
-1.3912536 1.8088545 -0.9219259 0.8443893 -0.2211812 0.6479768 -0.222448 -0.9702488
-1.8810356 -1.3906529 1.5965316 -0.939254 -0.693224 1.5495014 0.2884968 -0.022229226
0.64642227 -0.4153528 -0.40193474 -1.0711267 -0.40562677 1.860358 0.22210132 0.089995615
0.1394195 1.0799335 0.285596 -0.1942603 0.013561759 0.7201981 -0.32627118 1.1765683
1.0294396 -0.52202827 0.6709296 -1.3122325 0.8039588 -1.5273774 -0.15929963 1.5870855
1.0014807 0.63086265 0.5743731 -1.4917637 -1.4771929 1.391978 0.81997085 -0.023830414
-0.46213326 -0.20535307 -0.24153428 -0.9530167 -0.49811596 1.5843599 1.0318395 1.2767376
0.964903 1.4091057 0.5384626 0.99621576 -1.2356781 -0.19161768 1.6385915 -1.1247216
0.7981359 -0.8492522 -0.052878853 1.4413435 0.9008281 -1.9801314 -0.70462185 1.368914
1.0529883 0.89611435 -1.5006111 0.84254634 -1.4524397 -1.0948025 0.12727468 -1.5434815
0.457226 1.1793699 0.1721825 -0.13917473 -1.0834111 -0.23043546 -1.4648817 1.7982522
0.09633106 -1.2093294 -0.6552492 -1.060772 1.4922456 0.9456859 -0.7235701 1.1885905
-0.8105352 -0.008497943 0.8874241 -1.007042 0.60779357 -0.909899 1.5543209 0.063063465
1.0179403 1.7599621 -0.012772245 0.024932453 -0.44608575 -1.4651166 -0.58303225 0.0067900266
-0.3618687 0.9350975 1.0237489 0.19684318 -0.09621966 0.49318674 0.6496471 -0.8305563
-1.2922628 -0.9085438 -1.0661546 -1.5948223 1.6240317 -0.752995 -1.2194349 -0.30490038
1.3999782 1.6930134 -0.66815567 1.0879254 -0.49613732 -1.2285804 -0.7147034 1.5156535
0.42225355 0.44447884 0.76503503 -0.11316828 -0.24622227 0.14170477 0.121923365 0.26958027
0.35359225 -1.1443337 1.1178434 1.4194182 -1.5593414 -0.37021047 -0.40894398 0.48322266
-0.2983136 0.37260923 -0.40671593 -0.8435015 0.25546256 -0.66325337 1.6412091 -1.3798342
0.7266136 1.0001483 -1.4137262 1.1246188 1.0324658 0.9472222 -1.7710856 -1.153916
-0.63133717 1.1646652 2.745379 -1.4532177 -0.32248685 1.5966864 -0.011015223 0.50093734
-2.1149702 1.0899322 -0.62503743 0.7967459 -0.1241496 1.3846288 -1.0762085 -0.9370919
1.828045 -1.4793415 -0.38301152 -0.48955587 -1.2037321 0.19118693 -1.6413574 1.3456289
0.77252525 -1.4294885 0.56664985 0.5282479 -0.57495373 1.5084329 1.0481185 0.8747268
0.38448426 -0.46900877 -0.17123026 -1.267718 -1.4135009 -0.5283913 1.7516158 -0.7605289
1.7278641 -0.673257 -0.8439484 -1.6022345 -0.740655 0.53656906 -1.4358555 -0.551104
