example_scripts/calculators_example/n_layer/intralayer_bp.pth (torch, 790428 bytes, 35 tensors)

_mean f4 [8]
00000000: 24aa d23d c943 a13d a86a be3d 9998 a93d
00000010: 7caf b93d 5273 ac3d d58f b73d eed9 ad3d
0.10286358 0.07874257 0.09297687 0.08281059 0.09066674 0.08420433 0.08962981 0.084888324

_inv_std f4 [8]
00000000: d528 8e41 1044 d440 24de a940 beaf 8b40
00000010: e886 7840 55a2 5e40 cc9e 4d40 9c7c 3e40
17.769938 6.6333084 5.308367 4.365203 3.883234 3.478658 3.2128172 2.9763556

bessel_weights f4 [8]
00000000: c844 4a40 f48b c840 259c 1441 ccc6 5241
00000010: af27 7b41 3d58 9741 73e5 b041 d820 c941
3.160448 6.267084 9.288121 13.173534 15.697188 18.918085 22.112036 25.141037

env_sum_normalizations f4 [3]
00000000: 517f 3e3e 517f 3e3e 517f 3e3e
0.18603255 0.18603255 0.18603255

_latent_resnet_update_params f4 [3]
00000000: 0000 0000 0000 0000 0000 0000
0.0 0.0 0.0

per_layer_cutoffs f4 [4]
00000000: 0000 c040 0000 c040 0000 c040 0000 c040
6.0 6.0 6.0 6.0

_weight_0 f4 [16, 16]
00000000: c4ec 2f3f 7609 093f 06bf 14bf 2862 09bc
00000010: 80dd 6bbf d8ef 883f 03cd c1bf e00c 87bf
00000020: 3faf cbbf 99aa 32bf 92ab 773f fe44 d03f
00000030: 83d1 6a3e 1452 b6be d866 2c3f a0fe bb3e
00000040: f0ba a7be fc51 d6bf 56b8 dc3e 5549 423f
00000050: 7b47 2f3f 6ecb a9bf 9b0a 81bf db5e af3f
00000060: 556c a83f 8f19 8ebf 8359 083f 4a8b 67bf
00000070: 4b98 5b3f 3668 f33e 817b 47bf 471b 94bf
00000080: 43c5 973f 14b8 8fbf 9b31 bf3f a51d ac3f
00000090: e941 e0bf 1737 2dbf b290 bbbf 6449 8bbe
000000a0: 685b 173d f88b b33e 52a8 a9bf d36a 6e3f
000000b0: 42ca c93e 4dc7 c23f 7f26 b0bf df81 943e
000000c0: b5bb a6bd aa3b 95bc 01d9 86bf 6b7f cfbf
000000d0: 2b4c 083f 8b42 9bbf d648 e8be 7760 b3be
000000e0: d053 d6bf e91b cbbe 5c26 5d3f 7e7a 003f
000000f0: 9338 24bf 8731 8a3f bb7b 8bbf bb33 a0bf
00000100: 1360 c8bf 0caa a73d 01b1 c1bf ae3d 87bf
00000110: 4a42 3d3d 2dc1 ea3e 27b2 1fbf 6fbf 7c3e
00000120: fc63 96bf f676 06bf 4d69 893f e7a4 a9bf
00000130: 9fb8 bbbe d51a a23f dc98 b9bf 6060 8cbe
00000140: ddbb abbf 7f32 943f 5e9b 5d3f a7c4 893f
00000150: 1ac0 b13e ebea bf3c 218e a7bf 02fc 8abf
00000160: 5844 e2bd 2e0b 19bf 4a60 f73d ba12 77bf
00000170: 92ff 843b c8ef 80bf a31a aa3f a00d b93f
00000180: 4e94 343e 4695 c8bf 9c70 4dbd 1768 82bf
00000190: 643b 2b3f 915b a73e 79ba 9abf 399d 0fbd
000001a0: 81d4 87be 796f 913e 7ab6 1e3d 607d 05bf
000001b0: 57fe e53e b154 30bf 5909 413f cc6a adbf
000001c0: da89 8e3f adbf 663e 38d7 863e 5b68 993f
000001d0: 8331 babe bcdd 8abf bcec dcbf 5014 913e
000001e0: 15d9 733f 4f75 c83d 58f9 153f fc69 b3be
000001f0: b892 7abe cd07 123f 00b1 9a3f 7a50 bc3f
00000200: 4698 8a3f a61f b03f 7f74 fb3e 5317 403f
00000210: 12a4 2fbf 0dea 0d3f 9325 253f bead 8c3f
00000220: a944 503f cfc1 af3f cbc7 263f 5c50 b93f
00000230: fa2c b7bf f66a 1a3e cae9 39be 2125 1e3f
00000240: c81f c0bf 4e7e 7b3e 8db2 bebe 0ec0 00bf
00000250: b88f 193f 64df 103f 2be5 c9bf 4569 293f
00000260: c625 873f 6800 813f ce27 abbe 3be7 dc3f
00000270: cb82 4fbf 6dcf c3bf 62f2 913f 3a92 a1bf
00000280: 13b7 6c3e be8e 2abf 0256 78bf 923e c1be
00000290: 8ce2 97bf 282c 70be a221 89bf 87d1 a5be
000002a0: 10ae 4a3e b733 2f3f 1c1b 81bf 5470 a9be
000002b0: 3d1e 0cbe c61e 14bf 58ad 7c3f bb0a 9ebf
000002c0: 7904 c93f d13a 413f a18f 65bf 3481 83bf
000002d0: 3e84 ca3f 6f7a c5bf 20cf 9abf b89f 92bf
000002e0: 9ff8 f6bd 527f d13f 0218 42bf 768e 22bf
000002f0: 74e0 87bf a5bf 97bf 0293 abbb a316 853f
00000300: fde7 35bf 9976 0cbf 4cc0 803f 4471 e73f
00000310: 12f8 25bf cac4 cfbf aca6 883f 4fff 0fbf
00000320: 2ddd ec3f effb 49bf 5395 823f a120 6e3f
00000330: 3e6a debe 08bd a23e 911f 3f3f 2618 aa3e
00000340: 5144 563e cc39 883f 796a 6a3f b0b7 613f
00000350: 3710 2ebe b07e 803f fd0a 393f 8909 e9bf
00000360: a7a9 9a3f 33a3 39bd bb9e b0bf d1ea 00bf
00000370: e7ae 9ebf 5004 92bf dea7 cc3f b1b3 cabe
00000380: 7f57 933f f704 2bbf ebaf a7bf dfc0 c7bf
00000390: d8dc 6a3f 38e9 c03f 6def a93f 94d5 b9bf
000003a0: 02ea a9bf 5e28 b1bf 591b a6bf b355 bfbf
000003b0: 4950 183f b681 c0be f116 adbe 01ed 0dbe
000003c0: ea19 b13f acd1 7dbf ac5d 3c3e b3ef 9fbf
000003d0: 1519 81be 4e79 c43f 81ce 4e3f 6810 363f
000003e0: a82a 72bf f8c5 263e 6900 04c0 3482 25be
000003f0: 2e89 8d3f b275 80bf 03cd 4ebf f2b4 a63f
0.6872065 0.5353006 -0.5810398 -0.008385219 -0.9213486 1.0698195 -1.514069 -1.0550804
-1.5912856 -0.6979156 0.9674617 1.6271055 0.22931485 -0.35609496 0.6734443 0.367177
-0.3275981 -1.674377 0.43109387 0.75893146 0.68468446 -1.3265207 -1.0081362 1.3700823
1.315806 -1.110155 0.53261584 -0.90446913 0.85779256 0.47540444 -0.77922827 -1.1570824
1.1857074 -1.1228051 1.4937013 1.3446547 -1.7520114 -0.67662185 -1.4653533 -0.2720443
0.036952406 0.35067725 -1.3254492 0.9313175 0.39412123 1.5217072 -1.3761748 0.29005334
-0.08141271 -0.018216927 -1.0534974 -1.621076 0.53241223 -1.2129682 -0.4536807 -0.35034534
-1.6744328 -0.3966973 0.86386657 0.5018691 -0.64148825 1.0796365 -1.0897135 -1.2515787
-1.565432 0.08186731 -1.5132142 -1.0565698 0.046205796 0.45850506 -0.62381214 0.24682401
-1.1749263 -0.5252527 1.073526 -1.3253449 -0.36664292 1.2664438 -1.4499774 -0.27417278
-1.3416706 1.157791 0.86565197 1.0763139 0.34716874 0.023427447 -1.3090249 -1.0858157
-0.11048192 -0.59782684 0.120789126 -0.9651295 0.0040587867 -1.0073175 1.3289379 1.4457283
0.17634699 -1.5670555 -0.05015622 -1.0188016 0.668875 0.32687047 -1.2088157 -0.03506205
-0.26529315 0.2840536 0.038748242 -0.5214443 0.44920608 -0.6887923 0.7540489 -1.3548217
1.1135819 0.22534056 0.26336074 1.1984972 -0.363659 -1.0848918 -1.7259746 0.2833581
0.95253116 0.09788 0.58583593 -0.35041797 -0.24470031 0.57043153 1.2085266 1.471206
1.082772 1.3759658 0.49112317 0.7503559 -0.68609726 0.5543526 0.6451046 1.0990522
0.8135477 1.3731021 0.6514861 1.4477649 -1.4310601 0.15079865 -0.1815559 0.61775404
-1.5009699 0.245599 -0.37245598 -0.5029305 0.5998492 0.5659087 -1.5773062 0.66176254
1.0558403 1.0078249 -0.33428806 1.7258066 -0.8105895 -1.5297676 1.1402094 -1.262275
0.23116712 -0.6662406 -0.9700624 -0.3774305 -1.1866012 -0.23454344 -1.0713389 -0.3238642
0.19792962 0.68438286 -1.0086398 -0.33093512 -0.1368341 -0.57859457 0.98702 -1.2347025
1.570449 0.7548037 -0.89672285 -1.0273805 1.5821607 -1.5427989 -1.209446 -1.1454992
-0.120591395 1.636698 -0.75817883 -0.6349863 -1.0615373 -1.185536 -0.0052360306 1.0397533
-0.7105711 -0.54868466 1.0058684 1.8081441 -0.6483165 -1.623193 1.0675864 -0.56248945
1.8504997 -0.78900045 1.020182 0.9301854 -0.4344043 0.31784844 0.7465754 0.3322155
0.20924498 1.0642638 0.91568714 0.8817091 -0.16998373 1.0038662 0.7228239 -1.8206035
1.2083024 -0.045321655 -1.3798441 -0.503583 -1.2397126 -1.1407566 1.5988729 -0.3959022
1.1511077 -0.6680445 -1.3100561 -1.5605735 0.9174323 1.5071173 1.3276192 -1.4518304
-1.3274539 -1.3840444 -1.2977096 -1.4948028 0.59497505 -0.37598962 -0.33806565 -0.13859941
1.3836033 -0.9914806 0.18395108 -1.2495025 -0.2521445 1.5349519 0.8078385 0.71118784
-0.9459634 0.16286457 -2.062525 -0.1616295 1.1057489 -1.0035918 -0.80781573 1.302397

_weight_1 f4 [16, 16]
00000000: b649 96bf 3a03 cfbf b1e4 d1bf 2dca f3be
00000010: 3a7a 34bf 77c6 3a3f 1adf 903f 2986 f6bf
00000020: d20b 62bf f62e 8ebf ce01 80bf abea 7c3f
00000030: cc00 7f3f 4b4e 99bf 17f5 833d bc93 473f
00000040: 17a4 873f 858d cfbe 9458 a7bf 2d10 51bf
00000050: cb65 01bf acf6 e83f 4336 ca3f 2ab7 9dbf
00000060: b095 973f 5ffb c83f 5b9b a3be 4ce3 94bd
00000070: 28eb 213f 6f8a 1d3d 5330 d13f c78f 9b3f
00000080: a676 c5bf a95f 48bf 68ec c73f 3966 91bf
00000090: 02b1 66bf 4154 b4bf 5ff3 b13d 468a 6ebf
000000a0: 3a0c 9d3f 70f4 183f c89d 8f3e 5733 97bd
000000b0: 9c57 d73f 6fbf 3e3f fa19 b1bd 15a4 30bf
000000c0: 7753 cebd 24a6 8ebe b62d 67bf de71 613d
000000d0: 4417 323e e4f1 94bd 87a7 91bf 6cfc 8ebf
000000e0: 5528 373f 07e8 75be f48d 973f 450f 8cbf
000000f0: 358c 403f 7444 07bf 9cba 213f 43f4 03bf
00000100: dbc3 663f 35b8 48be 40d8 cc3f 3b73 003e
00000110: d126 70bf 62fb e5bf d40c c8bf 4178 43bd
00000120: 4bab 62bf c191 c13e 41e6 8dbe 5079 52bf
00000130: 9e4a c43f 122b bd3f 6005 ab3f daf5 e6bf
00000140: 5f1d af3f ab8a 21bf 3f6a cbbf 232e 733f
00000150: cc9c 033f 1a25 90bf fb70 5fbe d746 dcbd
00000160: 6851 3e3f 56d5 16bf 3c25 ecbe e3b2 113f
00000170: ff2b 1b3d e7f2 403f 71be 79bd 9c89 c3bc
00000180: 601a c0bf c456 b93f 3fc1 373f d180 173f
00000190: 02a8 623f 7b64 2b3f e8df 8dbe 233f 05be
000001a0: 98ba 7ebe 1550 98be 3cb8 753f 717c e13e
000001b0: 7383 483f e57d dabf 262f 113e d042 33bf
000001c0: 6b93 82be eb8f 90bf b667 133e 96bb fc3e
000001d0: 131a 493f fe6b 46bf 29dc 41bf 2b91 91bf
000001e0: 74ea d9bf 8a8e ad3f b684 ca3f e180 c7bf
000001f0: b82e 0e3e 97d9 d93f 8eb2 8b3f c9e8 e93f
00000200: aa39 aabf 8d40 553f 18ba 0b3f 9700 dfbe
00000210: cf7e 7e3e 267d 88be 548e 213f 575a 1f3f
00000220: 76e0 02be 6e80 cfbd fa14 5dbf da71 ddbe
00000230: 59b0 7fbf 63ce 693f 2cd0 c03f 0a7a 41bf
00000240: 33f4 d23e 4e95 8c3f ba46 c73f 8397 923f
00000250: c57f 873f 5059 e8be 596c 2ebf e270 b1bf
00000260: 050f 5d3e 43c5 be3f ae3e a33d 5212 e33e
00000270: 6fda febe 5caf 093f 3663 d33f 553b 05bf
00000280: e57e 083f 316f 32bf 4a89 abbf a3da c5bd
00000290: ea1e f0bd b3b4 b1bf 8ed7 2a3f d642 7fbf
000002a0: 9f58 d23f daad 813f 3bec ef3e 1c45 4ebd
000002b0: 3dca 9bbf fe64 ddbf 4947 823f 8435 87bf
000002c0: 8423 3fbe 696f b7bf e0e3 e3bf 2747 853f
000002d0: 6db8 0a3f 21a3 56bf 0561 c53f 75a1 653f
000002e0: 93b9 aa3f f2bc 023f 5cb5 c33f 8e97 b3bd
000002f0: 3a80 c6bd c4f2 b03f d194 d83f 1701 50bf
00000300: 17ef dcbe f872 2d3f abd1 8b3e e6f0 b4bf
00000310: 9d18 ecbc 5ae3 cf3e 0a1a af3e ac8a f73e
00000320: 556b c63f af7b 4cbf 38cb eabe 1116 78bf
00000330: 99ae 6bbd 10b0 72bf 89fd ad3f 0164 3a3f
00000340: da84 a7be 26df 793f 6744 11bf b7e0 3bbf
00000350: 5562 e6bf 4512 893e e505 d1be adc7 16bf
00000360: 59d4 3cbf 5466 973d 025d ff3e 137d 7cbf
00000370: 3537 bbbf adc3 8ebe fbce 73be 5db2 2a3d
00000380: 3b4b 6dbf fb5f fa3d 8936 553f 98cf 2b3f
00000390: cf7c 083c 707f a43f 0e23 4f3f ca55 f1be
000003a0: 3000 b83f 85ae 923f 6cdd 9c3f 9dea 073f
000003b0: c26c 4dbf 87e0 b13f 94e0 1d3f 2703 a4bf
000003c0: 322c 06bf 88fb 75bf 355b 923f db9a e7bf
000003d0: 8b53 debf 1a47 163f bf64 3abd 0066 e8bf
000003e0: be2f 693f f477 c6bf ffd5 febf 5d43 9a3f
000003f0: c3ac e33f 497b 293f ac0d a43d 5a2b eabe
-1.1741245 -1.617286 -1.6397916 -0.47615185 -0.70499 0.72959083 1.1318085 -1.9259692
-0.88299286 -1.1108081 -1.0000551 0.98795575 0.9961059 -1.1977018 0.064432316 0.779598
1.0596951 -0.40537658 -1.3073907 -0.8166531 -0.5054595 1.8200278 1.5797809 -1.2321522
1.1842556 1.5701712 -0.31954464 -0.07269916 0.63249445 0.0384621 1.6342872 1.2153252
-1.5426834 -0.78270966 1.561902 -1.1359321 -0.9011384 -1.4088212 0.086889975 -0.9317974
1.2269356 0.5974798 0.28050065 -0.07382839 1.6823611 0.74510854 -0.08647533 -0.6900037
-0.100745134 -0.2786113 -0.90304124 0.055040233 0.17391688 -0.072726995 -1.137925 -1.1170783
0.71545917 -0.24014293 1.1840196 -1.094216 0.7521394 -0.52838826 0.6317537 -0.5154459
0.901426 -0.1960152 1.6003494 0.12543957 -0.9380923 -1.7967341 -1.5628915 -0.047722105
-0.8854262 0.37806514 -0.27714732 -0.8221636 1.5335271 1.4778769 1.3361015 -1.8043778
1.3680838 -0.63102216 -1.5891799 0.94992274 0.5141113 -1.1261322 -0.21820442 -0.10755699
0.74342966 -0.58919275 -0.46122158 0.56913584 0.037883755 0.7537064 -0.060972635 -0.023869328
-1.5008049 1.4479604 0.71779245 0.59180933 0.8853761 0.66950196 -0.2770989 -0.13012366
-0.24875867 -0.29748598 0.95984244 0.44040254 0.78325576 -1.706967 0.14178142 -0.7002382
-0.25503096 -1.129392 0.14395031 0.49361867 0.7855541 -0.77508533 -0.7572656 -1.1372427
-1.7024674 1.3559124 1.582175 -1.5586206 0.1388501 1.7019528 1.0913866 1.8274165
-1.3298848 0.8330162 0.5458083 -0.43555138 0.24853061 -0.2665798 0.631078 0.6224722
-0.12780938 -0.10131918 -0.8636013 -0.43250924 -0.9987846 0.91330546 1.5063529 -0.7557684
0.41201934 1.0983064 1.5568459 1.1452488 1.0585867 -0.4538064 -0.68134075 -1.3862574
0.21587761 1.490395 0.079709396 0.44349915 -0.49776027 0.537832 1.6514652 -0.5204366
0.53318626 -0.69700915 -1.3401272 -0.09660842 -0.117246464 -1.388327 0.6673516 -0.9971136
1.6433295 1.013118 0.46859917 -0.050358877 -1.2171093 -1.7296445 1.0178005 -1.0563207
-0.18665892 -1.4330875 -1.7803917 1.0412339 0.5418766 -0.83842665 1.5420233 0.8969949
1.3337883 0.5106956 1.5289721 -0.08769141 -0.09692426 1.3824086 1.6920415 -0.8125166
-0.4315116 0.67753553 0.273084 -1.4136016 -0.02882033 0.40603143 0.34199554 0.48347986
1.5501505 -0.79876226 -0.4585817 -0.9690867 -0.057539556 -0.947999 1.3592998 0.72808844
-0.32718545 0.9760612 -0.56745 -0.7338976 -1.7998759 0.2677175 -0.4082481 -0.5889843
-0.73761517 0.073925644 0.49875647 -0.9862835 -1.4626223 -0.27883664 -0.23809426 0.041674007
-0.9269292 0.12225338 0.8328634 0.6711364 0.008330538 1.2851391 0.80912864 -0.47135764
1.4375057 1.1459509 1.2255073 0.53092366 -0.80244076 1.3896645 0.61670804 -1.2813462
-0.52411187 -0.9608693 1.1434084 -1.8094133 -1.7369245 0.5870224 -0.045506235 -1.8156128
0.91088474 -1.5505357 -1.9909056 1.2051808 1.7787098 0.66203743 0.0801042 -0.457362

_weight_2 f4 [16, 16]
00000000: 6d31 0ebf fe2c d53f 4f19 993f b9cc ce3f
00000010: a36e a53f f458 cbbf 08c9 d53e eb67 e6bf
00000020: 145c fe3e 5847 9abf d243 a1be ad18 9cbf
00000030: 4b72 983f 56b0 dfbf fa6c 5d3f 1bae eebf
00000040: 8c71 a1bf 33e2 c33f 2a63 063e ce6b 843f
00000050: 106a abbf 1a60 c7be bf04 85bf 7104 353f
00000060: c3b6 b3be b1e7 783e 75dd a5bf 0a8b f13e
00000070: def0 2e3f 0d4e ba3f 6e0c 94bf 7783 fabe
00000080: 2e9a be3d 0b47 8c3e d8a5 7ebf 61d6 55bf
00000090: 9f9a 8abf 712d bbbf 4837 02be 8c69 8bbf
000000a0: 98e5 87be a75c fabf 686d b9be 3f2c 8d3f
000000b0: fbb4 55bd beb2 5e3f 0e33 a13f 9c86 893f
000000c0: 8115 00bf 0141 26be d40a c23f a495 8abe
000000d0: 6192 733e 214c df3e 2dda cc3f a7fa 74bf
000000e0: 4995 823e 98ab 8b3e 837d 88bf 7744 adbf
000000f0: 4fd6 7cbf 448b 9f3e 4f92 5d3e 5e80 73bf
00000100: b4b1 743f db91 f2bd 28b5 e43f d8fa e6be
00000110: 1304 eabe 28a4 d6be 6fb9 983f b1bd c83f
00000120: d70b b63f eb68 863e f7ad c2bf 82f4 a4be
00000130: a455 0abe 82b4 263e 1847 b3bf 509c 6d3f
00000140: 1abb 263f 53a1 c13f 77af 343f 8cf1 9fbf
00000150: f106 343f 1079 b33f f19c c93e d198 113f
00000160: 7eab 7bbf c56c 8dbf 2b0f 593f 8814 433f
00000170: f4c4 a0bf dc4a 9cbe c89a d6bf 00e2 85bf
00000180: 22a7 8bbf 819c b7bf 54ba bd3f 347e b03e
00000190: 46a7 cfbf 554b 73bf 0c56 a73f 7216 f93e
000001a0: 68cf a93f e2bc 673f aff4 ac3f 84a3 93bf
000001b0: 79fc 80bf 1694 3bbf 2bee 94bd 42d2 b43f
000001c0: af38 893f 7202 b53e 72b2 94bf 72ac c4bf
000001d0: 533b 98bd 3b22 3ebf b88f 4cbf 40cb 8dbf
000001e0: 0fca 2fbf 632e c8be c22f 5abf 05c3 cebf
000001f0: 5267 873f 75b9 c33f 8dda afbf 21b0 edbe
00000200: 9dee 153f 409f 83be 5e0a 7b3f 4910 bebf
00000210: b597 5bbd 3440 b43f 3b1c 87bf c8e8 5c3e
00000220: 6e6d 883f 827d 5d3f ee15 42be 3ea0 4bbf
00000230: fc69 773f 0795 9abd 8ffe 81bf a0c3 f0bf
00000240: 3365 cfbf 63d8 59bf e126 723f f4d2 e9bf
00000250: 17b6 f8be 2d7f cabd 227c 22bf 815f 8b3e
00000260: d73b 37be 3207 0240 ecb7 82be ce61 35bf
00000270: 62b2 493f aa41 2bbe 95dc b93e 05a6 b4bf
00000280: 7965 cbbf 67e6 4abf 95b0 bcbe d338 2cbf
00000290: 5b25 77be d96e e83e 15a5 cc3f a541 683d
000002a0: 49f0 c0be 6443 6b3f 74d6 dcbf 088a 1c3f
000002b0: 022b 803f c546 513e de31 bcbf e3dc 6e3f
000002c0: cdd2 a4be 1a0e f4be 2432 e6be a8e1 cabf
000002d0: 6d15 ae3f 94ae 51bf 25bb 3bbf 450c 04bf
000002e0: 9346 81bf a4f7 653f 7fdb 1e3f 7b06 c2bf
000002f0: 8772 903f ce0c a73f 8c37 c53f 9343 6dbf
00000300: e63a a53e 5af6 ba3f 3d3f b2bf bd2f b5bf
00000310: 796f b7be 9bf7 58bf 4a58 6cbf e5e9 a33f
00000320: 525e a6bf 6263 dbbd 6bad 9dbe 4edd cdbd
00000330: 5814 913f 0022 8fbf 0d16 03be 2199 423f
00000340: e90e 9bbf e1d8 ccbf 3c98 f83f 21c6 d83f
00000350: 6697 0b3f a3ba aa3f cfea 803f e04e dfbf
00000360: 1cda 7fbf 0996 8c3e 9bc4 ed3e 90fa 623e
00000370: 5652 18bd 5a39 60bf 7880 dfbf 79e4 3dbf
00000380: 9ea6 64be 7512 70bf e6b0 893f 7972 45bd
00000390: 0561 ddbe c9a7 0dbf 03ac 033f a7ae c13f
000003a0: d293 903f d7c1 88bf 4229 1abf 7d3c 293e
000003b0: aa01 253f 0fdb bb3f b9de bdbf b245 5fbf
000003c0: 054e 85bf 060f 0c3e e8b8 523f 2e49 82bf
000003d0: 1fad a93e 640d b63e 1d10 b23f 811a 8f3c
000003e0: 88b3 9bbf 6cf1 31bf 8ae5 8c3f bf57 7bbe
000003f0: eded 1bbf d86e 243f 706b bd3f 572d 7d3f
-0.5554417 1.6654356 1.1960849 1.6156226 1.2924389 -1.5886521 0.41754937 -1.8000463
0.49679625 -1.2053022 -0.31497055 -1.219503 1.190988 -1.7475688 0.8649441 -1.8646883
-1.2612777 1.5303406 0.13123766 1.0345399 -1.3391743 -0.38940507 -1.0392073 0.707099
-0.35100374 0.24307133 -1.2958208 0.4717639 0.68336284 1.4555069 -1.1566293 -0.48928425
0.09306751 0.2739795 -0.9947181 -0.8353024 -1.0828437 -1.4623243 -0.127164 -1.0891585
-0.26542354 -1.9559525 -0.36216283 1.1029128 -0.05217455 0.8699149 1.2593706 1.0744205
-0.5003281 -0.16235735 1.5159554 -0.27067292 0.23786308 0.4361277 1.6004082 -0.95694965
0.2550452 0.27279353 -1.0663303 -1.3536519 -0.9876451 0.3116094 0.21637844 -0.9511775
0.95583653 -0.11844226 1.7867785 -0.45113254 -0.45706233 -0.41922116 1.193159 1.5682889
1.4222363 0.2625192 -1.520934 -0.32217795 -0.13509232 0.16279796 -1.4006071 0.9281664
0.65129244 1.5127357 0.7058024 -1.2495589 0.7032309 1.402132 0.3937755 0.56873804
-0.9830855 -1.1048819 0.8478877 0.76203203 -1.2560105 -0.30525863 -1.6765985 -1.0459595
-1.091038 -1.4344636 1.4822488 0.34471285 -1.6222923 -0.9503682 1.3073134 0.48649937
1.326642 0.9052259 1.3512172 -1.1534276 -1.0077049 -0.73272836 -0.072719894 1.4126666
1.0720423 0.35353428 -1.1616957 -1.5365126 -0.0743319 -0.7427098 -0.799068 -1.1077652
-0.6866769 -0.3909789 -0.8522912 -1.6153265 1.0578406 1.5290972 -1.3738571 -0.46423438
0.5856722 -0.25707436 0.98062694 -1.484872 -0.053611476 1.4082093 -1.055549 0.21573174
1.0658395 0.86519635 -0.18953678 -0.79541385 0.96646094 -0.07547956 -1.015581 -1.88097
-1.6202759 -0.85095805 0.94590575 -1.8267503 -0.48576424 -0.09887538 -0.6347066 0.272213
-0.17893921 2.0316892 -0.25530946 -0.70852363 0.78787816 -0.16724268 0.36301103 -1.4113165
-1.5890342 -0.79257816 -0.3685347 -0.67274207 -0.24135344 0.4539707 1.5987879 0.05670323
-0.37683323 0.91899705 -1.7252946 0.6114812 1.0013125 0.20437153 -1.4702718 0.93305796
-0.32192078 -0.4766701 -0.4496013 -1.5850115 1.3600289 -0.8190701 -0.73332435 -0.5158122
-1.0099663 0.89830995 0.62053674 -1.5158228 1.1284951 1.3050783 1.5407577 -0.92681235
0.32271498 1.460643 -1.3925549 -1.4155194 -0.35827234 -0.84752816 -0.9232222 1.2805754
-1.2997534 -0.10712315 -0.3079637 -0.10051976 1.1334333 -1.1182251 -0.1280138 0.76014906
-1.2113925 -1.6003686 1.9421458 1.6935464 0.5452789 1.3338207 1.0071658 -1.7445946
-0.99942183 0.27458218 0.4643906 0.22165895 -0.037187897 -0.8758751 -1.746108 -0.74176747
-0.22329184 -0.93778163 1.075711 -0.048204873 -0.43238083 -0.55334145 0.51434344 1.5131425
1.1295111 -1.0684155 -0.60219204 0.1652698 0.64455664 1.4676226 -1.4833595 -0.8721572
-1.0414435 0.13677606 0.82313395 -1.0178583 0.33139893 0.3555709 1.3911167 0.017468693
-1.2164164 -0.69509006 1.100755 -0.24545191 -0.6090992 0.64231634 1.4798412 0.9889731

_weight_3 f4 [16, 16]
00000000: 7e49 873f 7ac8 cb3f 67ce adbf 4c83 013d
00000010: 82a6 b53f 2a40 6fbf 9bd0 debe 930f 213f
00000020: 5733 e13f 954a 603f f191 8b3f 6e0c 30be
00000030: 0c5a b3bf c899 3fbf 9576 8b3f bb31 a9bf
00000040: a28d 64bf 5148 9cbf 22d7 ecbf e898 f23f
00000050: b232 91bf ca53 37bf fa8d 48be 0022 3f3e
00000060: 973b cb3f 83b3 bdbf f3a9 80bf 0fe4 7a3e
00000070: 1c59 5cbf 1736 f13e 6d1b 253f 4ec6 783f
00000080: 7c28 3cbf 4c91 94bf cb7d 903e ffd9 aa3f
00000090: 2242 8a3f d38f 153f fcfc 86bf 1090 cbbf
000000a0: d6f0 b2bf ec03 dd3e 457a 4d3f 13f7 26bf
000000b0: e263 a73e 02bb f63e 5435 9cbf a166 70bf
000000c0: 540a 4bbf 3f5d 97bf 459d 7bbf 365d 5f3f
000000d0: 5169 95bf 99ad b53f 61dc e3be 246c 94be
000000e0: 2346 623f cbad 2fbf b916 d3be 7ccb 21bf
000000f0: e1d3 1bbf f2d7 203f 719d 58be f1c6 dc3f
00000100: 58f1 5bbf 33d2 d83f 9a47 67bf eae3 0040
00000110: 9a2a 5abf f529 1fbf 9e3f a83f cb36 d6bf
00000120: 77c2 19bd 65d0 4c3f 4cef bf3f a34c a23f
00000130: df68 203f f1c4 b9be fd5f 8fbf d8bf b2bf
00000140: bc8b aebf 539c 46bf fb18 1fbe ab92 313f
00000150: 734c 90be b414 ff3e 927c b0bf 8b69 b63f
00000160: 1ac6 af3e 224d 4fbf 15f1 863f 93aa 0b3f
00000170: 9771 8c3f 039c 3b3f cd96 9a3f ef8f e6be
00000180: 1f05 98bf d977 a23f b659 efbe d240 53be
00000190: 9719 113f 3eb7 253f a762 423f b1bd 59bf
000001a0: a649 79bf 6bfc 903e b104 ebbe 3eb3 cb3f
000001b0: 18da c83d 9338 263f 8642 ddbf 3919 ebbf
000001c0: c57d 643f f7b5 d83d 1216 18bf d704 c9bf
000001d0: b913 44bf 44e7 8a3f eb34 873e e980 e83d
000001e0: 5432 95be 2fa7 803d 1056 96bf bc47 9fbf
000001f0: cceb 573f 64f0 493e 539e 633f bbab 503f
00000200: c603 cbbd ea87 dabd 03f4 47be 5a0c 69bf
00000210: 7353 e9be 27b9 c3bf 2350 843f c990 523e
00000220: 2835 a33f e1d7 a9bf 17a8 913e a4f0 dcbf
00000230: a0c4 9abf 10a9 943f a4d0 ed3c bbb6 b9bf
00000240: b217 cc3f ce46 0d3f 023c b93e 2cd9 f1bf
00000250: 7742 bd3f 046f 88bf f2a2 edbf d5d5 0a3f
00000260: 25b0 02be 5cdd b83f df5e 7abe 6dec 693e
00000270: d48e 293d 8a87 a63f 51ca 1e3e 95fa 59bf
00000280: 25e9 6c3f 8cc6 c23f 05fa 6d3f fc5e 8a3f
00000290: 7694 6d3f f529 d5be ff10 62bf b5ec aa3e
000002a0: eab5 c23f f4d1 ddbf 9e0f 9d3f 422a fc3f
000002b0: 5cc0 ae3e b1d6 c7bf ac1e 523e a896 883f
000002c0: 43a3 093f 9591 87be 9e99 c83e 3251 123f
000002d0: 63a9 443f 2e34 633f d17f b9be 677d 2abf
000002e0: 6cb4 d03d 006c 64bf 0e6c 4ebf a90a 9b3f
000002f0: 67a3 9a3f 80a1 2abf 4d32 cebf 6d70 c2bf
00000300: fbb6 1e3f 12f3 9fbf fb11 293e 011c 723f
00000310: d64d c53d bf2f 01c0 f6b9 54bf 4989 363f
00000320: 76eb 373f fade a9bf b0b2 943f c574 c93e
00000330: 34e4 d63f d7b6 943f c6d6 80bf f6f9 683f
00000340: 6c35 94bf 7e37 dabe 3194 c33f 1370 33bf
00000350: b3ff 29bd b7cd da3e e07d b4bf 01e7 033f
00000360: e853 6ebe b69f ca3e b161 1abc 5872 b8be
00000370: 90d4 c9bf e14d 87bf 00fb b2bd d264 bf3f
00000380: 6e45 a93f 63fd 8fbe 74a3 d7bf 376f 66bd
00000390: 2a6b 22bf 10f3 c83f ec37 9e3f 03c2 4b3f
000003a0: 4473 353f cd35 d0bf 46df d8be 0b5c dfbe
000003b0: 7d6a a83e aea1 b53f 0fb2 3d3e 7c7d 573f
000003c0: 035e c13f 242c b8bf fe75 0b3f 28db 7ebe
000003d0: 23c9 073f a83a 823f c6c3 f5be 81be 05bf
000003e0: 56e6 d2bf 03e8 e0bf 6df1 52bf 1b98 0540
000003f0: adb1 f5be 1fa3 a9bf 08a9 ce3f 82fd 37bf
1.0569303 1.5920556 -1.3578614 0.031619355 1.4191439 -0.9345728 -0.43518528 0.6291439
1.7593793 0.87613803 1.0903913 -0.17192242 -1.4011855 -0.74844027 1.0895563 -1.3218302
-0.89278615 -1.2209569 -1.8503153 1.8952913 -1.1343596 -0.71612227 -0.1958541 0.18665314
1.587756 -1.4820408 -1.0051864 0.2450106 -0.8607347 0.4711158 0.64494973 0.9717759
-0.73499274 -1.1606841 0.28220972 1.3347777 1.0801432 0.58422583 -1.0545955 -1.5903339
-1.3979747 0.43167055 0.80264693 -0.65220755 0.32693392 0.4818955 -1.2203774 -0.939066
-0.79312634 -1.1825331 -0.9828685 0.87251604 -1.1672765 1.4193603 -0.44504073 -0.28988755
0.8838827 -0.6862456 -0.41228274 -0.6320112 -0.60870177 0.62829506 -0.21153809 1.7248212
-0.85915136 1.6939148 -0.9034363 2.0139108 -0.85221255 -0.62173396 1.3144414 -1.6735471
-0.03753897 0.80005485 1.4994903 1.2679638 0.6266002 -0.36283067 -1.1201168 -1.3964796
-1.3636394 -0.7758228 -0.15536873 0.6936442 -0.28183326 0.49820483 -1.3788016 1.4250959
0.34330827 -0.8097707 1.0542322 0.5455715 1.0972165 0.7328493 1.2077271 -0.45031688
-1.1876563 1.2692825 -0.46748132 -0.20630196 0.5667967 0.6473273 0.7593178 -0.8505507
-0.97378004 0.2831758 -0.45902017 1.5914075 0.09807223 0.64930075 -1.7285926 -1.8367072
0.8925441 0.10581582 -0.59408677 -1.5704602 -0.76592594 1.0851827 0.2640756 0.11352713
-0.2913996 0.06281888 -1.1745014 -1.2443767 0.8434417 0.19720608 0.8891346 0.8151204
-0.09912829 -0.10670455 -0.19526677 -0.9103447 -0.4557148 -1.5290879 1.0336956 0.20563044
1.2750597 -1.3269006 0.28448555 -1.7260938 -1.2091255 1.1614094 0.029030152 -1.450889
1.5944731 0.55186164 0.36178595 -1.8894401 1.4785908 -1.0658879 -1.8565352 0.5423253
-0.12762506 1.4442554 -0.24450253 0.22844096 0.041395977 1.3010113 0.15506865 -0.8514798
0.9254325 1.5216842 0.92959625 1.0810237 0.9280466 -0.41633573 -0.88307184 0.33383718
1.5211766 -1.7329698 1.2270391 1.9700396 0.34131134 -1.5612394 0.20519513 1.0670977
0.5376474 -0.26478258 0.391797 0.57155144 0.76820964 0.88751495 -0.3623033 -0.665976
0.10190663 -0.89227295 -0.8063363 1.2112628 1.2081116 -0.6665268 -1.61091 -1.519056
0.61997956 -1.2496054 0.16510765 0.9457398 0.09633987 -2.0185392 -0.83096254 0.7130323
0.7184366 -1.3271172 1.1617031 0.393469 1.6788392 1.1618298 -1.0065544 0.9100641
-1.1578803 -0.42620462 1.52796 -0.70092887 -0.04150362 0.42735073 -1.4100914 0.5152436
-0.23274195 0.39574975 -0.0094227055 -0.36024737 -1.5767994 -1.0570642 -0.08739281 1.4952643
1.3224313 -0.28123006 -1.6846757 -0.056258406 -0.6344477 1.5699177 1.2360816 0.79592913
0.70879006 -1.6266419 -0.42357844 -0.4362491 0.32893744 1.4189966 0.18524955 0.8417585
1.5106815 -1.4388471 0.54476917 -0.24888289 0.53041285 1.017415 -0.48000926 -0.5224381
-1.6476543 -1.7570804 -0.82399637 2.0874088 -0.47987118 -1.3252906 1.6145334 -0.718712

_weight_0 f4 [80, 16]
00000000: e584 a2be 26d7 05bf e927 923f 3b10 323f
00000010: 59d6 d93e dcf9 3d3e e60f b2be e67b 5b3f
00000020: 3c25 bbbb a7f4 d63f cb33 9d3f 40fe cabd
00000030: a82b 77bf a775 16bd 0b0e 803f 395e 8abf
00000040: 8661 30bb 298a 723f f827 a53f 6060 2fbf
00000050: 7a16 98be d321 86be 22e1 ddbf 8807 31bf
00000060: a02e cebf fff8 f4be d5fa 2dbf 6d2a 3e3e
00000070: 9b70 86bf 8d3f 9b3f 86cc 4dbe b439 0c3f
00000080: 44f2 16bf 8cf2 42bf ec6e b9bf 3e0d b03f
00000090: 9618 40bf 3149 8fbf df8e 9fbe 6bac b03f
000000a0: 85b8 bc3e e81d d8bf 805e 873f 6acb cebb
000000b0: 3a06 9dbf 2524 d3bf b823 cabf 5910 9c3f
000000c0: 8c88 03c0 a49e e7be b8de 43be db45 c3be
000000d0: eae5 b13f 5b5e bc3e 3c29 8bbf e7ee a7bf
000000e0: 1345 853d 7e45 8c3f 4a59 c03e 33a0 55bf
000000f0: 6d86 813f 7378 ea3e 6c33 153f 7d0f 723f
00000100: d4e3 53be 9186 513f 4fdf 5e3f 5754 24be
00000110: 8ac1 933f f524 74be 9c9c dc3f fb9a be3e
00000120: 1fe9 8dbe 33af e73e 0fb0 a6be 19a8 3c3f
00000130: f877 96bf 77f5 ee3e 61bc 693f a9b6 a4bf
00000140: 226e d73e b3f7 97bf ab58 8fbf a129 f1be
00000150: 90ea 7dbf 0552 86bf b0d4 34bf 67f2 403f
00000160: b730 9bbf 1fa3 2fbf 5db8 b93e bc2f 5bbf
00000170: fc6a 7f3f 2668 b7bf 47d2 02be d27e 49bd
00000180: f8fd b43f 9428 433f 13fe 443f 8f70 94bf
00000190: 2f42 d9bf b776 3ebf 2471 98bf 5511 ea3f
000001a0: fbfa 083e 3d02 203e ed8b c23e d943 cebf
000001b0: 2d48 07bf 2666 193f daa0 af3f a1d2 80bf
000001c0: 8e5e bf3f e225 1abf 4efc 103f 9170 713e
000001d0: 666d 79bf 9267 95bf c56d aa3f 827d 1bbf
000001e0: 3f58 993f ff89 2cbf 105f 6f3e c2d3 7cbf
000001f0: f4d7 61bf 115d d0bf ff20 afbf 6f0d 79bf
00000200: ff28 f4bd 9f65 a13e 4528 173f 75e8 a6bf
00000210: 4f3a 9e3f 9e6d d3bf 9870 5b3f a778 783f
00000220: b148 e4be 2054 f23f 5e15 c03f 0e9c 993f
00000230: 510a 783f 49c1 d93f 5141 fcbe d73d 503f
00000240: 0501 803e 1c96 a6bf b1b3 b73f e064 f33c
00000250: 9c72 28bf e9a5 5f3e 5c83 1fbe b6a6 febe
00000260: a849 7bbf e7eb 863f 5b3c 293f eb5b 76bf
00000270: 7b39 adbf 87c4 adbf 9527 923f 89a2 81bf
00000280: 827a b9be 7cff a13e 50e8 993f 347f 603e
00000290: 508c d83f 4dac b7be 3acd 433e fcdf a23f
000002a0: f0a8 1e3f fca8 edbe f9f4 8b3f 68a8 8a3f
000002b0: 8eec 913d 4177 a7bf 03e7 1ebe 58f6 a03c
000002c0: b47a dd3f c5e8 19bf b6e2 b7be 4d3b 1ebf
000002d0: 9054 a53f 66be 1e3f 8f30 cb3e 21d9 8c3f
000002e0: 1519 3cbf fe90 9e3f 761e dc3f fbf0 e7be
000002f0: 2db6 a53e 52ea dd3f 308c 69bf bee1 123f
00000300: 7a82 c3be 23fd 0ebf a697 a5be 3c53 b4bf
00000310: 6f5d 183f c7dc c3bf ec7b 103e cd20 07bf
00000320: d54f 87bf 72ed 823f 656f 2cbd 03c8 bbbf
00000330: 233a afbf 78ac 45be 2df4 0cbf 75df 5abf
00000340: 2e1e 0f3f 219a 9fbf 8e3f 423f e4a6 51bf
00000350: c636 00bf 62d0 853f e184 89bf 7fa6 babf
00000360: 2cd9 c1be fe63 583f dcfa 9b3f fa7c 86bf
00000370: 1c4e 453e 68cf 4e3f f7e9 66be e01f 0c3f
00000380: c202 743f 53a7 3c3e 816a 1b3f d94d e33e
00000390: 4fb2 c93f ebe3 82bf b5ea 7bbe 3e67 0f3f
000003a0: aae2 40be bb9e f7be bf06 65bc 6dab 4cbf
000003b0: dae1 bdbf 97dc 9bbf 57c7 8f3f e74f 66bf
000003c0: 8fa3 be3e ba71 36be aac6 9dbf 12c4 08be
000003d0: b2c6 b33f 0408 5dbf 2074 d6be 1733 a7bf
000003e0: f951 98bf b0a8 753f 801a c6be b2c5 383f
000003f0: 64f1 b43e d680 003f 91f4 88bf 24ba b5be
-0.31742015 -0.52281415 1.141843 0.69556016 0.42546347 0.18552345 -0.34777755 0.8573593
-0.005711226 1.6793412 1.2281431 -0.099117756 -0.9655099 -0.036733296 1.0004286 -1.0810004
-0.0026913597 0.94742066 1.2902822 -0.6850643 -0.29704648 -0.2619768 -1.733433 -0.69152117
-1.6107979 -0.4784622 -0.67960864 0.18570872 -1.0503114 1.2128769 -0.20097551 0.5477555
-0.5896342 -0.7615135 -1.4486976 1.3754041 -0.75037515 -1.1194211 -0.3116369 1.3802618
0.36859527 -1.6884127 1.0575714 -0.00631087 -1.2267525 -1.6495405 -1.579215 1.2192489
-2.0552092 -0.4523822 -0.19127929 -0.38139233 1.3898289 0.36790738 -1.0871959 -1.3119782
0.065073155 1.0958707 0.37568122 -0.8344757 1.0119148 0.4579502 0.5828159 0.94554883
-0.20692378 0.8184596 0.8705949 -0.16047798 1.1543438 -0.23842223 1.7235293 0.37227616
-0.2771692 0.45250854 -0.32556197 0.73693997 -1.1755362 0.4667165 0.9130307 -1.2868243
0.42076212 -1.1872467 -1.1198934 -0.47102073 -0.9918604 -1.049378 -0.70637035 0.75369877
-1.2124242 -0.6860828 0.3627347 -0.8561971 0.9977262 -1.4328659 -0.12775527 -0.04919321
1.4140005 0.7623379 0.76950186 -1.159685 -1.6973323 -0.74399894 -1.1909528 1.8286539
0.13376991 0.15625854 0.3799738 -1.6114455 -0.52844507 0.5992149 1.3720963 -1.0064279
1.4950731 -0.60214055 0.56634986 0.23578097 -0.97432554 -1.1672232 1.3314749 -0.60738385
1.1980056 -0.67398065 0.23376107 -0.98760617 -0.88220143 -1.6278402 -1.3681945 -0.97286123
-0.11921882 0.31522843 0.5904582 -1.303969 1.2361544 -1.6517828 0.8571868 0.970591
-0.4458671 1.8931923 1.5006521 1.2000749 0.9689074 1.7012111 -0.49268582 0.8134436
0.25000778 -1.301456 1.4351712 0.029711187 -0.6579988 0.21840633 -0.15577453 -0.49736565
-0.98159266 1.0540742 0.6610772 -0.96234006 -1.3533167 -1.35756 1.141833 -1.0127727
-0.3622628 0.31640232 1.2024021 0.21923524 1.691782 -0.35873643 0.19121256 1.2724605
0.6197653 -0.46417987 1.0934135 1.0832644 0.07125197 -1.3083268 -0.15517811 0.019648716
1.7303071 -0.60120803 -0.35915154 -0.61809236 1.2916431 0.62009275 0.39685485 1.1003762
-0.7347577 1.2387998 1.7196796 -0.4530104 0.32365552 1.7337134 -0.91229534 0.57375705
-0.38185483 -0.55855006 -0.3234226 -1.4087901 0.5951757 -1.5301751 0.14109772 -0.52784425
-1.0571238 1.0228713 -0.04209842 -1.4670414 -1.3689617 -0.19304073 -0.5506008 -0.8549722
0.55905426 -1.2468911 0.75878227 -0.8189528 -0.5008358 1.0454218 -1.0743676 -1.458206
-0.37861001 0.84527576 1.2185931 -1.050689 0.19268078 0.80785227 -0.22550188 0.5473614
0.9531671 0.18423204 0.6070939 0.4439533 1.575754 -1.0225805 -0.24601252 0.5601691
-0.18836465 -0.4836329 -0.013978659 -0.79949075 -1.483455 -1.2176694 1.1232709 -0.8996567
0.3723416 -0.1781682 -1.2326252 -0.13356045 1.4045012 -0.86340356 -0.4188547 -1.3062466
-1.1900016 0.9596052 -0.38692093 0.7217666 0.35340416 0.5019659 -1.0699636 -0.35493577

_weight_1 f4 [16, 16]
00000000: 0a79 92bf 5dcc b73f 9788 e13e 7544 94bf
00000010: c1b1 21bf e56c cdbf 3d3e c4bf 02bf babf
00000020: f12e 0e3f a838 79bf 7acb a03f 77ba bdbd
00000030: 23cb 57bd 35f9 90bf d3f9 4fbf 5fcd 0bbf
00000040: 3084 a1bd d8e1 cb3f a34a 873e c41e 283e
00000050: 7854 ac3c 6f1e 80bf 382a 6fbf ba9d 883f
00000060: f10e 87bf 440b be3e e4d6 9b3f 6b5f 98bf
00000070: 6641 30bf e285 8ebe d862 883f 6f6d 893f
00000080: 1396 d0be e089 583d 106a 88bf 9cd5 633f
00000090: 80e8 a13f e67c b03f 8b41 b3bf 7a81 d73f
000000a0: e72b 503f 3117 5bbe 9184 70be e866 643e
000000b0: 6191 a3bf 85b5 38bf eccb 8f3f 10d2 cebf
000000c0: ee59 74bf 4350 7a3e 32a3 60bf 3c3d 04bf
000000d0: 99c1 73bf 8c24 bc3f 0436 78bf 764f 8c3f
000000e0: ae7e 8b3f add4 cabf b8c6 bf3e d477 b6bf
000000f0: 25aa 9c3f 5604 733e faf5 643e a150 22bf
00000100: b9dc 84bf 5ae8 fdbe f49e 0f3f b934 683f
00000110: 73d5 95bf f715 763f 0532 b0bf 8d4d 50bf
00000120: 619d 223e 3d86 a63f 2c4c f7be 634b b23f
00000130: ebef edbf 4a86 423e dbd0 48bf feb1 6cbf
00000140: 4bfb a5bf 3d0d f8bf 13c7 b03f a3a6 9d3e
00000150: 701e 7bbe 960c 943e 14bd 08bf 913b 343f
00000160: a3ee 943f 5067 b3be 7963 a43f 2434 103f
00000170: 68d9 12be 77c0 c53f 7c97 393f 080b abbe
00000180: d714 0dbf 0868 74bf c48f a8be a007 ae3f
00000190: db48 dfbf 2436 9b3e c8df c2bf 3003 52bf
000001a0: 85cc 2bbf 541d acbd 2a2c c83f 3dab aabf
000001b0: 5963 b03f 49f6 5d3f 4b6a 873e c51d 0bbf
000001c0: 8c4a 9b3f 019a 1bbf 9105 8f3f 5bb9 d4be
000001d0: 1e62 dabe cac9 eabd c603 8f3f ab6a 733f
000001e0: f2a6 6dbf 19d3 233f eecd 483f c096 a53f
000001f0: 527a 7ebf b76d 8fbd 4ce7 523f d192 e9be
00000200: 065f 59bf 1400 83bf f65e c3bf 2288 cc3f
00000210: 7aa9 6b3d 81a1 ca3f d973 d53f 77d7 103e
00000220: f947 4cbf 2c27 b9bf 330e 8abf afa8 c3be
00000230: 09fa d73f 3f10 2c3f aa8f 113f de4f 85bf
00000240: dee5 1abf 918d 063f 08c2 823f 1be9 ca3e
00000250: 8742 ad3f 1b57 883f bacb 743f f33a bebf
00000260: 908d 58bf b84b a33f 3d08 613e ebd7 5e3f
00000270: 2713 bbbf e2ce efbf 490c c7bf 3fc6 a1bf
00000280: c418 89bf e85c b03f ee0d bc3f 21a0 97bf
00000290: 9be6 90bf ac5f 813f 1fef 9cbd b7a1 783f
000002a0: f644 c0bf 05bf 2e3f b90c 153e 79ff 6ebf
000002b0: a9f3 5bbf 64e3 cabf 42c3 243f b4f9 aa3f
000002c0: 62cc 41be fefe a9bf 733f 633f f2a8 88bf
000002d0: 6842 053f 52b5 1cbf a3f6 a5be c2a3 72bf
000002e0: 23be 79be 4ce0 31bf 1116 6a3e 4aaf afbf
000002f0: e5df 06bf 896c 48be ce36 2abf ff2e d43f
00000300: cb36 9c3f 3db0 be3f 6b39 943f 26b8 913e
00000310: 2896 c2bf a959 cfbf b474 243f 8846 11bf
00000320: e464 c8bf c2c4 73bf 6944 4abe fe0a 23be
00000330: 25c4 82bf bb6c 45bf 6584 3b3f 6896 d7bf
00000340: 297f 81bf 28ab d23f 09a5 6f3f 0194 a63e
00000350: b94f 9bbf 7f4d 9cbf 80cf 803f 43b5 c83f
00000360: 4701 e03e dc67 c23e 495f c5bf ada6 4a3f
00000370: 7e8c 8bbf a5ef 88bf 23f1 3f3e 62b6 82bf
00000380: e640 52bf b4d6 4b3f 15bb ab3d 3061 363e
00000390: faba 333e acb3 e33f b69b 18bf f9f6 803f
000003a0: 239d 9cbf ab02 783f f53f a4bf ef9b 0fbf
000003b0: 872e 6a3f 9d5f 59bf 08d4 92bf 7d7e 653f
000003c0: 1a7e afbf b731 97be f2af 86bb afef c13f
000003d0: d89a c33f 7d02 29be 2745 b5bf 627d 013f
000003e0: 23ce 8e3f 0ce6 823e 7351 d9bf 8c84 463f
000003f0: ca26 ddbf 6189 9a3e 2ee9 5f3e e153 97bf
-1.1443188 1.4359242 0.44049522 -1.1583391 -0.63161856 -1.6048857 -1.5331494 -1.4589541
0.55540377 -0.97352076 1.2562096 -0.09264081 -0.05268396 -1.1326052 -0.81240577 -0.54610246
-0.07886541 1.5928297 0.2642413 0.16417986 0.021036372 -1.0009288 -0.93423796 1.0673134
-1.0551435 0.3711797 1.2174954 -1.1904119 -0.6884979 -0.2783652 1.0655165 1.0736521
-0.40739498 0.052865863 -1.0657368 0.8899782 1.2649078 1.3788116 -1.4004377 1.6836388
0.8131699 -0.21395566 -0.2348807 0.2230488 -1.2778741 -0.72151977 1.1234107 -1.6157856
-0.9544972 0.2444468 -0.87749016 -0.51655936 -0.9521728 1.4698653 -0.9695742 1.096175
1.0898035 -1.5846153 0.37456298 -1.4255319 1.2239424 0.23732123 0.22359458 -0.6340428
-1.0379859 -0.49591333 0.5610192 0.9070545 -1.1705765 0.96127266 -1.3765265 -0.81368333
0.15880348 1.3009716 -0.48300302 1.3929256 -1.8588842 0.1899654 -0.7844369 -0.92459095
-1.2967314 -1.937904 1.3810753 0.30791196 -0.2452333 0.28915852 -0.5341351 0.7040339
1.1635326 -0.3503976 1.2842857 0.5632956 -0.14340746 1.5449361 0.7249677 -0.33406854
-0.55109924 -0.9547124 -0.32922184 1.3596077 -1.7444109 0.30314744 -1.5224543 -0.82036114
-0.6710895 -0.084040314 1.5638478 -1.3333508 1.3780318 0.86703926 0.26448283 -0.543423
1.2132125 -0.60781866 1.1173574 -0.41547665 -0.42652982 -0.114642695 1.1173027 0.9508464
-0.92832863 0.63993984 0.78439224 1.293663 -0.99405396 -0.07003348 0.8238418 -0.45619825
-0.8491062 -1.0234399 -1.5263355 1.5979044 0.057534672 1.5830537 1.6675979 0.14144693
-0.7979732 -1.4465079 -1.0785583 -0.38214633 1.687318 0.6721229 0.5685984 -1.0414999
-0.60507 0.52559763 1.0215464 0.3963097 1.3535928 1.0651582 0.9562336 -1.486174
-0.8459101 1.2757483 0.21975799 0.87048215 -1.461522 -1.8735011 -1.5550624 -1.2638625
-1.0710683 1.3778353 1.4691751 -1.1845742 -1.1320375 1.0107322 -0.07662796 0.9712176
-1.5021045 0.6826022 0.14555635 -0.9335857 -0.8591867 -1.5850644 0.6436044 1.3357453
-0.18925622 -1.3280942 0.8876869 -1.0676558 0.5205445 -0.6121417 -0.3241473 -0.94781125
-0.24388938 -0.69482875 0.2285998 -1.3725369 -0.52685386 -0.19572653 -0.66489875 1.6576842
1.2204221 1.4897534 1.1580023 0.28460807 -1.5202074 -1.6199237 0.64240575 -0.5674825
-1.5655789 -0.95222104 -0.19752659 -0.15922162 -1.0216109 -0.77119035 0.73248893 -1.6842775
-1.0116931 1.6458483 0.936112 0.32534793 -1.2133704 -1.221115 1.0063324 1.5680317
0.43750975 0.37969863 -1.5419704 0.7916058 -1.090225 -1.0698134 0.1874433 -1.0211909
-0.8213028 0.79624486 0.083852924 0.17810512 0.17551795 1.7789207 -0.59612596 1.007537
-1.2235454 0.9687907 -1.2832018 -0.5609731 0.91477245 -0.8491152 -1.1470957 0.8964613
-1.3710358 -0.29530117 -0.00411033 1.5151271 1.528163 -0.16504855 -1.4161729 0.50581944
1.1156658 0.25566137 -1.6977981 0.77546 -1.7277462 0.30182937 0.21866295 -1.1822473

_weight_2 f4 [16, 16]
00000000: 74a1 b93f ac46 a33f 8625 5bbf 0a1e 853d
00000010: 6fa1 86be 0256 2cbe f1b1 0ebe a549 0e3f
00000020: e169 0dbf 221e 94bf abc8 a3bf 95a0 9d3e
00000030: 7f37 43bf ca31 bb3f 8093 5f3f c4f3 d9bf
00000040: 8197 96bf 315f 72bf c659 ddbc d4b4 9bbf
00000050: b05b 843f 7cb4 db3f dd50 ddbf c3b3 4d3f
00000060: d1a6 5ebf aa54 edbf 89ce 69be 035c 7b3f
00000070: 97a2 36be 7a07 d5bf 7dab 873f bc6e dc3f
00000080: 4f06 943f 12dd cb3f 366d b33f 19ba c33f
00000090: 6b1b 1ebf a2be cfbe 969a 443f 2ce3 f33d
000000a0: 0097 8fbf 2e5b e6be 988b 223f 9e16 9a3f
000000b0: 84be 96bf 192d 083f dc1b a93f 9ce3 8dbf
000000c0: f6b2 b03f c88c b7bf 7739 cfbf acee b13f
000000d0: 174a 873f aba9 463f 5b3c c8bf e6d4 5e3d
000000e0: d2a4 12be 17a5 1fbf 0b82 083f 4daa b03f
000000f0: f413 dc3e 5a30 7d3f 6e48 303f 29a0 19bf
00000100: 90c5 8b3f a7ad c8bf 6d6c 743f 3ddf d13f
00000110: b592 60bf ae57 05bf 7157 a3bf d987 a3bf
00000120: 8781 353f db7f 9b3f d13b cc3f 095d e93d
00000130: 9201 c6bf d1bd 47bf 4a34 a7bf eb11 47bf
00000140: 91a8 be3f b66f 833f aa5a c1be 8f22 e53f
00000150: 93bf aa3f c5bf b83c bef5 79bf 5189 8ebe
00000160: 8ea0 d1bf 450a 4cbf cde9 79be 37c9 033f
00000170: b09f 9f3f 3876 51bf c088 1b3f 5345 4cbf
00000180: ad4e 4d3e a998 363f e7d5 433f 61e1 94bf
00000190: 1f49 0ebe 9232 523f 9187 cb3f 39bd bb3e
000001a0: a261 e93f d0f3 173e 3017 f73e 13e1 153e
000001b0: f27f c43e 5984 98bf a6c6 d4bf 3ed0 c4bf
000001c0: d5d6 1f3d 9eee 433f 6368 aabf a2da 7abf
000001d0: ea36 56bf e762 7f3f 0333 dc3e a241 6dbf
000001e0: d9ee 03bf 6759 3f3f c703 5c3f d7a1 babf
000001f0: efb3 1dbd 2758 253f 2303 79bf d67c 2ebe
00000200: 41f1 d8bf 0bf8 6fbf 5753 39bf a873 81bf
00000210: 07cc 47bf 9391 d4bf ec18 4f3e f517 0cbf
00000220: b859 8b3f be96 bcbf 9e65 1a3e e164 3fbd
00000230: 0e70 0cbe f731 123d b73e d0bf d323 ba3f
00000240: d51d bd3f 7584 223e a4cf 543f 336a e8bf
00000250: 5b08 463f 8d70 8abe 008c c3bf e19b b239
00000260: f819 8f3f 6665 d9bf 2a9a 1d3e e9b4 913f
00000270: 31da 52bf 1554 d43d 6e08 5ebe 5497 9fbe
00000280: ac24 d1be ecd5 70bf b515 863e 51f8 a2bf
00000290: 6271 bdbf fee1 2f3f d9d6 1040 6503 5b3f
000002a0: 2fb0 e83d 0d9d 17be a206 14bf d45a 583f
000002b0: 2c1b 0fbf aae4 d53f 4613 6f3f bc91 8d3e
000002c0: f135 1d3f aadd a6bf 2e43 b73f 384c a2bf
000002d0: 81e5 793f 84ff 41be a864 adbf 4226 b8bf
000002e0: 1ac5 cabf 0f9e 703f 3e01 a2bf 2bdb 433f
000002f0: 523a 89be 2461 343f 01e5 f7be 7d24 913f
00000300: e369 c8be f456 ffbe 94d6 1c3e 8d22 4f3e
00000310: 020f e6bf b8f6 df3e 911a 5abe 21ed b83f
00000320: b4c6 ad3f 5490 353f 6b0a d23f 5a88 dbbf
00000330: 3730 353e 47dc 7cbf 0d93 6e3e 9601 f0be
00000340: 6087 85bf cbba 413f d931 033f e596 3f3e
00000350: 2948 1a3e f477 0abf a506 c83e 12a2 ac3f
00000360: 7d5b 2f3f ccef f3be cada be3f 148c d1bf
00000370: b211 f63f 7707 b43f 45eb 11be c6b7 90bf
00000380: 1c12 aa3c 3861 1ebf e552 4ebf 2884 87bf
00000390: 163d 0d3f 2cc4 fdbe 1453 c7bf c2da 9fbf
000003a0: 825e dcbd cf2d c83f 1059 6f3f f615 b13f
000003b0: 4cf7 2b3f 6a21 f23e 9e8c 95be 8483 d83d
000003c0: 1fab 3d3f cd47 32bf 9d87 b13f a947 a5bd
000003d0: f170 34bf d6b9 b5be 9f70 9c3f 362c d03f
000003e0: 1b30 9abe bca2 b2bf 3f95 73bd 185e a4be
000003f0: 88ba b2bf c2f6 583f 0582 393f 3bac 903f
1.4502397 1.2755942 -0.8560413 0.0649987 -0.2629504 -0.16829684 -0.13935067 0.5558112
-0.55239683 -1.1571696 -1.2795614 0.30786577 -0.76256555 1.462457 0.8733444 -1.7027516
-1.1764985 -0.946765 -0.027020346 -1.2164559 1.0340481 1.7164454 -1.7290303 0.8035242
-0.8697329 -1.8541462 -0.22832693 0.98187274 -0.1783546 -1.6642907 1.0599209 1.7221293
1.1564425 1.592684 1.4017704 1.5291167 -0.61760587 -0.4057513 0.7679838 0.11908564
-1.1217957 -0.4499144 0.63494253 1.2038152 -1.1776891 0.53193814 1.3211627 -1.1085086
1.3804615 -1.4339838 -1.6189412 1.3900962 1.0569485 0.7760264 -1.5643419 0.054402255
-0.14320686 -0.6236128 0.5332343 1.3801972 0.42983973 0.98901904 0.6886052 -0.6001001
1.0919666 -1.5677994 0.95477945 1.6396252 -0.8772386 -0.52086914 -1.276106 -1.2775832
0.7090077 1.2148393 1.5955755 0.11394698 -1.5469229 -0.7802401 -1.3062832 -0.77761716
1.4895192 1.0268466 -0.37764484 1.7901171 1.3339714 0.02255238 -0.976406 -0.2783914
-1.6377122 -0.7970317 -0.24405594 0.51478904 1.2470608 -0.8182101 0.6075554 -0.7979328
0.20049544 0.7132669 0.76498264 -1.163128 -0.13895081 0.82108414 1.5900747 0.36667803
1.823292 0.14839101 0.48259878 0.1463664 0.38378865 -1.1915389 -1.6623123 -1.537605
0.03902324 0.76535976 -1.3313106 -0.9798986 -0.8367754 0.9976029 0.4300767 -0.9267827
-0.5153633 0.7474579 0.85943264 -1.458064 -0.038501676 0.64587635 -0.9727041 -0.17039809
-1.6948625 -0.9373786 -0.7239279 -1.011342 -0.78045696 -1.6606926 0.2022435 -0.54724056
1.0886755 -1.4733503 0.15077826 -0.046727065 -0.1371462 0.03569218 -1.6269139 1.4542183
1.4774729 0.15870841 0.83129334 -1.815741 0.773565 -0.27038994 -1.52771 0.00034066944
1.11798 -1.6984069 0.1539084 1.1383334 -0.82364184 0.103676 -0.21682903 -0.31170142
-0.4084829 -0.9407642 0.26188436 -1.273203 -1.4800227 0.6870421 2.2631133 0.85552055
0.11361729 -0.14806004 -0.5782262 0.8451359 -0.55900836 1.6710408 0.93388784 0.2765025
0.61410433 -1.3036397 1.4317377 -1.267951 0.9761582 -0.18945128 -1.3546343 -1.4386675
-1.5841401 0.9399118 -1.2656629 0.765063 -0.26802307 0.70460725 -0.48416904 1.133926
-0.39143285 -0.49871027 0.1531623 0.20228024 -1.797333 0.4374292 -0.21299197 1.4447366
1.3576264 0.7092335 1.6409429 -1.7150986 0.17694174 -0.98773617 0.23298283 -0.4687621
-1.0431938 0.7567565 0.51247936 0.18709905 0.1506659 -0.54089284 0.3906757 1.348696
0.68498975 -0.47643888 1.4910519 -1.6370873 1.922415 1.4064778 -0.14249904 -1.1306083
0.020760588 -0.61867094 -0.80595237 -1.0587206 0.55171335 -0.4956373 -1.5572228 -1.2488635
-0.107602134 1.563898 0.93495274 1.3834827 0.6717422 0.47291118 -0.29208845 0.105719596
0.74089235 -0.6964081 1.3869511 -0.08070309 -0.70484835 -0.35493344 1.2221869 1.6263492
-0.30114827 -1.3955913 -0.059468504 -0.32103038 -1.3963175 0.8475152 0.7246402 1.130256

_weight_0 f4 [80, 16]
00000000: 2f12 7e3f 97ee b23f b4df 44bf 2ee8 003f
00000010: 5a21 bbbe 1bb4 d0be 2b11 163f fdb5 79bf
00000020: 1b8b 1f3f 3acd 7c3f aadc a5bf ecec a6bf
00000030: 6352 93bf 23b9 083f 70bb a9bf bff5 96be
00000040: 6311 23be fc4c 97bf 1792 813f f340 c0bf
00000050: 1af7 413e 9829 853f 6349 b23f bfa3 913f
00000060: ea30 5abf 21cc 98bf cef8 333f 160c b6bf
00000070: 95b5 63bf 69a7 a2bf dbec dabe 7333 963d
00000080: 7a3d 833f 2414 4bbf d0f7 833f bded 4cbe
00000090: 45e5 9f3f bce0 ca3f 04e5 e23f b07b ae3f
000000a0: ac80 093e 25d4 023f d5eb ebbe ba98 743f
000000b0: 733a 773e d525 ac3f 699d 1bbf e203 003f
000000c0: 7481 32bf 48b8 b83f 99c4 633d 9c60 99bf
000000d0: a1c8 9fbe a0ee 92be 8632 e4be 5803 fbbe
000000e0: b85b 85bf 0423 1abf bce7 e93f 52c2 c33f
000000f0: 6825 30bb 6634 38bf b979 9a3f ad9d 39bf
00000100: fd67 7a3f d968 153f 3dad 54bf 8253 92bf
00000110: 1e01 b03f 33bb a83e 05ad 153d c32e d73f
00000120: 7c48 8b3f 9981 a63c e769 833f e4af 9cbf
00000130: c476 943f 1743 5b3f cf2f 91be ac67 16bf
00000140: 379a bd3e 7ccc 1a3f 8cdd c93e 36dc 833f
00000150: 8613 9a3f 774e ce3f cf0a c93d 1cb2 a73f
00000160: 6079 a8bf 9c6f e4be 3eaf 803f dac0 02bf
00000170: 60c1 62bf ce1d 1abd 30a7 253f 86a2 2d3e
00000180: f34c a0bf 359b f4bf 2dd2 793f a785 413e
00000190: 6589 fe3e c733 a5bf 9506 c53f 104b 8a3e
000001a0: 717a 7e3f fd21 61bf 9400 a03e 9085 053f
000001b0: a7c5 263f cd34 db3f f192 fbbe 264a b03d
000001c0: 4bea 913f ce6c 873e e0c0 003f e98b 07bf
000001d0: 537f 89bf 6661 00bd beb3 b5bf 2494 82bd
000001e0: 51d8 4f3e 5913 ca3f 9f15 d43d cb04 ce3f
000001f0: 5177 f83e 7b57 89bf a55d 8ebf b5d0 bb3e
00000200: f214 a0bf e429 6a3f b845 9d3f e826 07bf
00000210: f92d 9cbf 378c ca3d 4647 2fbf bafe bcbf
00000220: 2227 d03e 7f1b b2bf ec91 51bf 4db7 88bf
00000230: eca7 f7bd 6edf 6d3f 3fdf 9cbe 827c 33bf
00000240: 47f4 b83f cd84 ebbe 9667 6a3f bec4 5ebf
00000250: e5b3 c2bf e21b 83bf 3690 2c3f 2682 1b3f
00000260: 0de2 c03e cee4 a8be f32f b3bf cd7e b23f
00000270: ace5 47bf 918c 10bf c14d 9b3f 486f ccbf
00000280: 8bf1 42bf d643 c13e 7b4c 46bf e979 263f
00000290: 9ec2 9a3e 8c53 c4bf 112d 5ebf 74ec b53d
000002a0: 434c a1be 1528 88bf 2454 82bf 6060 0140
000002b0: f0f4 883e e1c8 eabe 44d1 b13f 6adf 713f
000002c0: 3c2c 3e3f ef3e 8d3f f8b8 a53f 860d 6cbf
000002d0: 8a73 933f 8675 4b3f 8f5a 75be f4ca c73f
000002e0: c5c2 173f 3b1b 1a3f cf1e 153f 9701 38bf
000002f0: 3386 303f c504 9dbf f0b0 843f 0b04 263e
00000300: 3d26 c5be e29f af3f 8faa 2f3f 0215 983e
00000310: ee6e a7bf 6ead 43bf e629 e7bd 3f27 513f
00000320: f1cb 9ebf 60d3 d3bf 3444 08bf 2ac8 093f
00000330: f779 b13e 81d8 7d3f c735 9fbf 1cb6 8abe
00000340: 53d9 86bf 7015 c03f 55ac 8fbf e38f 563f
00000350: 14bb 6a3f 9d8c 97bf 459c bb3e b3b9 59be
00000360: 4790 2a3d 7519 bdbf 4863 73bf ac15 de3f
00000370: 750c 0cbe dc22 ac3f f2a3 9bbf 50bd 583d
00000380: eb1e 8e3e 8edf efbd 7bfc b0be 672e 113f
00000390: 907a ec3f 5561 05bf f537 acbf ba87 76bf
000003a0: 4532 903f 6403 d23f e04a fe3e bcfc 073e
000003b0: 7521 84bd 4c98 673e a42e bc3f 23ec b53f
000003c0: 281f 36be 3ad6 bb3e 11be 74bf 3b11 393f
000003d0: 1a43 8c3f cc27 a23f a9e7 123f 532d a4bf
000003e0: fd7a 17bf a7b0 473f d795 2e3e 2adb cd3c
000003f0: bfb3 9abf 25b8 df3e 17c8 be3f 53a2 6abf
0.99246496 1.3979062 -0.76903844 0.5035428 -0.36548883 -0.4076241 0.58619946 -0.9754332
0.62321633 0.9875065 -1.2957966 -1.3041053 -1.1509517 0.53407496 -1.3260326 -0.29484364
-0.15924601 -1.1820369 1.0122708 -1.5019821 0.18941918 1.0403318 1.3928646 1.1378096
-0.85230887 -1.1937295 0.7030152 -1.4222438 -0.8894895 -1.270734 -0.4275883 0.07334032
1.0253136 -0.7932761 1.0310001 -0.20012565 1.2491843 1.5849833 1.772614 1.3631496
0.1342799 0.51104957 -0.46078363 0.9554554 0.2414339 1.3449045 -0.60787064 0.50005925
-0.6972878 1.4431238 0.055607412 -1.1982608 -0.31207755 -0.2869768 -0.44569796 -0.4902599
-1.0418615 -0.6020968 1.8273845 1.5293677 -0.0026877765 -0.71954954 1.2068397 -0.7250622
0.97814924 0.5836311 -0.8307684 -1.1431735 1.3750341 0.32955322 0.036541957 1.6811146
1.0881495 0.020325469 1.0266694 -1.2241178 1.1598744 0.85649246 -0.28356788 -0.5875194
0.3703172 0.6046827 0.3942684 1.0301578 1.2037208 1.6117696 0.09816515 1.310123
-1.3162041 -0.446164 1.005348 -0.5107552 -0.88576317 -0.03762608 0.6470823 0.16956529
-1.2523483 -1.9109865 0.9758633 0.1889864 0.497142 -1.2906426 1.5392634 0.27010393
0.9940558 -0.87942487 0.3125044 0.52156925 0.65145344 1.7125489 -0.49135545 0.08607893
1.1399626 0.264502 0.50294304 -0.5294786 -1.0741981 -0.031342886 -1.4195478 -0.06375912
0.20297362 1.5787154 0.103556864 1.6095213 0.4852853 -1.0729822 -1.1122328 0.36682668
-1.2506392 0.9147017 1.2286901 -0.5279374 -1.220153 0.09890025 -0.6846813 -1.4765236
0.40654856 -1.3914641 -0.81863284 -1.0680939 -0.120925754 0.9291905 -0.30639073 -0.7011186
1.4449548 -0.45999756 0.9156431 -0.87018955 -1.521115 -1.0242884 0.6740755 0.60745466
0.37672463 -0.32987064 -1.3999008 1.3944947 -0.78084826 -0.5646449 1.2133104 -1.597146
-0.76149815 0.37747067 -0.7746045 0.6502977 0.30226606 -1.5337996 -0.86787516 0.088829905
-0.31503496 -1.0637232 -1.0181928 2.0215073 0.26749372 -0.45856383 1.3891988 0.9448153
0.74286246 1.1034831 1.2947073 -0.92208135 1.1519635 0.794762 -0.23960327 1.5608811
0.5928157 0.601978 0.58250135 -0.71877426 0.6895477 -1.226708 1.0366497 0.1621248
-0.38505736 1.3720667 0.68619627 0.29703528 -1.3080728 -0.7643651 -0.11287288 0.8170051
-1.2405988 -1.6548882 -0.5322907 0.5382105 0.34663364 0.99158484 -1.2438287 -0.27092063
-1.0535072 1.5006542 -1.1224467 0.83813304 0.9169171 -1.1839787 0.36642662 -0.21262245
0.0416415 -1.4773394 -0.95073366 1.7350364 -0.13676627 1.3448138 -1.2159407 0.052914917
0.27757964 -0.117125615 -0.34567627 0.5671143 1.8474903 -0.5210164 -1.3454577 -0.9630085
1.1265341 1.6407285 0.496665 0.13280004 -0.06451694 0.2261669 1.4701734 1.4212688
-0.17785323 0.3668688 -0.9560252 0.72291917 1.0957978 1.2668395 0.57384735 -1.2826332
-0.5917204 0.78003925 0.17049347 0.02512892 -1.2086104 0.4369518 1.4904813 -0.9165394
