example/calculators/sw_allegro/BP_bilayer/interlayer_bp.pth (torch, 269304 bytes, 24 tensors)

_mean f4 [8]
000000 b3 ad 17 3d a6 38 e8 3c 98 19 09 3d e6 37 f4 3c
       0.037030887 0.028347325 0.033471674 0.02981181
000010 8c b1 05 3d 24 54 f8 3c 1f 2a 04 3d 8a 58 fa 3c
       0.032640025 0.030313559 0.032266732 0.030559797

_inv_std f4 [8]
000000 99 71 45 42 28 68 93 41 6c ed 6b 41 4f 02 42 41
       49.360935 18.425858 14.745464 12.125564
000010 93 96 2c 41 65 9b 1a 41 b9 ca 0e 41 50 48 04 41
       10.786761 9.662938 8.924493 8.267654

bessel_weights f4 [8]
000000 db 0f 49 40 db 0f c9 40 e4 cb 16 41 db 0f 49 41
       3.1415927 6.2831855 9.424778 12.566371
000010 d2 53 7b 41 e4 cb 96 41 e0 ed af 41 db 0f c9 41
       15.707964 18.849556 21.99115 25.132742

env_sum_normalizations f4 [3]
000000 b5 83 b5 3d b5 83 b5 3d b5 83 b5 3d
       0.08863012 0.08863012 0.08863012

_latent_resnet_update_params f4 [3]
000000 00 00 00 00 00 00 00 00 00 00 00 00
       0.0 0.0 0.0

per_layer_cutoffs f4 [4]
000000 00 00 20 41 00 00 20 41 00 00 20 41 00 00 20 41
       10.0 10.0 10.0 10.0

_weight_0 f4 [24, 4]
000000 6a da 2c bf eb 8a d2 3e 91 b0 59 be 65 dc d8 3f
       -0.67520773 0.4112161 -0.21258761 1.6942259
000010 05 63 18 bf db 86 8e 3e 97 56 20 3f 61 44 be 3f
       -0.5952609 0.27837262 0.62632126 1.4864618
000020 be 20 54 3e 5b 08 95 3d 68 53 bd 3e 0e 9b 5f 3f
       0.20715615 0.07276984 0.36977696 0.8734597
000030 54 3f 46 3f c7 3c 30 bf dd bb 08 3f 12 60 ac 3f
       0.7744038 -0.6884274 0.53411657 1.3466818
000040 3b 8d d1 3e 9b ee ca bf c6 16 bb bf 01 99 fa be
       0.40928063 -1.5854067 -1.4616325 -0.48944858
000050 9f 39 5b 3f 27 2d 84 bf 85 78 35 3f 1f 3e a4 3f
       0.856348 -1.0326279 0.70887023 1.2831458
000060 b2 ec dd 3e 06 4f 03 bf 91 13 d5 3f 6b 34 dd 3e
       0.43344647 -0.51292455 1.6646596 0.43204054
000070 59 5f 26 bf 1c c8 c7 bf b4 66 9e 3f db f1 88 3f
       -0.6498924 -1.5607944 1.2375093 1.0698808
000080 83 2d 93 be 82 ae 77 3f f7 08 b7 bf 2e e0 b5 3f
       -0.2874566 0.9675065 -1.4299611 1.4209039
000090 be 17 16 40 79 d7 83 3e 2b 8a 9d be fe e3 19 3f
       2.345199 0.2575033 -0.30769476 0.60113513
0000a0 9d da b3 3f 12 4c 50 3f 6b cd 17 3e 1f 9e 6e 3f
       1.405109 0.81366074 0.14824454 0.93210024
0000b0 16 f3 92 3f 0b 4e 99 bf fd e9 7a be 03 fd 96 be
       1.1480434 -1.1976942 -0.24503322 -0.29489908
0000c0 35 b1 92 3f 54 b9 5c bd f0 8b 52 bf 71 f3 b1 bd
       1.1460329 -0.05388768 -0.8224478 -0.08689011
0000d0 1f 44 8d 3f 07 05 ec bf 7e a8 8d 3f 87 fb 6c bf
       1.1036414 -1.8439034 1.1067045 -0.925713
0000e0 e9 5b 71 3e 6f 97 87 bf 99 ca 37 bf 74 20 83 3f
       0.23570217 -1.0593089 -0.71793514 1.0244279
0000f0 a0 fc d9 3f 33 b4 81 be 4e a7 02 bf 27 da aa 3e
       1.703022 -0.25332794 -0.51036537 0.33369562
000100 c9 33 70 bf 21 e8 1c c0 62 78 98 3e 5c 7f 6f 3e
       -0.9382902 -2.451668 0.29779345 0.23388427
000110 9d a9 d9 3e a2 27 25 3e ea f0 91 be 52 41 20 40
       0.42512217 0.161284 -0.28504115 2.5039868
000120 b4 b3 cf bf b4 d4 14 3e 86 6f bf bf db 2d 25 bf
       -1.6226716 0.14534265 -1.4955909 -0.64523095
000130 82 b4 b7 bf d1 3f 70 3f f9 b7 7c bf d5 70 bf 3f
       -1.4351962 0.93847376 -0.9871822 1.4956309
000140 c9 4d c7 bf 31 e6 80 3f e9 c4 06 3f 47 44 de bd
       -1.5570613 1.0070249 0.5264421 -0.108528666
000150 60 a8 c1 3e fe fd 78 3f cb 45 e0 3f c2 b6 a2 bf
       0.37823772 0.9726256 1.7521299 -1.2712023
000160 fc 04 e6 3d 17 ac d7 bf 7d 03 d2 bf 08 b7 b2 3f
       0.112314194 -1.6849393 -1.6407315 1.3962107
000170 ac cb 63 3f a8 0c 9f 3f 16 b6 72 be d3 df f9 bf
       0.88982654 1.2425737 -0.23702273 -1.9521431

_weight_1 f4 [4, 8]
000000 61 43 c6 bf bf ef 36 bf 7e a2 ea be 0c 28 b1 3e
       -1.5489312 -0.71459574 -0.45827097 0.34600866
000010 60 29 e5 3f 4f 9b 53 bf 75 86 2c bf d6 72 b2 3c
       1.7903252 -0.8265886 -0.67392665 0.021783274
000020 79 a7 c3 3f 0b 48 a7 be 25 6d b0 3f 7f 83 9e 3e
       1.5285484 -0.32672152 1.3783308 0.309597
000030 88 28 81 3e 35 ad 86 bf 95 c4 e0 3e fc 5b ff be
       0.25226235 -1.0521609 0.4389998 -0.49874866
000040 ac d8 43 3f 1b 38 a3 3e a9 3e 5f 3e 55 bb f4 bf
       0.7650249 0.31878743 0.21801247 -1.9119669
000050 4b 8f 7c bf 52 51 b1 3e 21 3c 7a 3f 94 ab c3 3f
       -0.9865615 0.34632355 0.97748 1.5286736
000060 8b 17 c1 3f a3 81 2c 3f 4c c1 39 bf fd 12 92 3e
       1.508531 0.6738531 -0.7256057 0.28530112
000070 ba a6 2f bf 83 e3 d4 3f 64 33 ca be 1f 70 b2 3f
       -0.6861378 1.6631931 -0.39492333 1.3940467

_weight_2 f4 [8, 16]
000000 57 e6 99 be d7 65 f2 bf bf 2e 83 3f d0 7a 04 bf
       -0.30058548 -1.8937329 1.0248641 -0.51749897
000010 1f 4c 9f be 02 d4 5c bf 89 76 42 3f 1b b7 16 40
       -0.31112763 -0.86261 0.7596212 2.3549259
000020 77 f4 5c 3f 37 d9 05 40 a3 c8 dd bf 0b 5f a2 3f
       0.86310524 2.0913827 -1.7326854 1.2685255
000030 53 e3 b9 3f 1e 6f 0a 3f 5b cf a5 be 3b c9 af be
       1.4522499 0.540758 -0.32384762 -0.34333214
000040 59 29 28 bf d8 c0 09 3f 8f 73 e0 be 33 ab e8 3e
       -0.6568809 0.5380988 -0.43838164 0.45443115
000050 2b ba a1 bf 8d 8d 08 bf cf 29 47 bf fb fc d7 3f
       -1.2634939 -0.5334099 -0.7779817 1.6874079
000060 17 65 f1 be 37 29 50 bf 0b ce 52 3e b5 81 c5 bf
       -0.47147438 -0.8131289 0.20586412 -1.5430208
000070 23 a3 64 3f 92 de f3 3f d7 ed 26 be 77 b9 c1 be
       0.89311427 1.9052298 -0.16301666 -0.3783681
000080 0a 55 2c 3f 21 f1 81 3f a0 84 e1 3f da 99 6e bf
       0.6731726 1.0151712 1.7618599 -0.9320351
000090 37 9a bb 3f e4 41 e8 3d 1e 14 63 3e a5 33 84 bf
       1.4656438 0.11340693 0.22175643 -1.0328261
0000a0 df ae 7a 3f ea f6 4d bf 00 c4 5d 3e d0 ac 70 bf
       0.9792308 -0.80454886 0.216568 -0.9401369
0000b0 6d af e6 bf f4 ad cb bf 03 7c 86 3f 6d ac 08 3e
       -1.8022286 -1.5912461 1.0506595 0.13347025
0000c0 15 23 4c 3f ba 75 a9 bf d0 17 00 c0 da 6e 6b bf
       0.7974103 -1.3239052 -2.0014534 -0.9196602
0000d0 55 f4 d4 3f 95 18 b7 bf 93 69 c6 3f 89 58 3f be
       1.6637064 -1.4304377 1.5500969 -0.18686117
0000e0 fa ee bb bd 9a ca e9 3e 4b 51 d0 3f e2 36 0b 3f
       -0.091764405 0.45662385 1.6274809 0.5438062
0000f0 95 3f 03 c0 e0 2c a4 be 68 f7 71 3f 11 ca c2 be
       -2.0507557 -0.32065487 0.94518137 -0.3804479
000100 b3 07 8a bf 3e ec 07 c0 9b f4 d9 3f 20 1c d0 be
       -1.07836 -2.123794 1.7027773 -0.40646458
000110 42 e9 b4 bf 19 94 a1 3f d3 da b5 bd 7f 87 93 3f
       -1.4133685 1.2623321 -0.08879628 1.1525725
000120 d4 82 98 3f 3c 52 39 bf 4f 2b b2 3f e9 99 0f 3e
       1.1914926 -0.72391105 1.3919467 0.14023556
000130 43 5d d2 bf 70 dc 7e bf 29 38 c6 bf 66 92 a0 3f
       -1.6434711 -0.9955511 -1.5485889 1.2544677
000140 9c e8 12 bf 6d d1 b1 bf 5a c9 4e 3f 34 cb 44 3f
       -0.57386184 -1.3892037 0.8077599 0.76872563
000150 dc e1 f6 3e 2a 69 a1 bf 28 4d 88 3e dd e2 5f 3f
       0.48219192 -1.2610219 0.26621366 0.8745554
000160 2a ca a5 3f 6d 79 96 bf 23 ae 87 bf a3 af f8 3d
       1.295232 -1.1755806 -1.0600017 0.12142875
000170 14 82 85 bf a8 bb d9 3f ad cf b6 bf 68 62 6d be
       -1.0430322 1.7010393 -1.4282128 -0.2318207
000180 04 49 5b 3f 9d 1d b4 3f 8b 26 1b 3f f2 4a 48 be
       0.8565829 1.4071537 0.60605687 -0.1955984
000190 53 1c a3 3f 17 22 db be a3 2a a3 3f 50 89 cb 3f
       1.2743019 -0.42799446 1.2747387 1.590128
0001a0 6c da c4 3f 63 70 96 bf 62 b2 20 bf 8b 87 76 bd
       1.5379157 -1.1753048 -0.6277219 -0.060187858
0001b0 a6 29 7f bf 6c 93 bc bf a4 0e d1 3f 1b 31 00 c0
       -0.99672925 -1.473249 1.6332593 -2.0029972
0001c0 23 33 dd 3f b3 f2 ad bf 22 f4 0f bf ae fb a0 bf
       1.7281231 -1.3589691 -0.5623189 -1.2576807
0001d0 e6 1f 46 be 69 4c 74 3e cc e3 49 be 0c ea 6c 3f
       -0.19348106 0.23857273 -0.19715804 0.9254463
0001e0 80 93 86 bf ab fe c3 bf a6 d9 d9 3e 0c 3c 8e be
       -1.0513763 -1.5312093 0.42548865 -0.27780187
0001f0 dc b4 9f 3f 3d 9f 12 be 22 34 c1 bf 80 cc 1b 3f
       1.2477069 -0.14318557 -1.5094035 0.6085892

_weight_0 f4 [32, 16]
000000 95 ff 6c bf 2c 9c 87 3f d3 54 bc 3f d7 e6 bf 3f
       -0.9257749 1.0594535 1.4713386 1.4992322
000010 73 97 9a 3d a0 8d ba 3f aa bc f3 3e 3e 63 f5 be
       0.07548418 1.457447 0.47604877 -0.47927278
000020 d8 48 74 3f 07 94 96 3f de fd 37 bf 07 5c 88 bf
       0.9542365 1.1763924 -0.71871746 -1.0653085
000030 62 11 b9 3f 00 4d c3 3f 6b 32 3f bf e8 84 6c be
       1.445843 1.5257874 -0.74686307 -0.23097575
000040 75 78 b1 bf 89 89 3f 3e d7 89 61 3f f8 ff a8 3f
       -1.3864886 0.18704809 0.8810095 1.3203115
000050 4d fd a2 3f bc 8a cf bf 40 aa 22 bf c4 2e 6c bb
       1.2733551 -1.6214213 -0.6354103 -0.0036038617
000060 20 98 fa be 7d 7d c8 bf 45 4d 42 3d c2 89 9c 3f
       -0.48944187 -1.5663296 0.04743697 1.222954
000070 49 84 03 be 20 6a 9f 3f 4e 88 6c bf 6e af 6e 3f
       -0.12843432 1.2454262 -0.92395484 0.93236434
000080 3a f0 e1 3f 27 3e 23 40 cc 66 43 c0 58 9d d3 3f
       1.7651436 2.5506685 -3.0531492 1.6532393
000090 c0 4b 1f bf d4 53 d3 3f a7 6f 52 bf bc 94 d5 be
       -0.6222496 1.6509957 -0.8220162 -0.41715038
0000a0 f7 7b 2e 3f 8c da 9f 3f b9 94 66 bf ad a6 97 bf
       0.68157905 1.248857 -0.9007068 -1.184774
0000b0 46 2b c2 3f 07 55 dc bd 5b 9a 9b bf 47 f6 a9 3c
       1.5169456 -0.10758405 -1.215648 0.020747317
0000c0 87 af 3b bb fd 83 34 bf ec af a5 3f a9 07 c8 bf
       -0.0028638558 -0.705139 1.2944312 -1.5627338
0000d0 91 e9 c1 3f fd 31 4b bf 58 ee d6 3e 09 83 8c bf
       1.5149404 -0.7937315 0.41978717 -1.0977489
0000e0 f2 68 50 3f 47 fd 74 bf 54 87 8d bf 4e 6f 82 3f
       0.81410134 -0.9569897 -1.1056924 1.0190217
0000f0 fa 70 44 3f f1 3c d8 3f 61 52 5e 3f 22 c9 8f 3f
       0.7673489 1.6893598 0.8684445 1.1233256
000100 21 36 b4 bf 75 a4 76 3f 9b ac 90 3f be 67 c9 bf
       -1.4079019 0.9634469 1.1302675 -1.5734785
000110 2e f2 62 3f 8c 50 3c 3f 93 56 c3 3d 52 1a e4 3f
       0.88650787 0.73560405 0.09537997 1.7820532
000120 0e d2 56 bf f3 c4 ef bf a5 97 23 3f 0a 0f b4 bf
       -0.8391427 -1.8731979 0.63903266 -1.406709
000130 e4 43 c6 bf 89 d4 e1 be 0a f3 0e bf 04 34 93 3f
       -1.5489469 -0.44107464 -0.558396 1.1500249
000140 ee e1 ab bf 84 e2 f8 3f 96 03 03 c0 19 94 2b bf
       -1.3428323 1.9444127 -2.0470939 -0.67022854
000150 f5 55 c0 bf ca bd 8b 3f b2 c5 b9 be 16 0d 2a 3f
       -1.5026232 1.0917294 -0.36283642 0.6642622
000160 f9 55 29 3f c6 a5 0e 40 37 8c a3 be 8b f3 14 3f
       0.6614681 2.228868 -0.31942913 0.5818412
000170 8b d2 17 3e c8 b2 f1 bf 48 c5 c6 bf 55 7e c3 3e
       0.1482641 -1.8882685 -1.5528955 0.3818232
000180 8e b3 94 3f a5 6e 8a bd 45 5b bb bd 8a ba c7 3f
       1.1617296 -0.06759385 -0.09148268 1.5603802
000190 3d 26 bd bf fa 51 d0 bf 27 33 93 3f b3 81 e5 3e
       -1.4777294 -1.6275017 1.1499985 0.44825515
0001a0 8c 02 57 3f 8d b0 9a bf 1d 25 ef 3d c4 40 21 bf
       0.8398826 -1.2085129 0.11677001 -0.6298945
0001b0 70 f7 03 bf bf e3 df be d2 13 50 3e e0 77 e0 bd
       -0.51549435 -0.43728444 0.20320061 -0.10960364
0001c0 f0 dc b5 3f 5f e6 f1 3e 15 8a 65 bf e2 ae 1c 3e
       1.420805 0.47246072 -0.8966382 0.15301087
0001d0 7e 7a ca bf 3d 17 a3 3e 35 18 47 3f 32 0d 99 3f
       -1.5818632 0.31853667 0.7777131 1.1957152
0001e0 51 fe af bf f6 5a 5c be a1 2c 6f bf f6 f6 f2 be
       -1.3749486 -0.21519074 -0.93427473 -0.4745404
0001f0 9c 24 b2 3f b1 c3 df bf e0 56 da be 2b 95 89 bf
       1.3917422 -1.7481595 -0.42644405 -1.0748647
000200 7b 96 67 bf ac bb 24 3f b2 3f 15 bd dd 08 80 3f
       -0.9046399 0.64348865 -0.036437698 1.0002705
000210 69 25 44 3f 11 3c e3 3e 66 81 8c 3f a4 09 60 3e
       0.76619583 0.44381765 1.0976989 0.21878678
000220 1b 0f 4a bf 1a 4b 6b bf 00 57 c0 3f 98 9e c0 3f
       -0.789293 -0.9191147 1.502655 1.5048399
000230 ac 1d a9 3f 87 b9 94 bf 42 1f 92 bf d4 9c d4 bf
       1.321218 -1.1619118 -1.1415789 -1.661036
000240 f1 a6 8c 3f ce 70 8e 3f 55 cb 1f 3f 32 67 2c bf
       1.0988446 1.1128175 0.62419635 -0.67344964
000250 d9 a2 bc bf bb 36 08 bf 2e c3 a5 bf 2a 8b cf 3f
       -1.4737197 -0.5320851 -1.2950189 1.6214345
000260 74 8a 80 bf d3 ed 9b 3c dc 16 4d 3f 85 f9 c2 bf
       -1.0042253 0.019034302 0.80113006 -1.5232397
000270 2e e1 b7 bf d9 07 cb 3f ec 83 35 be f9 0d a7 3f
       -1.4365594 1.586177 -0.17726105 1.3051139
000280 1d d9 44 3f 1f 16 89 bf d5 a7 37 bf 13 f4 5d bf
       0.7689379 -1.0709876 -0.71740466 -0.8670055
000290 18 2d d2 be 58 9a 5c 3f af d1 48 bf b1 7a e4 bf
       -0.4105003 0.8617301 -0.7844495 -1.7849942
0002a0 31 d9 f7 3f 4c df 2a 40 53 cc c7 be be 24 cf 3f
       1.9363157 2.669879 -0.39023075 1.6183088
0002b0 e3 bc 93 bf 68 b1 92 bf 8f fe cd 3c f8 b7 0e bf
       -1.1542019 -1.146039 0.025145797 -0.55749464
0002c0 a0 02 ad be df 0d d5 bf 08 ec ee 3e 61 48 30 bf
       -0.33791065 -1.6644858 0.46664453 -0.6886044
0002d0 d2 ff 9f bf ba 48 ca 3f 88 66 af 3f 30 a5 9f 3f
       -1.2499945 1.5803444 1.3703165 1.2472286
0002e0 d2 ab 6e 3f b8 8b ac 3f 65 44 01 c0 78 9a 6c 3f
       0.93230927 1.3480139 -2.0197995 0.924232
0002f0 20 cf 05 bf d2 20 d3 bf b8 37 06 bc 5d cc c2 3f
       -0.5226917 -1.6494391 -0.008191995 1.5218617
000300 7d 41 d8 3f 1e bc 83 bf 70 86 0b 3f 33 cc 16 3f
       1.6894985 -1.0291784 0.5450201 0.58905333
000310 41 87 e0 be 15 fd f0 be f2 fd 97 3f cb e6 eb 3f
       -0.4385319 -0.47068086 1.1874373 1.8429807
000320 20 72 4d bf f4 dc 8e 3f 6b ab 97 3f e4 b8 09 3f
       -0.80252266 1.116118 1.1849188 0.53797746
000330 c9 84 53 3f 51 05 f9 3f 4c 1c 8b 3f a2 e0 11 bf
       0.8262449 1.9454747 1.086801 -0.5698339
000340 e7 64 9e bf 27 71 86 bf e1 2a 88 bf 96 ae 92 3d
       -1.2374543 -1.0503281 -1.0638086 0.07162206
000350 0c db e6 be 41 01 fa bf 8d 41 b8 3f 99 cd 3f 3e
       -0.45088995 -1.9531633 1.4395005 0.18730773
000360 b6 65 ba 3f 67 7e 0c c0 ca aa 47 bf 6a 46 19 3f
       1.456229 -2.195215 -0.7799498 0.5987307
000370 f5 05 8c bf 1c f9 7b bf 36 c7 f9 be f1 bc be bf
       -1.0939318 -0.98426986 -0.48784798 -1.490141
000380 48 dd d1 bf 17 76 14 3f da 26 50 bf 00 7d 06 bd
       -1.6395655 0.5799269 -0.8130928 -0.032834053
000390 4d 09 0b 3f b4 27 97 3f b4 48 dc be a6 a4 39 bf
       0.54311067 1.1808991 -0.43024218 -0.7251686
0003a0 0c a1 88 bf 24 4a 0d 3f 8c 7c a8 3f 03 94 82 3f
       -1.0674148 0.55191255 1.3163009 1.020142
0003b0 9b 43 44 3e 4c 02 3d bf 47 ad d9 3f 69 41 95 3f
       0.19166414 -0.7383163 1.7006005 1.1660587
0003c0 11 86 cc 3e b4 40 aa bd 95 73 a4 3f dd 27 b8 bf
       0.39946035 -0.083131224 1.2847773 -1.4387165
0003d0 34 43 ad be 24 6d 80 3f c3 09 62 3e d2 2c de bf
       -0.33840334 1.0033307 0.22074036 -1.7357428
0003e0 84 20 68 3f ba ea 3b be 5b bc 5d bf fe de 53 3f
       0.90674615 -0.1835126 -0.8661553 0.82762134
0003f0 df 92 9f 3e 2d 74 e9 bf 2d da e1 bf 95 a2 a4 bf
       0.3116674 -1.8238579 -1.7644707 -1.2862116

_weight_0 f4 [32, 16]
000000 c4 5a d4 bf 7c 6c a6 3f 07 b7 2f bf 20 00 8e 3f
       -1.65902 1.3001857 -0.6863865 1.1093788
000010 65 90 f0 3e ee 56 d0 bf c5 49 a1 be ae aa 86 3d
       0.46985164 -1.6276529 -0.31501594 0.06575523
000020 c0 6e 96 3f 90 09 c6 3f d0 1f 8d 3f 43 f5 96 3f
       1.1752548 1.5471668 1.1025333 1.1793598
000030 f3 52 11 3f 70 8b f2 3f a2 de f9 be 84 88 a5 bf
       0.56767195 1.8948803 -0.48802668 -1.2932286
000040 e4 06 24 3f 8f 94 f9 bf a0 de ec 3e 76 5e b2 3f
       0.64073014 -1.9498461 0.462636 1.3935077
000050 01 44 b1 3f b0 86 32 3f b5 4a ff bf 7b fe a9 bf
       1.3848878 0.69736767 -1.9944674 -1.3280786
000060 e4 50 21 be 23 c6 18 3f 6e 0b 04 c0 b4 ed b9 bf
       -0.15753514 0.5967733 -2.0631976 -1.4525666
000070 cd 3a b4 be 77 b4 65 bf af b8 71 3f da ad a9 bf
       -0.3520111 -0.8972849 0.9442243 -1.325618
000080 9c 66 5e 3f 11 92 04 40 a8 4e b1 be ce 4a cf bd
       0.8687532 2.0714152 -0.34630322 -0.1012169
000090 5f b2 32 3f cf 24 fa 3f b5 26 85 bf 05 75 c6 bf
       0.6980342 1.9542483 -1.0402437 -1.5504462
0000a0 60 c3 87 3f 18 57 9e bf 97 22 af 3f 23 b8 89 3f
       1.0606499 -1.2370329 1.3682431 1.0759319
0000b0 b3 ee a2 3f 57 cb 6b 3e b8 6c 41 bf ff 60 51 bd
       1.2729095 0.23026787 -0.75556517 -0.051117893
0000c0 7d 51 bc 3e 9d 75 99 be e3 3a a6 3f d5 f1 d1 3f
       0.3678092 -0.29972544 1.2986721 1.6401926
0000d0 4a 47 83 3f b6 34 c6 3f 2b 71 ed 3f cd 32 23 3f
       1.0256131 1.5484836 1.8550161 0.6374939
0000e0 3f bc c9 bf 50 cc e6 3f 0e a8 9f 3f 25 ad aa 3f
       -1.5760573 1.8031101 1.2473161 1.333409
0000f0 e8 1e a7 3f ad aa fa bf 35 77 ad bf fd 9e 9e bf
       1.3056307 -1.9583336 -1.3552004 -1.2392269
000100 de 8a 28 3f 0e 42 57 bf 50 83 e9 3f 8c bf cc 3f
       0.65836895 -0.84085166 1.8243198 1.5995955
000110 e7 27 51 3f 2c 3d f0 3f ac 85 41 be 54 f9 83 bf
       0.8170151 1.8768668 -0.18898648 -1.0310464
000120 54 40 88 3f ac 77 26 bb ed 50 b5 bf 2c 78 af 3f
       1.0644631 -0.002540092 -1.4165322 1.3708549
000130 32 19 d5 3e 78 82 6c 3f 34 4b 69 3f 9c 74 cf 3e
       0.41620785 0.9238658 0.91130376 0.40518653
000140 8f c5 21 bf 8c 5d 11 bf 05 e8 c7 3e 9c 1d 29 3e
       -0.63192075 -0.56783366 0.39044204 0.16515201
000150 59 44 dc be a8 ee 87 3d 6a f0 0d bf 9b 78 b1 bf
       -0.43020895 0.06637317 -0.5544497 -1.3864931
000160 6a e1 1b bf 2a c2 84 bf 3b 3e 92 3f 20 1c b5 3f
       -0.6089083 -1.0371754 1.1425241 1.4149208
000170 b4 85 22 bf 2d a5 e7 be 9a 7f 91 bf c5 db 40 bf
       -0.63485265 -0.45243207 -1.1367066 -0.7533534
000180 f8 ab 4f 3e 56 36 c2 3f 51 36 9f bf 75 c1 c4 bf
       0.20280445 1.5172832 -1.2438451 -1.5371538
000190 ba d8 bb 3e bb 0c 8f be 8d 3d e4 3e eb f5 46 3e
       0.36688787 -0.279394 0.4457821 0.19429748
0001a0 3e fb 94 bf 97 c2 27 3f 1f f8 98 bf 38 c6 bc 3f
       -1.1639173 0.65531296 -1.195072 1.4747992
0001b0 a6 40 b6 bf 9d d5 4e bf a5 12 aa bf 84 61 f0 bd
       -1.4238479 -0.807947 -1.328694 -0.1173735
0001c0 a8 51 96 3e d8 a2 b7 be 0e 70 83 3f 43 74 e7 3e
       0.29359174 -0.35866427 1.0268571 0.45205888
0001d0 bc 1d 19 3f 4d 36 22 bf 55 54 8e bf 9a e5 10 bf
       0.59810996 -0.63364106 -1.1119486 -0.56600344
0001e0 7f 25 60 bf 98 61 93 3e d2 e7 20 bf 65 1c f1 bf
       -0.87557214 0.28785396 -0.6285373 -1.883679
0001f0 6e f5 9f 3e 1a eb 47 3f 8d fa b0 bf 0d f4 fe 3f
       0.31241935 0.7809311 -1.3826462 1.9918228
000200 3d 38 f0 be 1c 66 98 3f 6a 3c 16 be aa 7a de bf
       -0.46917906 1.1906161 -0.14671484 -1.7381184
000210 eb ba 20 bf 29 4a 99 bf 06 72 f1 3f 6f 61 1d bf
       -0.62785214 -1.1975757 1.8862922 -0.61476797
000220 44 d4 b7 bf fc a5 23 bf 43 67 b3 3f d6 92 92 bf
       -1.4361653 -0.6392515 1.4015888 -1.1451061
000230 49 26 1b bf ba 15 22 3f 28 01 94 3f b2 19 ae bf
       -0.60605294 0.633144 1.1562853 -1.3601592
000240 dd ed b3 be 80 13 8d 3f b0 4a 27 3f c7 69 19 3f
       -0.35142413 1.1021576 0.6534834 0.5992703
000250 25 d2 43 bf d1 5a b2 bf cb f8 73 be 1e 27 42 3f
       -0.7649253 -1.3933965 -0.23825376 0.7584094
000260 13 70 c4 be c6 22 ad 3f 7d 6a 3a 3f 89 04 3d bf
       -0.38366756 1.3526237 0.7281874 -0.73835045
000270 c8 32 11 c0 e3 2b 8b 3f 6e 0b 8f 3c 9b 01 2b 3e
       -2.2687244 1.0872768 0.017461505 0.16699831
000280 c1 0e 0a 3f 7c fc 18 c0 17 3a 26 bf 85 3b ab bf
       0.5392876 -2.3904104 -0.6493239 -1.3377539
000290 c4 dd 7b 3f 7b 37 10 40 ce 4a 0d c0 0e a3 c8 bf
       0.9838526 2.2533863 -2.2076907 -1.567476
0002a0 a1 7f b7 3f 1d 37 f6 3e 0c f1 eb be f0 cd 94 3f
       1.4335824 0.48088923 -0.46082342 1.1625347
0002b0 e1 01 5b bf 52 59 b5 bf 3e 01 be bf 99 b7 55 bf
       -0.8554974 -1.4167883 -1.4844129 -0.8348327
0002c0 18 d2 ec 3f 27 3c aa be 6f bf 3b bf 7d 6c e6 bf
       1.8501616 -0.33249018 -0.7333898 -1.8001858
0002d0 51 6e c7 bf 21 31 7c 3f 67 01 c8 3e 00 50 9b 3e
       -1.5580541 0.98512465 0.3906357 0.30334473
0002e0 36 46 d1 3e 3e b8 ee bd 3f 2c 60 bf 4f c0 d6 bf
       0.4087388 -0.11656235 -0.87567514 -1.6777438
0002f0 3b ed a4 3f 7d 1e 45 bf d6 e9 a4 bf 35 98 cf 3f
       1.2884897 -0.76999646 -1.2883861 1.6218325
000300 93 a0 4c 3f 7e bc 24 be 40 01 29 bd ba fd 90 bd
       0.79932517 -0.16087529 -0.041260958 -0.070796445
000310 8e 5b 8d bf 8d 25 7c bf 90 18 f5 3f 94 d1 03 3f
       -1.1043565 -0.984948 1.9148121 0.51491666
000320 86 8e 89 bf 70 67 c8 3f 11 76 a4 bf bd f0 b3 3f
       -1.074662 1.5656567 -1.2848531 1.4057842
000330 be ac d8 3e 8a 42 b4 3e 50 75 81 bf 4a 4a 12 be
       0.42319292 0.35207015 -1.0113926 -0.14286152
000340 39 41 be 3f 33 e6 9d bf 79 ff 21 bf 6f 24 c4 bf
       1.4863654 -1.2335876 -0.63280445 -1.5323619
000350 ac 8c 7e 3f 9d 30 f6 3f 16 f9 13 c0 ca 48 85 3e
       0.994334 1.9233586 -2.312078 0.26032096
000360 8d f6 8a be 1d b0 92 bf 9d 73 13 bf 13 83 30 3f
       -0.27141228 -1.1459996 -0.57598287 0.68950003
000370 df 4d 8d 3f ea b6 2c 3f 5e 53 5f bf 67 e0 86 be
       1.1039389 0.67466605 -0.87236583 -0.2634308
000380 21 7d 73 3f 35 f1 5d 3f b3 0b 16 bf 96 5a 80 bf
       0.95112807 0.8669618 -0.586116 -1.0027645
000390 c1 f5 d5 3e be 63 39 bf 7c 72 f9 bf 75 ed 4d 3f
       0.41789058 -0.7241782 -1.9488063 0.80440456
0003a0 e8 a8 c1 bf 90 c5 87 be a1 65 49 bf 06 d9 a4 bf
       -1.5129671 -0.26517916 -0.786707 -1.287873
0003b0 e5 79 b4 3e 59 3a 8f 3f dd 08 bf 3f 7d d2 89 3f
       0.35249248 1.1189681 1.492458 1.0767361
0003c0 63 94 a7 3f 04 1f ad be c0 91 f4 3f a6 da 8c bf
       1.3092159 -0.33812726 1.9106979 -1.1004226
0003d0 23 a1 78 3f b6 9b 85 bf 13 fa 23 bf a7 1f 00 bf
       0.97120875 -1.0438144 -0.6405346 -0.500483
0003e0 2c 86 5c bf 99 18 10 3f 8a f6 b5 3f 82 cf b3 bc
       -0.8614223 0.56287533 1.4215863 -0.021949533
0003f0 fe a9 dd 3e 25 25 62 3f 90 46 3b bd c0 e9 be bf
       0.43293756 0.8833793 -0.04572159 -1.4915085

_weight_0 f4 [16, 32]
000000 8e e5 c0 3e 2c 4b 4d 3f b9 4a 52 3f c2 bc 06 c0
       0.37675136 0.8019283 0.8214527 -2.1052709
000010 79 22 d8 bf 9a b2 69 3f f4 b9 eb be a1 e6 83 3f
       -1.688552 0.9128815 -0.46040308 1.0304757
000020 4a 3a 66 bf b9 1c 82 3f a0 6e a8 3f cb 8b 22 bf
       -0.8993269 1.0165015 1.315876 -0.6349456
000030 f8 a0 d1 bf 3f 97 31 3e 9b e6 da bf 48 43 ec 3e
       -1.6377249 0.17342852 -1.7101625 0.46145082
000040 a3 80 92 3e 45 80 da bf eb c9 b4 bf a7 16 38 3f
       0.28613767 -1.7070395 -1.412412 0.71909565
000050 47 5a 9f be c3 a9 ea 3e b3 58 be 3f 27 7d 0a 3f
       -0.31123564 0.45832643 1.4870819 0.5409722
000060 47 40 31 bf bd 05 a1 3f fd 10 a3 3e 0d 13 0c 3f
       -0.69238704 1.2579876 0.318489 0.5471657
000070 d7 3c 59 bf da 16 d4 3f 09 3c 5c 3f 77 a8 b1 bf
       -0.8485846 1.6569474 0.86029106 -1.3879536
000080 58 5b 58 3f eb c6 c8 be 7e cc ce 3f 89 1e 79 bf
       0.8451438 -0.39214262 1.6156156 -0.9731222
000090 94 8e e7 3d 6d 97 cd 3e d1 a9 71 3f ad 45 22 3f
       0.113064915 0.4015459 0.94399744 0.63387567
0000a0 0b 1b 20 3e 3a fa d1 3f 25 4c 87 3f 39 37 c9 bf
       0.15635316 1.6404488 1.0570112 -1.5719978
0000b0 73 f8 e5 bf e8 53 88 3f bb eb 6f bf a9 a5 cc 3f
       -1.7966446 1.0650606 -0.9371907 1.5988055
0000c0 08 21 ab bf 6e 06 71 bf 75 b3 71 3f fa 54 c3 bf
       -1.3369455 -0.94150436 0.94414455 -1.5260308
0000d0 42 c4 76 bf 76 08 8c bf 7b aa ab bf 38 fb 9a bf
       -0.96393216 -1.0940082 -1.3411402 -1.2107916
0000e0 69 30 30 bf c2 85 9b 3e dd 69 e0 3f de cb 67 3f
       -0.6882387 0.30375487 1.7532307 0.9054545
0000f0 2f 78 57 be a8 bf 0c 3f a9 02 f9 3e 3f 71 81 bf
       -0.2104194 0.54979944 0.48634842 -1.0112685
000100 dc 5d 16 bf 21 06 4a bd 31 49 b4 3e 62 0b 19 c0
       -0.5873697 -0.04932225 0.3521209 -2.3913198
000110 51 10 7c bf dc a3 1f 3f d2 7a 30 c0 f8 db 52 bf
       -0.98462397 0.62359405 -2.7574964 -0.82366896
000120 53 6b 04 be 16 41 52 bd 5e 79 ba bf 7a bf 86 bf
       -0.12931566 -0.051331602 -1.4568288 -1.0527184
000130 94 7b c0 3e 9e f7 1c 40 fa 3b ca bf d7 96 dc 3f
       0.37594283 2.4526134 -1.5799553 1.7233533
000140 c3 6e d0 3f b3 37 ea 3f ad c3 8e bd 9b 09 2b bf
       1.6283802 1.8298248 -0.06970916 -0.6681153
000150 37 71 2a be 28 82 27 c0 93 0b 2c bd 92 20 bb bf
       -0.1664475 -2.617319 -0.042003226 -1.4619315
000160 56 7b 9a 3f 04 91 fe bd 3f a9 de be 5e 91 4c 40
       1.2068889 -0.12430003 -0.434885 3.1963725
000170 1d 07 49 3f db ed ad 3f fe ef cb bf 15 9c e3 3d
       0.7852648 1.3588213 -1.5932615 0.11113755
000180 5f f1 e0 3f 95 60 da bf 66 e6 d0 bf 58 08 88 3f
       1.7573661 -1.7060724 -1.6320312 1.0627546
000190 cf 36 a9 bf ec b7 ae bf b1 eb 9c bd bc 07 fc be
       -1.3219851 -1.3649879 -0.07662142 -0.4922465
0001a0 19 71 2b be cf 30 03 3e a1 8f 52 3f a3 6b b9 3f
       -0.16742362 0.12811588 0.8225041 1.4485973
0001b0 0d 39 64 be 1a 94 fe 3e 83 66 94 3f 01 4b 35 3f
       -0.22287388 0.49722368 1.1593784 0.7081757
0001c0 da c0 11 3f 37 e5 98 3e a9 73 65 bf 0b cd 7b bf
       0.56934893 0.29862377 -0.8962961 -0.98359746
0001d0 76 62 bd be c4 43 3b 3e b4 0e a3 3d 4a 1f d4 bf
       -0.36989182 0.1828757 0.07961789 -1.6572049
0001e0 4b 71 1a bf d9 1e 4a 3e 1b eb 49 be 06 ba 0a bf
       -0.6032912 0.1973833 -0.19718592 -0.541901
0001f0 6f 9b c6 be 02 13 8b bf ae c2 2a 3f 36 22 39 3f
       -0.3879046 -1.0865176 0.6670331 0.72317827
000200 b2 db c4 3c f1 57 3e 3f b7 7e 05 bf ce 04 ae 3f
       0.02403054 0.7435294 -0.52146477 1.3595216
000210 51 db 6c 3f 87 68 df 3f 66 ae ce bd 6f 9f af bf
       0.9252215 1.7453774 -0.100918576 -1.372053
000220 15 c6 c7 3f ea 3e 5f bf d3 76 7f bf f3 5b 72 3f
       1.5607325 -0.87205374 -0.99790686 0.94671553
000230 5c 6c af 3f e7 27 37 bf 8b 10 4f 3f e2 73 34 3f
       1.3704944 -0.7154526 0.8088462 0.70489323
000240 90 17 79 3f a0 81 0a be 9c e7 f6 be 9a 03 45 3f
       0.9730158 -0.1352601 -0.4822358 0.7695862
000250 49 2e a0 bf e9 5b 45 3f f0 90 92 bf 62 8a 8d 3f
       -1.2514125 0.7709337 -1.1450481 1.1057856
000260 4a 72 b7 3f 4a ff 9e bf f1 c6 92 bf f9 90 d1 bf
       1.4331753 -1.2421658 -1.1466962 -1.6372367
000270 21 a6 2d 3e b0 d1 76 3f d9 d3 87 bd 09 3c 61 bf
       0.16957904 0.9641371 -0.066322036 -0.8798223
000280 87 49 64 3f 68 a6 94 3f 79 44 b4 3f 65 8d 3f 3f
       0.89174694 1.1613283 1.4083396 0.74825126
000290 e7 52 c8 bf 47 f8 b8 bf 76 7c 80 bf f8 72 8d bf
       -1.56503 -1.4450768 -1.0037982 -1.1050711
0002a0 52 3f ca be e9 f2 e2 3f 4e ee b1 bf a1 e4 84 3f
       -0.39501435 1.773038 -1.390085 1.0382272
0002b0 8c 95 d7 be c3 e2 84 bf 1a 51 d9 3e e1 d2 09 bf
       -0.42106283 -1.0381702 0.42444688 -0.538374
0002c0 a8 a6 d7 3f d7 4d 30 3f 1a 3e ab bf ea 23 9f 3d
       1.6847734 0.68868774 -1.3378327 0.07770522
0002d0 71 6a ca 3f 29 54 ad 3f b5 e9 fc 3d 66 26 24 bf
       1.5813733 1.3541309 0.123492636 -0.6412109
0002e0 23 74 c4 bc c8 55 fd bf 3e 45 09 3f 3d 4f fd 3f
       -0.02398116 -1.9791803 0.5362128 1.9789807
0002f0 b4 76 bc bf d3 15 78 bf 4e 12 36 bf ab b9 cc 3f
       -1.4723725 -0.969083 -0.7112168 1.5994161
000300 50 22 a2 bf 64 e5 04 bf 26 7d 40 be 9b 8c 41 3f
       -1.2666721 -0.5191252 -0.1879774 0.7560517
000310 dd b2 3c bf e0 e7 0f 3f 7b 11 ec 3b ad fd 81 bf
       -0.73710424 0.5621319 0.0072042323 -1.0155541
000320 1e 29 67 3f b2 93 36 be b0 5b 89 3f 9d 40 46 3e
       0.90297115 -0.17829779 1.0731106 0.19360586
000330 56 a2 c1 be 61 a8 06 3c d8 2e c1 3f 55 a7 30 bf
       -0.37819165 0.008218856 1.509242 -0.6900533
000340 c0 c3 de 3e 6c e8 c8 be 6f b8 39 be aa 08 88 3f
       0.4350872 -0.39239824 -0.18136762 1.0627644
000350 0c 42 96 3f c3 fc 44 c0 db f5 d7 be f3 21 99 3f
       1.1738906 -3.0779274 -0.4217976 1.1963485
000360 6b a1 03 bf 9f 00 42 3f 80 65 e3 be f7 e5 6a bf
       -0.5141818 0.757822 -0.44413376 -0.9175715
000370 6d 7c 64 3f 04 c4 5d 3f 77 de 5b bf 18 1a 54 bf
       0.8925236 0.8662722 -0.8588633 -0.82852316
000380 e5 55 c0 bf 30 c7 b9 3f 98 ca c4 3f a7 75 92 bf
       -1.5026213 1.4513912 1.5374327 -1.1442155
000390 51 a0 dc 3f 44 df c1 3e bc 54 a1 3e 0e 7e 4b 3f
       1.7236425 0.3786565 0.3150996 0.7948922
0003a0 fc a0 b0 3f c2 e1 d3 bf 5c 1d 77 bf 63 7f f6 3e
       1.3799129 -1.6553271 -0.96529174 0.48144063
0003b0 cd 26 3c be 8d 44 f3 bf 01 f0 a8 be d5 be 78 bf
       -0.18374176 -1.9005295 -0.32995608 -0.97166187
0003c0 7f 1e 3e 3f 28 a3 99 3f 67 5e 87 3f e2 6a c5 3f
       0.74265283 1.2002916 1.0575684 1.5423243
0003d0 d3 71 05 bf 9f b7 94 bf e3 81 04 bd 32 3e 80 bf
       -0.52126807 -1.1618537 -0.032350432 -1.001898
0003e0 ce 0e a7 3f 93 0b a7 3f 03 a7 18 be 93 3e ef 3f
       1.3051393 1.3050407 -0.1490746 1.8690971
0003f0 1a 13 e3 3e 9a f6 76 3f 38 33 43 bf 41 2e 50 3e
       0.4435051 0.96470034 -0.7625003 0.20330144

_weight_0 f4 [16, 16]
000000 00 63 07 bf 42 d6 72 be 75 a7 3b be 0e 56 aa bf
       -0.52885437 -0.23714545 -0.18325599 -1.3307512
000010 b0 3d a0 3f 5c 51 b7 bb 3e 5b 09 3f 49 97 ff 3e
       1.2518826 -0.0055944156 0.5365485 0.4992011
000020 de d7 cd 3f 56 41 5b bf e9 3a df 3f 4a 41 76 bf
       1.6081502 -0.8564657 1.7439853 -0.96193373
000030 8d a4 1c bf ed 17 ab bf a7 0c 94 bf d2 dc 25 bf
       -0.61188585 -1.3366677 -1.1566361 -0.6479007
000040 01 ae 9c 3f fc 81 18 c0 e0 82 ac bf bf d9 a5 3e
       1.2240602 -2.3829336 -1.347744 0.3239269
000050 70 a8 c6 bf 71 9c 15 40 48 b1 b7 bf 1c 52 dc 3f
       -1.5520153 2.3376734 -1.4350977 1.7212558
000060 97 52 9a be 42 d0 bd 3d 10 18 92 be 04 9f db 3e
       -0.30141136 0.09268238 -0.28533983 0.42894757
000070 c9 f3 85 3f 1e c1 26 be 35 d0 0e 3e 38 8b d5 bf
       1.0465022 -0.16284606 0.13946612 -1.6683111
000080 69 6b a8 bf 9f b4 be 3f 8c a0 12 bf 2e 7e a1 bf
       -1.3157779 1.4898871 -0.57276225 -1.2616632
000090 80 3c 35 bf e2 a2 95 bd 96 4f 3f bf ad 9e 80 3d
       -0.7079544 -0.07306458 -0.74730814 0.06280265
0000a0 27 1d 9b 3f d0 fd 44 bf a4 61 8a 3c 0b 46 a4 3f
       1.2118272 -0.7694979 0.016892262 1.2833875
0000b0 b9 88 28 bf 59 57 c4 be a7 78 70 bf 01 0e 7b 3f
       -0.6583362 -0.3834789 -0.939341 0.98068243
0000c0 8f 26 57 bf b6 85 cb bf 0f 7d 27 bf dd d6 ff 3f
       -0.8404321 -1.590018 -0.654252 1.9987446
0000d0 c9 02 96 3f b6 8a 10 c0 ad 84 16 bf 30 d6 12 be
       1.17196 -2.2584662 -0.587962 -0.14339519
0000e0 4b cc 82 3f 49 3b c4 bf 19 32 9b 3f 3b 60 f0 be
       1.0218595 -1.5330592 1.2124664 -0.46948418
0000f0 86 7c 8b 3f f1 7a 89 3e e1 16 bb 3f 93 7d 8f bf
       1.0897377 0.2685161 1.4616357 -1.1210197
000100 cf 7c 67 3e b0 0e 15 3f d1 0e ae bf c4 ac bb 3f
       0.22606204 0.58225536 -1.3598272 1.4662099
000110 d9 0d 20 bf 46 c7 73 be 46 cc 4e bf cf 74 5e bd
       -0.6252113 -0.23806486 -0.80780447 -0.054310616
000120 3c 12 11 3f 6c b4 be 3e c0 4f 8d bf 21 84 67 3e
       0.5666845 0.37247026 -1.1039963 0.22608997
000130 c4 c7 de 3f c9 64 c9 be bf dd ac 3f ab 83 a0 3f
       1.7404714 -0.39334705 1.3505172 1.2540182
000140 19 d4 05 bf 98 dd bf be 10 ed ef 3f 96 4a a1 3f
       -0.5227676 -0.3747375 1.8744221 1.2600887
000150 52 18 eb bf 68 f9 6a 40 1d 1b 82 be 6a 91 c9 3e
       -1.8366797 3.6714725 -0.2541131 0.39368755
000160 95 fe b3 3f 44 98 8b bf 3b 11 8d be e4 d3 37 bf
       1.4062067 -1.0905843 -0.27552208 -0.71807694
000170 b4 38 e7 3e 1b ee e9 3f db fe 76 bf 81 92 2a bf
       0.4516045 1.8275789 -0.9648263 -0.666298
000180 9d 9d 14 3e 47 a7 5c 3f 33 d9 76 bf 4c 68 97 bf
       0.1451325 0.86192745 -0.9642517 -1.1828704
000190 fc 05 b3 3f fd ba 13 bf d1 62 ae bf 24 0c 0d 3f
       1.3986201 -0.57707196 -1.3623906 0.5509665
0001a0 0c 8b 0a 3f 60 1e a4 bf 9b 75 84 3f b1 e7 90 3d
       0.5411842 -1.282177 1.034839 0.07075442
0001b0 b3 a7 1b bf 81 76 61 3f 17 0e 81 3f 8e 88 d2 3e
       -0.60802764 0.8807145 1.0082425 0.41119808
0001c0 48 14 e3 bf 8c dd e8 bf 2c b6 04 bd 6d cf 9b 3f
       -1.7740564 -1.8192611 -0.032400295 1.2172676
0001d0 f1 04 3c be 1f 38 8b bf dd 05 e4 bf 3f c3 24 3e
       -0.1836126 -1.0876502 -1.7814289 0.16090105
0001e0 f2 5a ad bf 3e 10 c3 bd 1b da ae 3e fd 08 80 bf
       -1.3543379 -0.09524582 0.34150776 -1.0002743
0001f0 5e 58 a2 be e8 50 7c 3f d5 ef 6b 3d 37 57 99 3d
       -0.31708044 0.98560953 0.05760177 0.07487338
000200 5e 73 35 3d 21 7c ca 3f 03 7d ab 3e 24 bd 07 3c
       0.044299476 1.5819131 0.33493814 0.008284841
000210 1a 6e af 3e 75 03 09 40 aa e0 ce 3f 18 39 75 bf
       0.34263688 2.140836 1.6162312 -0.95790243
000220 dc 20 ad bf eb 7e 8c bf 27 a9 c1 bf c2 8a c6 be
       -1.3525653 -1.0976232 -1.5129746 -0.3877774
000230 7a 6e e3 bf 75 c1 17 3f a8 63 b7 bc 64 eb 6d 3f
       -1.776809 0.59279567 -0.022386387 0.929373
000240 34 4b 66 be 07 fb 11 bf 75 91 6b 3f d3 13 af bf
       -0.22489625 -0.5702366 0.92018825 -1.3677925
000250 e9 39 c9 bf 2f 3f 0d 40 ef 58 6d 3f e3 1e d3 bd
       -1.5720798 2.2069814 0.92713827 -0.103086255
000260 56 66 f1 3f 4e 0d 91 3f 15 ae 22 bf 89 f3 a4 bf
       1.8859355 1.1332185 -0.6354688 -1.2886821
000270 e7 74 ab bf d1 63 db 3f 9b 2d ae 3f f9 e6 b0 bf
       -1.3395051 1.7139837 1.3607668 -1.3820487
000280 55 df 70 bf b9 d5 ee be b7 ad 99 3f c4 d6 57 bf
       -0.9409078 -0.46647432 1.2006139 -0.8431208
000290 7b de fc bd 21 91 4d be ae be ad bf 4e b9 d1 bf
       -0.12347122 -0.20074894 -1.3573816 -1.6384676
0002a0 d7 32 88 3e e6 01 01 40 3f 53 4d bf a4 20 ab 3f
       0.26601288 2.0157409 -0.8020515 1.3369336
0002b0 01 d6 b5 bf 1c d8 89 bf d8 be 8d 3e 5b 91 89 3f
       -1.4205934 -1.0769076 0.27684665 1.0747484
0002c0 6a 4c 1d bf ab c1 f8 bf e6 e9 57 bf 77 bf 32 40
       -0.61444724 -1.9434103 -0.84341276 2.792936
0002d0 b3 ac 84 bf b9 ba 72 3f f7 cb 5e 3e 72 31 d6 3e
       -1.0365204 0.94816166 0.21757494 0.418346
0002e0 cd aa 48 bd c8 32 14 be d6 41 23 3f 3b 12 79 3d
       -0.048991013 -0.14472497 0.6377233 0.0608084
0002f0 8d 0b b4 3f ec 92 73 bf b8 ac db 3f 70 07 fb bf
       1.4066025 -0.9514606 1.7162085 -1.9611645
000300 64 ed 34 3f 05 f7 d8 be d6 60 05 3f 53 56 06 bf
       0.7067473 -0.4237596 0.52100885 -0.5247547
000310 61 6a 82 3f 47 cc 21 bf b8 61 6f bf 48 32 dd 3f
       1.0188714 -0.6320233 -0.9350848 1.728097
000320 c2 f2 1f 3f 2c 9b a6 3e 0f c7 de be 8c bb 64 3f
       0.62479794 0.32540262 -0.43511245 0.89348674
000330 25 d8 aa bc 40 6e 79 be 84 e5 e4 be 4b f9 1d c0
       -0.020855019 -0.24358463 -0.44706357 -2.4683406
000340 58 38 94 bf 1a 57 b8 3e 6f af 2f bf 0f 69 9f bf
       -1.1579695 0.36003953 -0.68627065 -1.2453936
000350 43 6a 40 bf 23 56 21 c0 a3 60 6c bf a3 db 5a 3e
       -0.7516214 -2.5208824 -0.92334956 0.21372847
000360 a1 ec 49 bf 57 8f ad be cb 0b 85 3f c5 94 c9 3d
       -0.7887669 -0.33898422 1.0394224 0.09842829
000370 71 88 9a 3e 85 f8 21 c0 c2 f3 b9 bf fd 5d 10 3f
       0.30182222 -2.5307934 -1.4527514 0.56393415
000380 96 fc 9b 3d ee 25 aa bf d1 46 61 bc ec 39 bc bf
       0.07616536 -1.3292825 -0.013749794 -1.4705176
000390 7c df b4 3f 23 ed 0a c0 ee 3d d3 bf 87 f9 87 3e
       1.4130702 -2.1707237 -1.6503274 0.26557562
0003a0 93 5e 84 bf 66 07 64 bf 3b 9e a8 3f 4b 2e 9f bf
       -1.0341362 -0.8907379 1.3173288 -1.2436002
0003b0 ac 9f ec be e4 c3 85 3f 58 4a b2 3f b7 d3 d0 3f
       -0.4621557 1.0450406 1.3928938 1.631461
0003c0 55 6f a1 bf 55 4f 94 be d7 20 fb 3e 9b e6 f3 be
       -1.2612101 -0.28966776 0.49048492 -0.47636876
0003d0 7e 28 93 3f f6 e9 24 3f 9f cc 95 bf 38 68 b4 bf
       1.1496732 0.64419496 -1.170307 -1.4094305
0003e0 f8 5e 14 bf 08 5c e8 3e 9d 56 e2 be e9 ee 6b 3f
       -0.5795741 0.45382714 -0.44206706 0.9216142
0003f0 04 1b 89 3d 8e be 24 3f 50 b8 30 3e 0e 2b 9a bd
       0.06694606 0.64353263 0.1725781 -0.07527743

_weight_0 f4 [16, 16]
000000 5e 7e 1b 40 29 4b ae bf fb 00 b6 3b e6 ea c9 bf
       2.4295878 -1.3616687 0.005554316 -1.577481
000010 10 00 89 bf 16 8b d5 3e ad bb d8 3e 01 0c 74 3e
       -1.0703144 0.41707677 0.42330685 0.23832704
000020 f5 c3 80 bf 18 5e 7c be 47 fd 90 bf 10 78 97 bf
       -1.0059801 -0.24645269 -1.1327294 -1.1833515
000030 e2 af 00 bf e7 0a 09 c0 a9 0b d7 3f a1 83 6c bf
       -0.50268376 -2.1412904 1.6800433 -0.9238835
000040 2f 76 3c 3f 7f 53 f0 bf 9b 66 a9 3f aa b0 a0 3f
       0.73617834 -1.8775481 1.3234438 1.2553914
000050 44 40 a9 3f 71 25 64 bf 5c c3 aa 3e 66 07 a3 3e
       1.3222737 -0.8911963 0.33352172 0.31841582
000060 06 e0 be 3e 97 9c ad 3f 38 15 d6 bf 66 aa c0 bf
       0.3728029 1.3563412 -1.6725225 -1.5052001
000070 e8 63 ed 3d fe b3 d8 3f 7f 14 66 3f 58 73 ab 3f
       0.11591321 1.6929929 0.89875025 1.3394575
000080 39 56 7f 3f 1a e8 34 bf 9d e6 55 be 85 46 e8 3f
       0.9974094 -0.7066666 -0.20888753 1.8146521
000090 80 cc 9b 3f fe 87 00 3f c4 d3 96 bd 8e 44 28 3d
       1.2171783 0.5020751 -0.0736461 0.041081004
0000a0 ef a7 ba 3e e8 60 ff 3e 5f 3f c6 3f 13 41 d0 bf
       0.36456248 0.4987862 1.5488089 -1.6269859
0000b0 45 39 84 bd 82 33 d7 bf ae be 8a 3f 5b f6 04 bf
       -0.06456236 -1.6812594 1.0839441 -0.5193841
0000c0 7f df 43 3e 67 4b be 3e a1 26 8f bf b3 47 82 bf
       0.19128226 0.37166902 -1.1183664 -1.0178131
0000d0 f5 41 2a bf e4 0d 86 bf cf 2d a1 3f 0e 13 f4 3f
       -0.6650689 -1.0472989 1.2592105 1.9068315
0000e0 e8 83 00 40 70 6d 65 bf ea dd e9 be d9 13 eb 3e
       2.008051 -0.89620113 -0.4567712 0.4591358
0000f0 7b 23 20 be 1e 0a 17 be a0 f3 ac bf 16 ab c8 3f
       -0.15638535 -0.14749953 -1.3511848 1.5677211
000100 ca 10 44 3f a7 45 47 3f 0d 80 52 bf ea 4b b1 bf
       0.7658812 0.77840656 -0.8222664 -1.3851292
000110 9c aa bb bf 2c 18 82 bf 2e d1 97 bf be c7 c1 3f
       -1.4661441 -1.0163627 -1.1860712 1.5139081
000120 fe 14 ca bf b2 3b 0d 3f 93 ef f4 3e 6a df bb bf
       -1.5787656 0.5516921 0.4783903 -1.4677556
000130 3a 77 ca bf e7 c0 7d bf c2 65 ae 3f 39 44 e9 bf
       -1.5817635 -0.9912247 1.3624804 -1.8223945
000140 a6 bc 44 3f 1c 7b 0c 3e 9a 99 0f 3f 81 dc 30 3f
       0.76850355 0.13718837 0.5609375 0.6908646
000150 1d d4 94 bf 3d db ea bf d8 72 33 3d 87 9d 74 3e
       -1.1627232 -1.8348156 0.043810695 0.23888217
000160 13 a2 93 3f 1d 7f e5 3f 76 89 84 bf 7d fa 92 bf
       1.1533836 1.7929417 -1.035445 -1.1482693
000170 7d 4e 4f 3f 1d ad cc 3f 4b 3e cc 3f 2e e5 25 3f
       0.8097914 1.599033 1.595651 0.64802825
000180 4d eb 26 be f0 16 f5 bf ea 27 5c 3f 78 07 f2 3e
       -0.16300698 -1.9147625 0.85998404 0.47271323
000190 dc cf ba 3e 61 f1 e4 3f b3 74 ec 3e 59 57 a1 bf
       0.3648671 1.7886163 0.46182784 -1.2604781
0001a0 a6 b9 8e 3e 22 5b a4 3e a2 ef cd be ab c1 8d bf
       0.27876014 0.3210078 -0.40221888 -1.1074728
0001b0 01 40 bb 3e 13 bf a5 3f f9 a0 21 3f 4c 3b c4 be
       0.3657227 1.2948936 0.6313625 -0.3832649
0001c0 a4 79 cf bf a4 23 03 c0 12 41 a3 bc 0d 25 a1 be
       -1.6208997 -2.0490503 -0.019928489 -0.3147358
0001d0 6a 69 7d 3f d3 e0 bb 3f a9 21 c0 3e 77 ed 4c 3e
       0.98988974 1.4677986 0.3752568 0.2001246
0001e0 7a 64 9e 3f 86 cc c1 bf 12 02 15 bf 97 5b bb bf
       1.2374413 -1.5140541 -0.58206284 -1.4637326
0001f0 ce 5e ab bf d1 db 99 bf a6 7f 55 3f 3e fd 82 3f
       -1.3388307 -1.2020208 0.833979 1.0233533
000200 ff cd 38 3e b7 9b ae be 25 59 7c bf b6 a8 b4 3e
       0.18047331 -0.34103176 -0.98573524 0.35284966
000210 55 6c a3 be ee ed f1 3f 97 ab 1f bf 45 a8 d4 3f
       -0.31918588 1.8900735 -0.623712 1.6613852
000220 a4 af 72 be 12 e6 6f 3d c6 fe bb 3f 09 91 43 be
       -0.23699814 0.05856902 1.4687126 -0.19098295
000230 c1 62 52 be a8 ad 6c bf ff fe b7 bf a2 5c cd bf
       -0.20545484 -0.9245248 -1.4374694 -1.6043894
000240 e2 97 e5 3e ea d1 05 40 18 bf 63 3d da 37 b2 bf
       0.4484244 2.0909371 0.055602163 -1.3923295
000250 81 46 01 bf 6e 69 15 bf ad b8 0d bf 27 1a b8 bf
       -0.50498205 -0.58364 -0.5535992 -1.4382981
000260 3a 22 e9 3f 3e e8 02 40 f7 6b b5 be 2e 91 e3 bd
       1.821357 2.045425 -0.35433933 -0.11111675
000270 49 84 d3 3d 7d 34 60 bc 0f 43 31 3f 7c e7 cb bf
       0.10327966 -0.013684389 0.6924295 -1.5930018
000280 3b 67 1c bf c0 bc ba 3f a7 4c e9 3f d4 5c cc bf
       -0.6109502 1.4588852 1.8226517 -1.5965829
000290 6f 13 c8 3c 73 34 ed 3f 43 89 58 3e 6c 03 a7 3f
       0.02442333 1.8531631 0.21146111 1.3047919
0002a0 e9 f4 86 bf ed 81 b4 3e ce 7a cf be 97 1e 7e bf
       -1.0543491 0.35255376 -0.4052338 -0.99265426
0002b0 a4 7d be bd 72 85 00 40 cf dc b6 bf bb ad 0e c0
       -0.09301308 2.0081449 -1.4286135 -2.2293537
0002c0 b4 fe 7b bf 7c 21 0a be 9c 0c 97 bf 1a a8 72 bb
       -0.9843552 -0.13489336 -1.1800723 -0.0037026466
0002d0 b8 6d 8a bf 1b 81 9f 3f 2c 6d 1f 3f d2 a4 2a 3f
       -1.0814734 1.2461275 0.6227596 0.66657746
0002e0 f7 bb ae bf a1 39 cd 3e c7 0a 96 bd af fd 9f bf
       -1.3651112 0.4008303 -0.07326274 -1.2499293
0002f0 2e 96 38 be 34 1f b5 be 0e 97 61 be 59 90 8b 3f
       -0.18026039 -0.3537537 -0.22030279 1.0903426
000300 67 0a e8 be 63 82 b3 3f ab 17 dd bc e2 0d c2 bf
       -0.45320436 1.4024166 -0.026988825 -1.5160487
000310 84 74 99 bf 6d ee 92 3f 21 6a 20 be 44 86 0f 3e
       -1.1988683 1.1479012 -0.15665485 0.14016062
000320 0f 4f a6 bf b0 9d 8c bf 10 66 12 bf df fd 46 bf
       -1.2992877 -1.0985622 -0.57186985 -0.77731127
000330 83 32 78 bf a3 f9 11 3f 99 f2 be 3f 72 54 ff be
       -0.96952075 0.5702154 1.4917785 -0.49869114
000340 95 27 39 bf 5d 46 87 be 22 cc 3f 3f 8e 24 e9 be
       -0.7232602 -0.2642087 0.74920857 -0.45535702
000350 d8 ee bb 3f 63 cf b9 3f 19 09 60 3e 02 a8 de 3e
       1.4682264 1.4516414 0.2187847 0.43487555
000360 64 b3 64 bf 38 61 98 3f 09 1a c3 3d b0 7c 05 3f
       -0.8933623 1.1904669 0.0952645 0.52143383
000370 04 11 8c 3f e4 63 88 3e 91 55 43 3f 51 25 39 bf
       1.0942693 0.2663871 0.7630244 -0.72322565
000380 bc e5 56 bf fc de cb be 86 7b 8a bf 06 59 d4 bf
       -0.83944297 -0.3981856 -1.0818946 -1.6589668
000390 3e 76 e3 bd ab 59 f0 3f 24 06 e3 bf 1a b6 6f 3f
       -0.11106537 1.8777364 -1.7736249 0.9363724
0003a0 99 d7 c3 bf 84 3e 68 bf d5 9c 9a 3f ce 7f 93 bf
       -1.530017 -0.9072039 1.2079111 -1.1523378
0003b0 24 ff ce 3e a0 a8 c7 3f 83 fe 26 bf 55 a1 85 3f
       0.40429032 1.5598335 -0.65232104 1.043986
0003c0 f5 30 b3 3f 0a 25 aa be 9e 2b 05 3e 1c 51 c1 3f
       1.3999316 -0.33231384 0.1300492 1.5102878
0003d0 30 73 63 bf 3d 8d 08 c0 2f e5 98 3f 6d 37 8d bf
       -0.8884764 -2.1336205 1.1944941 -1.103254
0003e0 d6 c0 04 3f 2a df 1a 3f 6d 45 18 bf 6d eb 38 3f
       0.51856744 0.6049677 -0.59480935 0.7223423
0003f0 33 1c db bf 51 4e 1e bf 8a ba 96 bf 42 b5 3a 3f
       -1.7117981 -0.6183825 -1.1775677 0.7293283

_big_w3j f4 [11, 4, 4]
000000 00 00 80 3f 00 00 00 00 00 00 00 00 00 00 00 00
       1.0 0.0 0.0 0.0
000010 00 00 00 00 00 00 00 00 00 00 00 00 00 00 00 00
       0.0 0.0 0.0 0.0
000020 00 00 00 00 00 00 00 00 00 00 00 00 00 00 00 00
       0.0 0.0 0.0 0.0
000030 00 00 00 00 00 00 00 00 00 00 00 00 00 00 00 00
       0.0 0.0 0.0 0.0
000040 00 00 00 00 00 00 00 00 00 00 00 00 00 00 00 00
       0.0 0.0 0.0 0.0
000050 00 00 00 00 3a cd 13 3f 00 00 00 00 00 00 00 00
       0.0 0.57735026 0.0 0.0
000060 00 00 00 00 00 00 00 00 3a cd 13 3f 00 00 00 00
       0.0 0.0 0.57735026 0.0
000070 00 00 00 00 00 00 00 00 00 00 00 00 3a cd 13 3f
       0.0 0.0 0.0 0.57735026
000080 00 00 00 00 00 00 00 00 00 00 00 00 00 00 00 00
       0.0 0.0 0.0 0.0
000090 00 00 00 00 00 00 00 00 00 00 00 00 00 00 00 00
       0.0 0.0 0.0 0.0
0000a0 00 00 00 00 00 00 00 00 00 00 00 00 f3 04 35 3f
       0.0 0.0 0.0 0.70710677
0000b0 00 00 00 00 00 00 00 00 f3 04 35 bf 00 00 00 00
       0.0 0.0 -0.70710677 0.0
0000c0 00 00 00 00 00 00 00 00 00 00 00 00 00 00 00 00
       0.0 0.0 0.0 0.0
0000d0 00 00 00 00 00 00 00 00 00 00 00 00 f3 04 35 bf
       0.0 0.0 0.0 -0.70710677
0000e0 00 00 00 00 00 00 00 00 00 00 00 00 00 00 00 00
       0.0 0.0 0.0 0.0
0000f0 00 00 00 00 f3 04 35 3f 00 00 00 00 00 00 00 00
       0.0 0.70710677 0.0 0.0
000100 00 00 00 00 00 00 00 00 00 00 00 00 00 00 00 00
       0.0 0.0 0.0 0.0
000110 00 00 00 00 00 00 00 00 f3 04 35 3f 00 00 00 00
       0.0 0.0 0.70710677 0.0
000120 00 00 00 00 f3 04 35 bf 00 00 00 00 00 00 00 00
       0.0 -0.70710677 0.0 0.0
000130 00 00 00 00 00 00 00 00 00 00 00 00 00 00 00 00
       0.0 0.0 0.0 0.0
000140 00 00 00 00 ff ff 7f 3f 00 00 00 00 00 00 00 00
       0.0 0.99999994 0.0 0.0
000150 00 00 00 00 00 00 00 00 00 00 00 00 00 00 00 00
       0.0 0.0 0.0 0.0
000160 00 00 00 00 00 00 00 00 00 00 00 00 00 00 00 00
       0.0 0.0 0.0 0.0
000170 00 00 00 00 00 00 00 00 00 00 00 00 00 00 00 00
       0.0 0.0 0.0 0.0
000180 00 00 00 00 00 00 00 00 ff ff 7f 3f 00 00 00 00
       0.0 0.0 0.99999994 0.0
000190 00 00 00 00 00 00 00 00 00 00 00 00 00 00 00 00
       0.0 0.0 0.0 0.0
0001a0 00 00 00 00 00 00 00 00 00 00 00 00 00 00 00 00
       0.0 0.0 0.0 0.0
0001b0 00 00 00 00 00 00 00 00 00 00 00 00 00 00 00 00
       0.0 0.0 0.0 0.0
0001c0 00 00 00 00 00 00 00 00 00 00 00 00 ff ff 7f 3f
       0.0 0.0 0.0 0.99999994
0001d0 00 00 00 00 00 00 00 00 00 00 00 00 00 00 00 00
       0.0 0.0 0.0 0.0
0001e0 00 00 00 00 00 00 00 00 00 00 00 00 00 00 00 00
       0.0 0.0 0.0 0.0
0001f0 00 00 00 00 00 00 00 00 00 00 00 00 00 00 00 00
       0.0 0.0 0.0 0.0
000200 00 00 00 00 00 00 00 00 00 00 00 00 00 00 00 00
       0.0 0.0 0.0 0.0
000210 ff ff 7f 3f 00 00 00 00 00 00 00 00 00 00 00 00
       0.99999994 0.0 0.0 0.0
000220 00 00 00 00 00 00 00 00 00 00 00 00 00 00 00 00
       0.0 0.0 0.0 0.0
000230 00 00 00 00 00 00 00 00 00 00 00 00 00 00 00 00
       0.0 0.0 0.0 0.0
000240 00 00 00 00 00 00 00 00 00 00 00 00 00 00 00 00
       0.0 0.0 0.0 0.0
000250 00 00 00 00 00 00 00 00 00 00 00 00 00 00 00 00
       0.0 0.0 0.0 0.0
000260 ff ff 7f 3f 00 00 00 00 00 00 00 00 00 00 00 00
       0.99999994 0.0 0.0 0.0
000270 00 00 00 00 00 00 00 00 00 00 00 00 00 00 00 00
       0.0 0.0 0.0 0.0
000280 00 00 00 00 00 00 00 00 00 00 00 00 00 00 00 00
       0.0 0.0 0.0 0.0
000290 00 00 00 00 00 00 00 00 00 00 00 00 00 00 00 00
       0.0 0.0 0.0 0.0
0002a0 00 00 00 00 00 00 00 00 00 00 00 00 00 00 00 00
       0.0 0.0 0.0 0.0
0002b0 ff ff 7f 3f 00 00 00 00 00 00 00 00 00 00 00 00
       0.99999994 0.0 0.0 0.0

_big_w3j f4 [11, 7, 4]
000000 00 00 80 3f 00 00 00 00 00 00 00 00 00 00 00 00
       1.0 0.0 0.0 0.0
000010 00 00 00 00 00 00 00 00 00 00 00 00 00 00 00 00
       0.0 0.0 0.0 0.0
000020 00 00 00 00 00 00 00 00 00 00 00 00 00 00 00 00
       0.0 0.0 0.0 0.0
000030 00 00 00 00 00 00 00 00 00 00 00 00 00 00 00 00
       0.0 0.0 0.0 0.0
000040 00 00 00 00 00 00 00 00 00 00 00 00 00 00 00 00
       0.0 0.0 0.0 0.0
000050 00 00 00 00 00 00 00 00 00 00 00 00 00 00 00 00
       0.0 0.0 0.0 0.0
000060 00 00 00 00 00 00 00 00 00 00 00 00 00 00 00 00
       0.0 0.0 0.0 0.0
000070 00 00 00 00 00 00 00 00 00 00 00 00 00 00 00 00
       0.0 0.0 0.0 0.0
000080 00 00 00 00 00 00 00 00 00 00 00 00 00 00 00 00
       0.0 0.0 0.0 0.0
000090 00 00 00 00 00 00 00 00 00 00 00 00 00 00 00 00
       0.0 0.0 0.0 0.0
0000a0 00 00 00 00 00 00 00 00 00 00 00 00 00 00 00 00
       0.0 0.0 0.0 0.0
0000b0 00 00 00 00 3a cd 13 3f 00 00 00 00 00 00 00 00
       0.0 0.57735026 0.0 0.0
0000c0 00 00 00 00 00 00 00 00 3a cd 13 3f 00 00 00 00
       0.0 0.0 0.57735026 0.0
0000d0 00 00 00 00 00 00 00 00 00 00 00 00 3a cd 13 3f
       0.0 0.0 0.0 0.57735026
0000e0 00 00 00 00 ff ff 7f 3f 00 00 00 00 00 00 00 00
       0.0 0.99999994 0.0 0.0
0000f0 00 00 00 00 00 00 00 00 00 00 00 00 00 00 00 00
       0.0 0.0 0.0 0.0
000100 00 00 00 00 00 00 00 00 00 00 00 00 00 00 00 00
       0.0 0.0 0.0 0.0
000110 00 00 00 00 00 00 00 00 00 00 00 00 00 00 00 00
       0.0 0.0 0.0 0.0
000120 00 00 00 00 00 00 00 00 00 00 00 00 00 00 00 00
       0.0 0.0 0.0 0.0
000130 00 00 00 00 00 00 00 00 00 00 00 00 00 00 00 00
       0.0 0.0 0.0 0.0
000140 00 00 00 00 00 00 00 00 00 00 00 00 00 00 00 00
       0.0 0.0 0.0 0.0
000150 00 00 00 00 00 00 00 00 ff ff 7f 3f 00 00 00 00
       0.0 0.0 0.99999994 0.0
000160 00 00 00 00 00 00 00 00 00 00 00 00 00 00 00 00
       0.0 0.0 0.0 0.0
000170 00 00 00 00 00 00 00 00 00 00 00 00 00 00 00 00
       0.0 0.0 0.0 0.0
000180 00 00 00 00 00 00 00 00 00 00 00 00 00 00 00 00
       0.0 0.0 0.0 0.0
000190 00 00 00 00 00 00 00 00 00 00 00 00 00 00 00 00
       0.0 0.0 0.0 0.0
0001a0 00 00 00 00 00 00 00 00 00 00 00 00 00 00 00 00
       0.0 0.0 0.0 0.0
0001b0 00 00 00 00 00 00 00 00 00 00 00 00 00 00 00 00
       0.0 0.0 0.0 0.0
0001c0 00 00 00 00 00 00 00 00 00 00 00 00 ff ff 7f 3f
       0.0 0.0 0.0 0.99999994
0001d0 00 00 00 00 00 00 00 00 00 00 00 00 00 00 00 00
       0.0 0.0 0.0 0.0
0001e0 00 00 00 00 00 00 00 00 00 00 00 00 00 00 00 00
       0.0 0.0 0.0 0.0
0001f0 00 00 00 00 00 00 00 00 00 00 00 00 00 00 00 00
       0.0 0.0 0.0 0.0
000200 00 00 00 00 00 00 00 00 00 00 00 00 00 00 00 00
       0.0 0.0 0.0 0.0
000210 00 00 00 00 00 00 00 00 00 00 00 00 00 00 00 00
       0.0 0.0 0.0 0.0
000220 00 00 00 00 00 00 00 00 00 00 00 00 00 00 00 00
       0.0 0.0 0.0 0.0
000230 00 00 00 00 00 00 00 00 00 00 00 00 00 00 00 00
       0.0 0.0 0.0 0.0
000240 00 00 00 00 00 00 00 00 00 00 00 00 00 00 00 00
       0.0 0.0 0.0 0.0
000250 00 00 00 00 00 00 00 00 00 00 00 00 f3 04 35 3f
       0.0 0.0 0.0 0.70710677
000260 00 00 00 00 00 00 00 00 f3 04 35 bf 00 00 00 00
       0.0 0.0 -0.70710677 0.0
000270 00 00 00 00 00 00 00 00 00 00 00 00 00 00 00 00
       0.0 0.0 0.0 0.0
000280 00 00 00 00 00 00 00 00 00 00 00 00 00 00 00 00
       0.0 0.0 0.0 0.0
000290 00 00 00 00 00 00 00 00 00 00 00 00 00 00 00 00
       0.0 0.0 0.0 0.0
0002a0 00 00 00 00 00 00 00 00 00 00 00 00 00 00 00 00
       0.0 0.0 0.0 0.0
0002b0 00 00 00 00 00 00 00 00 00 00 00 00 f3 04 35 bf
       0.0 0.0 0.0 -0.70710677
0002c0 00 00 00 00 00 00 00 00 00 00 00 00 00 00 00 00
       0.0 0.0 0.0 0.0
0002d0 00 00 00 00 f3 04 35 3f 00 00 00 00 00 00 00 00
       0.0 0.70710677 0.0 0.0
0002e0 00 00 00 00 00 00 00 00 00 00 00 00 00 00 00 00
       0.0 0.0 0.0 0.0
0002f0 00 00 00 00 00 00 00 00 00 00 00 00 00 00 00 00
       0.0 0.0 0.0 0.0
000300 00 00 00 00 00 00 00 00 00 00 00 00 00 00 00 00
       0.0 0.0 0.0 0.0
000310 00 00 00 00 00 00 00 00 00 00 00 00 00 00 00 00
       0.0 0.0 0.0 0.0
000320 00 00 00 00 00 00 00 00 f3 04 35 3f 00 00 00 00
       0.0 0.0 0.70710677 0.0
000330 00 00 00 00 f3 04 35 bf 00 00 00 00 00 00 00 00
       0.0 -0.70710677 0.0 0.0
000340 00 00 00 00 00 00 00 00 00 00 00 00 00 00 00 00
       0.0 0.0 0.0 0.0
000350 00 00 00 00 00 00 00 00 00 00 00 00 00 00 00 00
       0.0 0.0 0.0 0.0
000360 00 00 00 00 00 00 00 00 00 00 00 00 00 00 00 00
       0.0 0.0 0.0 0.0
000370 00 00 00 00 00 00 00 00 00 00 00 00 00 00 00 00
       0.0 0.0 0.0 0.0
000380 00 00 00 00 00 00 00 00 00 00 00 00 00 00 00 00
       0.0 0.0 0.0 0.0
000390 00 00 00 00 00 00 00 00 00 00 00 00 00 00 00 00
       0.0 0.0 0.0 0.0
0003a0 00 00 00 00 00 00 00 00 00 00 00 00 00 00 00 00
       0.0 0.0 0.0 0.0
0003b0 00 00 00 00 00 00 00 00 00 00 00 00 00 00 00 00
       0.0 0.0 0.0 0.0
0003c0 ff ff 7f 3f 00 00 00 00 00 00 00 00 00 00 00 00
       0.99999994 0.0 0.0 0.0
0003d0 00 00 00 00 00 00 00 00 00 00 00 00 00 00 00 00
       0.0 0.0 0.0 0.0
0003e0 00 00 00 00 00 00 00 00 00 00 00 00 00 00 00 00
       0.0 0.0 0.0 0.0
0003f0 00 00 00 00 00 00 00 00 00 00 00 00 00 00 00 00
       0.0 0.0 0.0 0.0
