example/calculators/sw_allegro/BP_bilayer/intralayer_bp.pth (torch, 449494 bytes, 13 tensors)

_mean f4 [8]
00000000: 24aa d23d c943 a13d a86a be3d 9998 a93d
00000010: 7caf b93d 5273 ac3d d58f b73d eed9 ad3d
0.10286358 0.07874257 0.09297687 0.08281059 0.09066674 0.08420433 0.08962981 0.084888324

_inv_std f4 [8]
00000000: d528 8e41 1044 d440 24de a940 beaf 8b40
00000010: e886 7840 55a2 5e40 cc9e 4d40 9c7c 3e40
17.769938 6.6333084 5.308367 4.365203 3.883234 3.478658 3.2128172 2.9763556

bessel_weights f4 [8]
00000000: 4606 4140 06a2 c440 c14a 1541 48bb 4941
00000010: 9dc1 7b41 a3f5 9641 01b4 b041 ba11 c941
3.016008 6.1447783 9.33075 12.608223 15.734769 18.86994 22.087893 25.133656

per_layer_cutoffs f4 [2]
00000000: 0000 c040 0000 c040
6.0 6.0

_weight_0 f4 [10, 128]
00000000: 9d17 413f ffc6 2a3f 26be 86bf ff5a fcbe
00000010: ea6b cdbf c126 643f 0229 c03f e478 0e3f
00000020: f433 99bf 0196 643f 96ae b23f dc38 a9be
00000030: 52bb 8bbe bcdc 0f3f cb46 6b3e 63fc 0ebf
00000040: 1b56 d2bf afde a2bf 514e e13d 3a2a 21be
00000050: a571 af3f 012f e33c 0975 0abf d48c d3bf
00000060: 67aa c4bf 59cf 333f 9b6c c43f 127c 8cbc
00000070: 473d c7bf 72bd 113f 2912 bb3f 987a 92bf
00000080: 5bb6 d7be 59e4 233e ff57 7abf 5c3f cabf
00000090: f5c9 423f 4fcb b5bf cfcb ddbe b1cc 6ebf
000000a0: 6b69 a73f df83 a23e 5c3a 4e3f 0fba 97bf
000000b0: 7d8f b63f ff10 063e 89ed 6dbf 3c27 46be
000000c0: 90bd 95bf 2c05 b4bd bd4e 753f 5908 3fbf
000000d0: d409 bb3f 314b 073f 3e91 cdbe 2f44 0a3f
000000e0: d910 8dbe 047e d5be d820 89bf 2f25 6b3f
000000f0: 9bad 8c3f a7c2 103f 7c17 743f a325 dc3f
00000100: b54b cb3f ada5 d5bf 9567 ef3e 0848 dabc
00000110: 6f6c 0a3f 7155 aebe 3c72 073f abfa cdbf
00000120: ec5c 483f 2462 c03f 0a27 99be 4fa8 a1bf
00000130: 2f4f abbf cc20 b2be fcfa 3bbd f727 fc3d
00000140: fb6b 463e 26d8 a93f dc0f 9bbe 8702 fe3e
00000150: 1b96 72bf 03cc d53f 6686 243f 203c 79be
00000160: 0e50 913f 594c 193f 999d 833e 67a4 05bf
00000170: 5c3a 5f3e 8471 ae3b b4c4 76bf 70f1 123d
00000180: 14db bd3e fecd 7cbf 04cd 193e 673e 0abf
00000190: 41df b6bf 93c9 82bf a6d7 b0bf c985 d23e
000001a0: add6 7f3f 901c c13f c10a cf3f 1112 2e3f
000001b0: 73b3 403f 11b4 7dbe 71a3 b93f 80d2 38bf
000001c0: 766e f3be af2f 2abf a94f 94bf 913d a3bf
000001d0: 5033 87be 3fa8 a53f 718a 67bf fa16 c0bf
000001e0: 73d1 c8be 3fa5 c13f ec73 953e 179b e4bd
000001f0: d7f9 edbe 79b4 bf3f 40d7 cbbf f777 723f
00000200: d85c 043f 56a2 883f 4c4d 7cbf 184b 05bf
00000210: a9ab 36bf 2f06 d23f c85e 61be 69ab d4bf
00000220: 9248 3e3f 4c66 a03e c040 483e 7eca 90bf
00000230: 7646 cebf df15 c43f fc15 a6bf a762 a1be
00000240: b998 b4be 6967 6e3f 34d4 b8bf 3e25 87bf
00000250: 42e0 7cbf 4ba6 67bf abf7 763f 9fc8 8c3f
00000260: 8e7d 573f 30c8 b23f 967e 94bf 1daa 133b
00000270: ac7e b4bf a6de 48bd 87fc b6bf d347 d5bf
00000280: 5516 903f df89 40bf 6435 03be b318 f8be
00000290: 6c81 afbf 64e6 2fbe 24cd 833e 7977 af3f
000002a0: 3341 3bbf ae0e d13f eab3 4cbf 7750 8c3f
000002b0: 2061 bd3f 446d 1f3e e648 10bf 64bb 993f
000002c0: beba e5be dadb 3fbf b4de 1cbf e8ab b0bf
000002d0: 281d 34be 6368 b4bf 3f98 843f c3a5 d5bf
000002e0: 8b21 9fbf c26b a83e 677a 913f 956f c83f
000002f0: 5916 acbf 7897 b23f 2f45 923f d9c8 92bf
00000300: 34f0 2d3f 583e f8be d73a 123f 39b2 b4bf
00000310: 655d 85bf f923 8dbf 1b91 95be 14e9 a0bd
00000320: 2074 3dbd 2f95 97bf 9e2a 5e3f cca0 7e3f
00000330: 0d7f b5bf 5980 cfbf eea4 c8be c0d2 d23e
00000340: e3df abbf 7a84 0cbe e79d e03d 8b2b a9bf
00000350: 5b24 cc3f fb4f 9c3f e085 a63f 9a9f 35bf
00000360: 02e1 9ebf a722 4b3e 6e1d 793f e029 563f
00000370: eccd 8fbf 37e0 9e3f d7ea 45bf a95b 95be
00000380: 9372 fcbe 45ef 5c3f 8e3b e3bf 5eb4 88bf
00000390: ef00 4abe e798 9a3f 8a12 d9be 466c 8c3f
000003a0: c955 c33f aef6 66ba 76a9 9fbf 5e25 f23b
000003b0: a05a 143f 367b a4be d819 d6bf b096 783f
000003c0: 7d75 42bf ec5e a6bf d997 623f 11f7 f33e
000003d0: 01ec ac3f 732f e9be f4c3 833f 2cd5 adbe
000003e0: a433 89bf 5f6a c53f 6406 ca3f efb9 9d3f
000003f0: 15fd e7be d260 47bf 4a8e c13e af6f 563f
0.75426656 0.66709894 -1.0526779 -0.49288175 -1.6048558 0.89121634 1.5012515 0.55653214
-1.196898 0.8929139 1.3959529 -0.33051193 -0.27291352 0.5619619 0.22976224 -0.5585386
-1.6432527 -1.2724208 0.11001266 -0.15738764 1.3706557 0.027732374 -0.5408483 -1.6527352
-1.5364503 0.7023826 1.5345644 -0.017149005 -1.5565575 0.56929696 1.4614917 -1.1443663
-0.42131314 0.16005076 -0.9779052 -1.5800586 0.7608941 -1.420267 -0.43319556 -0.93281084
1.3079046 0.31741235 0.805578 -1.1853656 1.4262539 0.13092421 -0.92940575 -0.19350904
-1.1698475 -0.08790049 0.9582327 -0.7462211 1.4612374 0.5284911 -0.40149873 0.5401029
-0.27551916 -0.41697705 -1.0713148 0.9185361 1.099048 0.56547016 0.95348334 1.7198986
1.5882479 -1.6691185 0.46758714 -0.026645675 0.54071707 -0.34049562 0.5290868 -1.6092123
0.7826679 1.502995 -0.29912597 -1.2629489 -1.338354 -0.34790647 -0.045893654 0.1231231
0.19377129 1.3269088 -0.30285537 0.49611303 -0.9476029 1.6702884 0.64267576 -0.24339342
1.1352556 0.5988212 0.25706175 -0.52203983 0.21799606 0.0053235907 -0.96393895 0.035874784
0.37081206 -0.9875182 0.15019614 -0.5400147 -1.4286882 -1.0217766 -1.3815811 0.41117695
0.99936944 1.5086842 1.6175157 0.6799632 0.7527382 -0.24775721 1.4503003 -0.721962
-0.47545213 -0.6647901 -1.158681 -1.2753164 -0.26406336 1.294197 -0.9044562 -1.5007012
-0.39222297 1.5128554 0.29190004 -0.111623935 -0.46479675 1.4976951 -1.5925064 0.947143
0.5170417 1.0674541 -0.98555446 -0.5206771 -0.7135568 1.6408137 -0.22008812 -1.661481
0.74329484 0.31328046 0.1955595 -1.1311796 -1.6115253 1.5319175 -1.2975459 -0.31520578
-0.35272768 0.9312654 -1.4439759 -1.055824 -0.9877969 -0.9048812 0.9647166 1.0998725
0.84175956 1.3967342 -1.1601131 0.0022531815 -1.4101157 -0.04904046 -1.4295815 -1.6662544
1.1256815 -0.75210375 -0.12813336 -0.48456344 -1.3711371 -0.17177731 0.25742447 1.3708335
-0.7314636 1.6332605 -0.7996203 1.0962056 1.4795265 0.15569025 -0.56361234 1.2010312
-0.44869035 -0.7494484 -0.6127732 -1.3802462 -0.17589247 -1.4094356 1.0358962 -1.6691211
-1.2432112 0.32894713 1.1365479 1.5659052 -1.344432 1.3952475 1.1427363 -1.1467544
0.67944646 -0.48485065 0.5712103 -1.4116889 -1.0419127 -1.1026603 -0.2921227 -0.07856956
-0.046253324 -1.1842402 0.8678378 0.99464107 -1.4179398 -1.6211044 -0.3918833 0.41176414
-1.34277 -0.13722411 0.109676175 -1.3216413 1.5948595 1.2211908 1.3009605 -0.7094666
-1.2412417 0.19837438 0.9731053 0.83657646 -1.1234717 1.2412175 -0.7731146 -0.29171494
-0.49306163 0.86302596 -1.775255 -1.0680044 -0.19726919 1.2077912 -0.42396957 1.0970542
1.5260555 -0.0008810562 -1.247359 0.0073897084 0.5795078 -0.32125252 -1.6726637 0.9710493
-0.7596052 -1.2997718 0.8851295 0.47649434 1.3509523 -0.45544013 1.0294175 -0.339517
-1.0718884 1.5423087 1.57832 1.2322367 -0.45310274 -0.7788211 0.3780387 0.83764166

_weight_1 f4 [128, 128]
00000000: 6d01 fdbe 6e5f 513f b23c ebbe 4299 b0bf
00000010: de48 1fbf 7196 9bbe 4e36 b23d ab85 df3e
00000020: e0f0 b7bf 6d44 6dbf 2674 31bf a643 c03e
00000030: ac4e 8bbf 2037 b43f bcda 44bf b1aa cc3f
00000040: 4b47 e53e 2ca6 463f b266 f3be 83cc 393f
00000050: 7fa7 4cbf c90f 233e 35b6 8d3f d1a8 01be
00000060: 2983 5cbd de00 8f3e 080f 80bf e60b a8bf
00000070: 13c7 84be 6ff6 393e d6c1 b33f 976f f0bc
00000080: 5fcb 99be 21ee c83e 54d1 d43e 069e 22be
00000090: fc07 353f 0f39 d73f ef72 4bbf 2491 52bf
000000a0: bccf cdbd 4a70 d63f 4634 2a3f 2889 c6bf
000000b0: 6c73 a43f 7fbf b63f 8e44 c33f f27c 1f3f
000000c0: f7cf c8bf c883 843e 76a9 c8bc 310e 7abf
000000d0: 5570 95bf 67ee 1cbe d0f5 bd3f cdff 063f
000000e0: 4abe ff3d 4229 2e3f 092a c4bf 2cdd 613f
000000f0: dac1 e03e 23eb 7ebf 24d2 c1bf e1cc 92bf
00000100: 2c45 063f ade9 093f d96c b43e 30dc b4be
00000110: c58f 413f b314 8dbf edf5 5f3f 9b0a 62bf
00000120: e80e 69bf 3792 a9bf a57e 183f be5a 6ebf
00000130: 819b 893f 9791 653f 3cca 05be 0093 6a3f
00000140: 354c 7e3f 52b8 153f e4e9 abbf c47a c7be
00000150: 321a a5be 2fe8 673f 691e 18bf 8560 ca3e
00000160: d948 193f 990d 903f 7cf3 dc3f 5e2f c5be
00000170: fa06 aabf 909e b5bf e043 ccbe 625d 7f3f
00000180: 3202 94be 2cdd b4bf 2b89 97bf d00e 78bf
00000190: 1992 7cbf b02c 63bd 4068 3fbe fed6 6fbf
000001a0: 675c a1be b963 78bf 689f 99bd 7c01 423f
000001b0: 8f58 0dbe 8f59 c2be 9b36 cf3e 0b5f 8f3f
000001c0: dcba be3f faa8 45bf 7034 cebf 51ec ce3e
000001d0: 27a1 3c3f 91ea 4a3e c99c d13f c3d4 643f
000001e0: 7aba 113e 7461 903f 089a 983f f024 6bbf
000001f0: 7587 a4bf ef74 a1bd e94d 0fbf 71fb 96bf
00000200: 43e6 94bf 5906 983f d099 34bf adb8 74bf
00000210: ca45 8c3f 9bd9 203e c9c2 af3e e8b2 0fbf
00000220: 4af0 cd3e d713 913f eb66 97bf 57a7 abbe
00000230: ab97 b03d d0f2 ba3f bdaf b53f 4818 983f
00000240: dc3b 26bf 9c47 e73c dfa4 4fbd c133 98bf
00000250: ee00 a1bf b95b b3be c045 70be 355a 1c3f
00000260: 7017 c7bf 6b90 72bf 45b1 a73f f3ad a63e
00000270: 3131 9dbf 9584 553f 1e24 2cbf 99d5 7cbf
00000280: 2d9c 4ebf cf42 66bf 94c9 75bf 8067 9b3e
00000290: cb53 533f cc34 6d3f 5636 e23f 9d9b b43f
000002a0: 8fdb 6bbf 7c7c b93f 9511 ccbe a74b 773f
000002b0: dcc8 4dbf 58d0 bb3f 5841 2bbe 1cb3 143f
000002c0: ee75 bd3f 517c c0be 7b3f 2d3f bdd9 f83e
000002d0: f1af 25bf 073a 243d 3f3c bd3f 4b6d b93e
000002e0: 6b92 9b3f 3d54 543f 0e49 523f 2c39 36bf
000002f0: 6b79 c3be 0218 873f e23e cb3e cc5f 623f
00000300: 25d7 a63f 6d2e 313f 94b9 173f fd7e 35bf
00000310: 2b0a 143f c650 e8bc b5b8 993f 0457 2d3f
00000320: 8e2d 85bf ebe6 893f 13a4 a3be c53b 313f
00000330: 1f10 44bf 5b61 c0bf 0dbb 3a3f d4b5 5f3f
00000340: aa81 a93f d325 923f 2dd0 473f e524 713f
00000350: b639 e13e 7053 4bbf ca03 993e 1990 adbf
00000360: 426b 81bf ae80 ca3f 6c81 253f c8b5 293f
00000370: d1e3 3bbe bff9 d8bf 03df 01bf cf0f 1abf
00000380: 57f4 27bf a8b4 b23e 4a68 8ebf 3d42 70bf
00000390: 16d3 a7be 4d71 b5bf 9785 a2be 2962 13bd
000003a0: 04e1 b7bd 9a6a 24bf b629 e8be b4d5 a53f
000003b0: a135 7e3f 57e2 d53e d672 9bbf 49a6 8cbf
000003c0: 036f 4a3f 0458 553d 85c0 87bd b6a8 0cbf
000003d0: ea7f a0bf 1b10 75bf a4be 863f ab09 a53f
000003e0: a0c9 7a3f e809 8abf b855 0e3b bc9e b8bf
000003f0: 84ae 81bf c1cc 9cbf 8e31 053f 3e6a cbbf
-0.4941515 0.8178624 -0.45944744 -1.379677 -0.6222056 -0.30388215 0.08701764 0.43656668
-1.4370384 -0.92682534 -0.69317853 0.37551612 -1.0883384 1.4079323 -0.7689626 1.5989591
0.44780955 0.7759731 -0.47539288 0.72577685 -0.7994308 0.1592399 1.107123 -0.12662055
-0.05383602 0.2793035 -1.0004587 -1.3128631 -0.25933132 0.18160413 1.4043529 -0.029350085
-0.30037972 0.39244178 0.41565955 -0.15880594 0.7071531 1.6814288 -0.7947225 -0.82252717
-0.10049388 1.6753018 0.6648601 -1.5510607 1.2847724 1.427719 1.5255296 0.62300026
-1.5688466 0.2588179 -0.024494868 -0.97677904 -1.1674906 -0.15325318 1.4840641 0.5273407
0.12487467 0.68031704 -1.5325328 0.88228106 0.43897897 -0.9957754 -1.5142255 -1.1468774
0.524493 0.53872186 0.35239294 -0.3532424 0.7561 -1.1021942 0.8748463 -0.8829743
-0.9103837 -1.3247746 0.59568244 -0.9310721 1.0750581 0.8967528 -0.13065428 0.91630554
0.9933503 0.58484375 -1.3430753 -0.3896085 -0.32246548 0.9058866 -0.594214 0.39526764
0.5987678 1.125415 1.7261806 -0.385127 -1.3283379 -1.4189014 -0.39895535 0.99751866
-0.28907925 -1.4129996 -1.1838735 -0.968976 -0.9866043 -0.05546254 -0.18692112 -0.9368743
-0.3151581 -0.97027165 -0.075011075 0.75783515 -0.13803314 -0.37958953 0.40471348 1.120088
1.4900775 -0.7721096 -1.6109753 0.4041467 0.736834 0.19816042 1.6375972 0.8938715
0.14231291 1.127974 1.1922007 -0.9185324 -1.2853838 -0.078836314 -0.55978256 -1.1795484
-1.163277 1.1876937 -0.705472 -0.9559429 1.0958798 0.1570801 0.34328297 -0.56132364
0.40222389 1.133418 -1.1828283 -0.33526108 0.08622678 1.460535 1.4194256 1.188241
-0.6493509 0.028232388 -0.050694343 -1.1890794 -1.2578409 -0.35030916 -0.23464108 0.61075145
-1.5554028 -0.94751614 1.3100973 0.32554588 -1.2280637 0.8340543 -0.6724261 -0.98763424
-0.80707055 -0.8994569 -0.9601071 0.30352402 0.8254973 0.92658687 1.7672832 1.410999
-0.92131895 1.4491115 -0.39857164 0.9659981 -0.8038461 1.4672956 -0.16724145 0.580858
1.4801614 -0.37594846 0.6767499 0.4860362 -0.6472159 0.0400944 1.4784011 0.36216196
1.2154058 0.8294104 0.8214272 -0.7118099 -0.38178572 1.0554202 0.39696413 0.88427424
1.3034407 0.69211465 0.59267545 -0.70896894 0.57828015 -0.028358828 1.2009493 0.677109
-1.0404527 1.0773596 -0.31961116 0.69231826 -0.765871 -1.502971 0.72941667 0.8738682
1.3242695 1.1417793 0.78052026 0.9419692 0.43989342 -0.7942419 0.29885703 -1.35596
-1.0110857 1.582052 0.6465061 0.66293 -0.18348624 -1.6951216 -0.50730914 -0.6018037
-0.6560721 0.34903455 -1.1125576 -0.9385107 -0.32778233 -1.4175202 -0.31742546 -0.035982285
-0.08978465 -0.6422516 -0.45344323 1.2955842 0.9930058 0.41774246 -1.214442 -1.0988246
0.7907564 0.05208589 -0.06628517 -0.5494493 -1.2539036 -0.957277 1.0526929 1.2893575
0.97963905 -1.0784273 0.0021718573 -1.4423442 -1.0131383 -1.2249986 0.5202874 -1.5891798

_weight_0 f4 [128, 128]
00000000: 173f a9bf 9a5f 713f 13ba 813f aeaf 8abf
00000010: 3afa bd3c 8683 e6be b55d d13e 765c 75bf
00000020: 4c9f d0bf 3576 073d 082a 8ebf a587 9abe
00000030: e81a 44bf facb edbe d373 80bf 8f41 c73f
00000040: 919d 7fbe a1c2 aa3f beb2 c23e 3e91 7c3e
00000050: b478 af3e 3a3b 133e 9884 d13e 96c1 f6be
00000060: ad87 c03e bc55 863f 207d 5abf db1c 143f
00000070: 2109 13bf 3ae1 cdbf 6dbd 393f 9141 d3bf
00000080: 90ed 793f 9f72 a2bf 428b a4bf a5e7 153f
00000090: 97ff 543d ddd4 993e dc97 c53f 6c0b 53bf
000000a0: 2649 a43c 33e0 f0be 4049 29bf 0bd8 e6be
000000b0: a102 dabe 1e71 82bf 6771 a43f 4412 823f
000000c0: ecc0 cdbf 23d5 cb3f fb68 5abf 5e9a 9c3f
000000d0: 0ca9 9b3f 95f1 963f 4468 2f3f 6334 823d
000000e0: 40de 80bf 06ef 163f 0409 d93f f152 b53f
000000f0: 874d 9bbf f2a2 91bb 97e8 aebe e7f6 613d
00000100: b0a2 acbf d018 5abf 9891 93bf 7cd5 5b3f
00000110: 3609 db3f 2213 4fbf a059 4e3f d5b9 b23f
00000120: d5da a9bf 60b2 38bf 0137 00bf 6772 a9bf
00000130: b45b e5be 9a65 083e 9c02 e0be 1147 a43e
00000140: 5cd6 853e a21a 55be 9551 49bf b78e 9abf
00000150: 0807 abbc 2556 0a3f e083 34bf 2fde 60bf
00000160: 3f0a 06be 6116 9e3f 6357 773f 1483 c83f
00000170: 59ad 88bf 1324 3dbf d9dc 723f fa4b f43e
00000180: 9d44 133f 76d0 863f e0bd 75be 59b3 6ebf
00000190: 83f7 61bf a728 c23f c38c 9a3f 9e91 45bf
000001a0: 1be5 dabe ad73 75bd 2c24 dcbf e07d 063e
000001b0: 29f2 dbbf d33e acbf 1e38 863f fc2c 2ebf
000001c0: 7ac6 bc3e 0a47 d3bf 4829 2f3e ec25 d8bf
000001d0: 197e dabf f25c 3e3f eb29 d23f dc0a c1bf
000001e0: cb47 323f 1e1f 39bd 4d64 6cbe 9a57 fcbe
000001f0: c56b 3e3f 7563 90be 0b2e 6d3f 7d35 3cbe
00000200: a5c3 b6be 1ec2 22bf fdc1 bf3f 2acb 0dbf
00000210: 0f77 b8bf 205e 113f 5ed4 2d3f e359 ad3f
00000220: a6d0 77bf aaea 65bf 1e69 c1bf c2f6 63bf
00000230: 58e5 393f 330b c1bd eeaf b9bf 456a bfbf
00000240: a0fe 763e 69a4 84bf a31d 5e3d c055 88bd
00000250: 6b3e 51bf 1604 16bf 0abb aebf 4e53 7e3f
00000260: e226 94bf 23a2 c53f e2b1 96bf 8a0a 8abf
00000270: aeb4 17bf f55b 00bf add8 69bf c83d 773f
00000280: 9688 a73f faf7 833e 3958 85bf 5da7 7c3f
00000290: 02eb afbf eecb 9e3f f771 ba3f f700 89bf
000002a0: 8a9a 40bf d316 283f 0861 a83f 3051 bb3f
000002b0: 7466 cebc ff14 ccbf 4bcf 04bf 6c63 8d3f
000002c0: 7475 3ebf 2247 503f ee53 ebbc eb1a ba3f
000002d0: 36a0 b2bf 1ab9 fbbe 1be1 833f 8652 6e3f
000002e0: 4518 2f3e cdef c03e d8c0 013f ba66 d23f
000002f0: 784a c0bf 2028 e63f f5ed d8be 54c5 72be
00000300: 7290 debe 93d6 113f 4c4b 08be 395f 1a3e
00000310: 7c31 06bf c4ff a93f 0e2f d93e 5e4f d2bd
00000320: c7b2 9b3e 24da 7f3f 6efd a03f 55dd 953f
00000330: fd06 9f3f 25b8 0dbf 8cc1 b73f 4ad2 863f
00000340: 7fe0 a6bf dbd6 91bf d07c 81bf b3ec b33f
00000350: d6fe 80be 165c 95bf 7f78 85bf 066d 71bf
00000360: 2acf 263f 2bbd 953f 0bf4 6ebe cb66 923f
00000370: 24d7 ca3f f874 93bf d7ec ae3f 195d 293f
00000380: f2d0 cb3f 4fd0 a43e 7a62 5c3f c80c a4bf
00000390: ae30 b4bd 334e 543f d3b0 d0bf 7983 82bf
000003a0: 0f42 0d3f 156f aa3f 0854 ca3f b66f 413f
000003b0: 1d10 e2be 5fa9 ae3f 4dd4 8dbf 3f27 8ebf
000003c0: 81c1 96be 0a16 be3d e223 093e 63be e9be
000003d0: 8ecf bb3f c0f8 573d 155f d73f 5929 40bf
000003e0: bf70 123d c693 ee3e 0d07 38bf 8729 783f
000003f0: a6ee 9f3f 4859 0bbf a60a 57bf d771 01bf
-1.3222378 0.942865 1.013491 -1.0834863 0.023190606 -0.4502222 0.40891805 -0.9584421
-1.6298614 0.033071715 -1.1106577 -0.30181614 -0.76603556 -0.46444684 -1.0035347 1.5566882
-0.2496245 1.3340646 0.38026994 0.2466478 0.34271777 0.14378062 0.40921474 -0.4819457
0.37603512 1.0494914 -0.85347176 0.5785653 -0.57435805 -1.6084359 0.72554666 -1.6504384
0.97628117 -1.269123 -1.2854998 0.58556587 0.052001562 0.30045214 1.5436969 -0.82439303
0.020054411 -0.4704605 -0.66127396 -0.45086703 -0.4258013 -1.0190771 1.2847108 1.0161824
-1.60745 1.5924419 -0.8531644 1.2234609 1.2160964 1.1792475 0.6851847 0.06357648
-1.0067825 0.5895847 1.6955876 1.4165937 -1.2133034 -0.0044444734 -0.34161827 0.055167105
-1.3487148 -0.8519411 -1.1528807 0.85872626 1.7112186 -0.8088857 0.80605507 1.3962961
-1.3269907 -0.7214718 -0.5008393 -1.3238038 -0.44796526 0.13320008 -0.4375199 0.3208547
0.26140106 -0.20810941 -0.7864011 -1.2074803 -0.020877376 0.54037696 -0.70513725 -0.87839025
-0.13089846 1.235058 0.96617717 1.5665002 -1.0677902 -0.7388317 0.94868237 0.47714216
0.5752657 1.0532367 -0.23998213 -0.9324241 -0.882683 1.5168656 1.2074207 -0.7717532
-0.4275292 -0.05992477 -1.7198539 0.13133955 -1.7183276 -1.3456672 1.0485876 -0.6803739
0.36870176 -1.6506054 0.17105591 -1.6886573 -1.7069732 0.74360573 1.6419042 -1.5081439
0.696408 -0.04519569 -0.23085137 -0.49285585 0.74383193 -0.2820088 0.9264838 -0.18379779
-0.3569614 -0.6357745 1.4981076 -0.5538813 -1.4411334 0.5678425 0.6790217 1.3543056
-0.9680275 -0.89811194 -1.5110204 -0.890484 0.72615576 -0.09425964 -1.4506814 -1.4954306
0.24120569 -1.0362674 0.054227483 -0.066569805 -0.8173587 -0.58599985 -1.365083 0.9934586
-1.1574366 1.5440105 -1.1773036 -1.0784466 -0.5926007 -0.50140315 -0.91346246 0.96578646
1.3088558 0.2577513 -1.0417548 0.98692876 -1.3743594 1.2405984 1.4566029 -1.070342
-0.7523581 0.65659827 1.3154612 1.4634151 -0.025195338 -1.5943907 -0.51878804 1.1045966
-0.7439797 0.8135854 -0.028726544 1.4539465 -1.3955142 -0.4916466 1.0303072 0.9309467
0.17099102 0.37682953 0.5068488 1.64376 -1.5022726 1.7980995 -0.42369047 -0.23708087
-0.43469578 0.5696804 -0.13309973 0.15075387 -0.5241926 1.3281178 0.42418712 -0.10269044
0.30409834 0.9994223 1.2577341 1.170817 1.2424008 -0.5535911 1.4355941 1.0532925
-1.3037261 -1.1393694 -1.0116215 1.405661 -0.25194424 -1.1668727 -1.0427397 -0.9430698
0.6515986 1.1698354 -0.23335283 1.143762 1.5846906 -1.1520071 1.3666028 0.6615768
1.592314 0.32190177 0.86087763 -1.28164 -0.087983474 0.8293182 -1.6303962 -1.0196372
0.5517892 1.331515 1.5806894 0.7556108 -0.44152918 1.3645438 -1.1080414 -1.1105727
-0.29444507 0.09281547 0.13392594 -0.45653066 1.4672716 0.05272746 1.6825892 -0.7506309
0.035752054 0.46597117 -0.7188576 0.96938366 1.2494705 -0.5443311 -0.84000623 -0.5056433

_weight_1 f4 [128, 32]
00000000: 9890 b33f f4d3 ae3e 5434 1c3f 8f8b 593f
00000010: 7fe2 853f b88f bf3e d9c1 87bf 77a5 2cbf
00000020: bb5d 823f 8be6 74bf 68f4 1dbf e089 573f
00000030: 05f8 cc3f 2e3b ac3f 20ba c83f fa16 a23f
00000040: ccf4 db3e 8f2d a5bf 6055 8ebe 9510 cdbd
00000050: 80c2 133f 15b8 d13f e990 093e ed8e d43f
00000060: 2655 92bf 2f6a 9a3f 6e4a 85bf f6c6 85bf
00000070: d629 7f3b 177b c1bf e5b3 85bf 3367 47bf
00000080: abc3 bcbe 0486 df3f 5400 bfbf 5acd 72be
00000090: 5228 923f d0bf 7cbf a1f3 af3f c7f1 8ebf
000000a0: 0778 b53e 396e 9b3f 63cf c53f fee5 e9bc
000000b0: d4d1 3a3f e323 8c3f 723c 0bbf e8d7 24bf
000000c0: c19e a3bf fac4 9f3f f756 313f f365 8c3f
000000d0: 8ca1 f2be 82f2 ee3e 0e6f bbbf 2577 9fbf
000000e0: 769d 9a3f e095 f7be 4c44 843f 2352 b0bf
000000f0: 9fe7 2fbf 5f7d 4fbf 8b43 ab3f 91e2 c23f
00000100: 9556 263e af08 013f 4a14 8abd 9785 123e
00000110: 4307 69bf dbdf 9cbf 3349 923f 3d8d 083f
00000120: c137 193f f0d8 26bf d3c4 dc3f 14dd b23f
00000130: ecc0 12bf beb1 503f bcd8 683f 79d5 53bd
00000140: a7a6 ebbe de15 f43e c1d9 ee3e b412 acbf
00000150: 5b5c 4fbf b980 ad3f eab4 8e3f 4553 863f
00000160: cc92 78be dfde b8be ed20 4fbf c674 143f
00000170: cc7f b53f d3f8 743f 66f2 d9be 0fc6 2abe
00000180: b18a b03f 0a4e abbf 8f72 0c3e 878c 13be
00000190: 0a9e 6e3f c265 6fbf 5f22 c3be 2d1a bdbd
000001a0: a80a 6cbf bb81 c23f 4f48 d63f 8be6 8ebf
000001b0: 795f 153f 9678 51bf ae02 9dbf 3717 ef3e
000001c0: 94bc 803f fddf db3e 4f77 70bf ffd5 903f
000001d0: dc4f a33f 86be d7bf c708 88bf 4628 2a3f
000001e0: 8005 e83e b110 08bf 3968 1f3f 0690 1b3f
000001f0: ffbf 883f 38ef 3a3f 14aa ac3e 8228 d3bf
00000200: 4b60 8abf 2160 88bf 6688 223f 123b 93bf
00000210: 9bd9 7fbf 47f7 4abf 112e e1be 8e0a 57bf
00000220: 22dc b03f 3f9a b93f 1791 433e 3e97 c03f
00000230: 97df 35bf 9e50 6abf 9bfa babf df05 8a3f
00000240: 99f8 aebe 9f54 5abf 615b a23f 75ee bdbf
00000250: ae7d 41bf 95b1 073f 8080 e93e 3815 28bf
00000260: 5278 693e f412 1dbf 308f 183e a532 9e3f
00000270: b1cd 143a c909 bfbf b2c8 6bbf 6198 313f
00000280: f1c5 0a3f d548 dd3e 1c2c c93f b39e 9abf
00000290: 59f7 4b3f 192c c33b 94bd f1be 5483 3f3e
000002a0: a2c5 923f 8375 d23f c2d4 88bf 5f61 d13f
000002b0: 6de2 c0bf 4ba1 463f 6eff a8bd 9951 4a3e
000002c0: 7593 da3e 600e 2e3f fc47 31bf 970b 4c3e
000002d0: c72b 67be bb4e a63f cc57 ee3e ac8b 853f
000002e0: 0371 c3bf e9cc 97bf 04c8 5fbe d9e4 4cbf
000002f0: fe8e a6bf af96 c1be cbc1 8bbe bc2d 79bf
00000300: 3994 6cbf 2091 aabf e1ff 0f3e 6d81 babf
00000310: 3866 d6bf ff31 6fbe e2a6 493e 8dee 903f
00000320: fcbe 35bf 7154 d93f 38c1 d43f ce7b e13e
00000330: bb03 783f 58ee b23e 25cb d13f 77fe 963e
00000340: feb5 82bf c435 593f 2432 77be 78fd 153f
00000350: 6b54 063f ccad a83f 954d 92bf 0cfe 413f
00000360: 96df 4fbe 762f 1a3f 8f6a c63e c8d7 963f
00000370: 9e02 1cbf ce13 bd3f 8a02 abbe e020 b1bf
00000380: 2f5f cc3e edcb 89bf 4535 493f 4261 3fbf
00000390: e8c7 21bf 8a0d 6a3f 7ef9 fabd 7cac 8e3f
000003a0: 5b6f a5bf ad7a 323f 073c b3bf 39e8 813f
000003b0: a1d5 bc3f b1dc d03e 0af0 aa3f c210 2f3f
000003c0: e8fa bc3d 8de4 233f ef25 a0bf 4bbe d2be
000003d0: 760c c3bf c972 bebd a860 bb3f 44f6 5c3f
000003e0: 1050 a0bf 9b58 0c3f fd82 e03e ffc5 e3be
000003f0: 840c a5bf d281 bebf 00c2 623f 5218 36bf
1.4028502 0.34146082 0.61017346 0.84978575 1.0459746 0.37414336 -1.0606033 -0.6743998
1.0184854 -0.9566428 -0.6170106 0.84194756 1.601319 1.345556 1.5681801 1.2663262
0.42960203 -1.2904528 -0.2779951 -0.100129284 0.5771866 1.6384302 0.13434185 1.6606117
-1.1432235 1.2063655 -1.0413339 -1.0451343 0.0038934848 -1.5115689 -1.0445524 -0.77891845
-0.36868033 1.7462773 -1.4921975 -0.23711148 1.1418555 -0.9873018 1.3746225 -1.1167535
0.35443136 1.2143012 1.5453914 -0.028552052 0.7297642 1.0948452 -0.5438911 -0.64391947
-1.2782823 1.2481987 0.6927332 1.0968612 -0.47388875 0.46669394 -1.4643266 -1.2458235
1.2079303 -0.48356533 1.0333343 -1.3775066 -0.687128 -0.81050676 1.3379987 1.5225393
0.16243966 0.50403875 -0.06742151 0.14308773 -0.91026706 -1.2255815 1.1428589 0.5334051
0.598507 -0.6517477 1.7247566 1.3973718 -0.57325625 0.81521213 0.9095571 -0.051717255
-0.46025583 0.47672933 0.46650508 -1.3443208 -0.810003 1.3554908 1.114896 1.0494162
-0.24274749 -0.36107537 -0.80909616 0.5799068 1.4179626 0.95692176 -0.42567748 -0.16677116
1.3792325 -1.3383191 0.13715576 -0.14409076 0.932099 -0.93514645 -0.3811216 -0.09233508
-0.9220376 1.5195841 1.6740817 -1.1164106 0.58348805 -0.81824625 -1.2266443 0.466974
1.005755 0.42944327 -0.9393205 1.1315306 1.2758746 -1.6855018 -1.0627679 0.664677
0.45316696 -0.5315047 0.62268406 0.6076664 1.0683593 0.7302127 0.3372351 -1.6496737
-1.0810636 -1.0654336 0.6348938 -1.1502402 -0.99941415 -0.79283565 -0.43980458 -0.8400048
1.3817179 1.4500197 0.19098316 1.5046155 -0.71044296 -0.9152926 -1.4607729 1.0783042
-0.3417404 -0.8528537 1.2684137 -1.4838396 -0.75582397 0.53005344 0.4560585 -0.6565738
0.22799805 -0.61357045 0.14898372 1.2359205 0.00056764024 -1.4924861 -0.9210311 0.69373137
0.54208285 0.4321963 1.5716586 -1.2079681 0.796743 0.0059561846 -0.4721495 0.18702441
1.1466563 1.6442112 -1.0689929 1.635784 -1.50691 0.77589864 -0.08251844 0.1975769
0.42690626 0.67990685 -0.69250464 0.19926296 -0.22575293 1.2992777 0.4655136 1.043325
-1.5268863 -1.1859409 -0.21853644 -0.80036694 -1.3012388 -0.37810275 -0.2729629 -0.9733541
-0.9241367 -1.3325539 0.14062454 -1.4570748 -1.6749945 -0.23358916 0.19692567 1.13228
-0.70994544 1.6978894 1.6621466 0.44039768 0.9688069 0.34947467 1.639012 0.29491016
-1.021179 0.84847665 -0.24140221 0.5858989 0.5247256 1.3178039 -1.1429926 0.7577827
-0.20300135 0.6022867 0.38753173 1.1784601 -0.60941494 1.4771669 -0.33400375 -1.3838158
0.3991637 -1.0765358 0.7859691 -0.7475778 -0.6319566 0.9142691 -0.12254618 1.1146388
-1.2924608 0.6971844 -1.4002694 1.0148994 1.4752694 0.40793374 1.3354504 0.68384945
0.09227544 0.64020616 -1.2511576 -0.41160807 -1.5238178 -0.09299237 1.4638872 0.8631327
-1.2524433 0.548227 0.43849936 -0.44486997 -1.2894444 -1.4883368 0.8857727 -0.7113086

_big_w3j f4 [2, 4]
00000000: 0000 803f 0000 0000 0000 0000 0000 0000
00000010: 0000 0000 3acd 133f 3acd 133f 3acd 133f
1.0 0.0 0.0 0.0 0.0 0.57735026 0.57735026 0.57735026

w f4 [128]
00000000: 56f4 51bf 2b90 ca3e de1e 663f 38b7 b1bf
00000010: 0101 2bbe 2dff 913e 931e 24bf 9ac6 64bf
00000020: ec31 6d3f 5417 09bf b771 94bf b899 ebbe
00000030: d162 353f f8a1 813f 28ed 6b3e 888a 8b3f
00000040: c194 cabf 992d a6be 3b93 f63f 4cf7 a8be
00000050: 2e35 4b3e ea35 483f 7b01 853f 8979 39bf
00000060: 565d 56be 7d82 5cbe cc69 e8bf 8ec3 b0be
00000070: 41ef 03c0 dd91 2c3f 6563 a9bf e90c aebf
00000080: d910 abbd cb54 c0bc 748f 323e 0c18 1340
00000090: a604 753f 2770 29bf 6f15 54bf dd0d 1bbf
000000a0: 305c b3bf 1a0f a63f 1a0a d23f 6d41 87bf
000000b0: b2ee 85be 6211 80be 7f49 003f 7723 853e
000000c0: 2078 36be 09dd 84be d45e 6dbc 5c8d c4be
000000d0: bad5 3dc0 44c0 87bf c334 9ebe 832d 6f3f
000000e0: 9ae9 cf3f e16c cd3a 5605 e0be 36f2 06c0
000000f0: 9b8f 923f aaad c3be 6ee5 b5be c312 413f
00000100: 0470 083e 2fed 3a3e f2be 03bf cdee 4c3f
00000110: d720 9fbf 4bdf dbbf 6c17 15bf 3b87 1dbf
00000120: 9bc3 62bf e637 993f 3057 ef3e ff64 13be
00000130: 88df 4fbf 86ed c5be f3bb 84bf 438f 173f
00000140: 817f 10c0 3400 cf3e a27b 123f b499 9d3e
00000150: 11eb 00be 3831 75bf d03b e03f d2c4 7a3f
00000160: cc02 ccbe da52 31be f3c2 413f 5379 7c3f
00000170: 1d49 53bf 8b34 273e 4753 003f 9dd4 b53f
00000180: 326d 09bf a731 543f 104e 873f 9b66 8dbf
00000190: 8f80 023e 3c2e 9bbc cd85 d0be 431d 083f
000001a0: 216c c43e 0fcf f43f db74 9bbf a6b4 e23f
000001b0: c3cf 013f 545e 21be 9dae eb3e 539c 93bf
000001c0: 2df6 8fbf 40fe a0be 0b3f 203f b1f8 b93d
000001d0: 4101 16bf 1fab fabe c7c9 233f 7602 1c3f
000001e0: 7be3 50bf a406 943f 50f7 9abf 52d4 013f
000001f0: 5fb4 dcbe 62fe 1c3f c5e8 903e e5bc 973f
-0.8201345 0.39563116 0.8989085 -1.3884039 -0.16699602 0.28514996 -0.6410915 -0.8936554
0.926543 -0.5355122 -1.1597203 -0.46015716 0.70853907 1.0127554 0.23039687 1.0901651
-1.5826646 -0.32456663 1.9263681 -0.33001173 0.19844505 0.78207266 1.0391077 -0.7245107
-0.20934042 -0.21534152 -1.8157287 -0.34524196 -2.061478 0.6741007 -1.3233458 -1.359769
-0.08352823 -0.023477932 0.17437536 2.2983427 0.9571022 -0.66186756 -0.82845205 -0.6056803
-1.4012508 1.2973359 1.6409333 -1.0566841 -0.26158673 -0.25013262 0.50112146 0.2600362
-0.17819262 -0.25949886 -0.014487941 -0.383891 -2.9661698 -1.060555 -0.3089963 0.9342882
1.6243165 0.0015672707 -0.4375407 -2.1085334 1.1450075 -0.38218433 -0.35526603 0.75419253
0.1332398 0.18254541 -0.51463234 0.8005188 -1.2431897 -1.7177519 -0.58238864 -0.6153447
-0.8857972 1.1970184 0.46746206 -0.14393996 -0.81200457 -0.38657779 -1.0369858 0.59202975
-2.2577822 0.40429842 0.572199 0.3078133 -0.1258967 -0.95778227 1.7518253 0.97956574
-0.39845884 -0.17316762 0.75688094 0.98622626 -0.82533437 0.16328637 0.5012707 1.420551
-0.53682244 0.82888263 1.0570698 -1.1046938 0.12744354 -0.018942945 -0.40727082 0.5316965
0.38363746 1.9125689 -1.2145036 1.771138 0.50707644 -0.1575864 0.46031657 -1.1532081
-1.1247002 -0.31443977 0.62596196 0.09080637 -0.58595663 -0.4895868 0.6397976 0.60941255
-0.8159711 1.1564527 -1.2106724 0.507146 -0.43106362 0.6132566 0.2830259 1.1854521

_weight_0 f4 [144, 128]
00000000: 0521 93be 11c2 8b3f 93ee d63f bd22 bf3e
00000010: 08b6 1f3f 4b4f 733f 174f 683f 0970 8abe
00000020: 83c0 d9bf 12b2 db3e d644 8cbf 9e47 de3f
00000030: 9616 4dbf 884a c93d 877b 0fbf fffe bbbf
00000040: 9c69 973f 89af 943f 46ca 15bf a5d6 be3e
00000050: c96c a73f 1c60 97bf 0ea7 98be e6d8 55bf
00000060: d8bc d8bf 33b8 8abf ce69 a23e 1a93 d83f
00000070: 563c 8abf 9e93 113e 700b be3f a575 133f
00000080: 6415 ccbe 4a94 393f c807 3b3e 8f68 02bf
00000090: 2ba3 86bf 1461 98be 223f b43f 321f 56bf
000000a0: 001e 9d3f 2a89 8f3f 017d a23f 23d6 0d3f
000000b0: c19e 56bf c18d ab3f faca 5cbe b194 c03f
000000c0: 7fa7 423f b0a8 c83e 133c 81bf 1c24 ef3e
000000d0: 00ba 86bf fb00 253e 6266 c7bf a0b4 023f
000000e0: 2343 16bf 22e5 773e fb97 c9bf 20cb 23bf
000000f0: 9c91 e33e 3171 9c3f da22 cebf 29b4 833d
00000100: 0a89 d4bf 6b25 91bf f767 b7bf f61a a63f
00000110: 91d3 ad3f 2774 a33f 38be 2b3e 29a7 8cbe
00000120: 9590 5c3f 715a cabe 76a6 2a3e d0ca 28be
00000130: 0e61 b3bf a16d e93e c766 86bf e641 173f
00000140: f8ec a23f 9f1f 633e 47a0 7bbe 18e7 1a3e
00000150: ef17 893f c24d 80be af7f cf3f 20ce a83f
00000160: 6ab3 5bbf 41b4 c0bf c4bf 6fbf 8c69 8c3f
00000170: e357 583e 54c7 9d3f 98df a13f e621 593f
00000180: 6669 8dbf ec58 03bf 3968 163f e8a3 393f
00000190: 1b8e c33e aeb3 4c3e 6da8 59bf 1619 b13f
000001a0: e6df 07be 6286 c83f 6e03 b1bf 702b c8bf
000001b0: 320a d63f 4fd8 83bf b066 8d3e 6c37 babf
000001c0: baa6 9f3f 16d0 b9bf 63bb a83f 9c0f d83f
000001d0: 7209 73bf 7472 d3bf cc21 7dbf e9b8 87bf
000001e0: a6c4 a9be fd96 303f 25e5 aabf 6f67 75bd
000001f0: 453d bc3f e64a 5cbe 8e12 f8be 15a2 cdbf
00000200: ced2 50bf 2d0b 92bf f646 8bbf d5f4 d73f
00000210: 128e c7bf 0ddf 6abe 6593 84bf 848d e13e
00000220: d952 c53f f12f 923f 198c b3bf 7416 4e3f
00000230: 340f 37be 1816 9cbe 601a 7cbe a6d4 393f
00000240: cd8f b5bf 5027 de3e 28a6 263e 0995 903e
00000250: 0f23 eabf 8ffe 83bd 859e 443d da9e 963f
00000260: 7f17 0cbf 3d26 54bf 4c1d c1bf a450 d5bf
00000270: c1de aa3f 9724 103f b8b1 c83f 237f 18bf
00000280: 1ab8 87bf 8c73 a83d 71b7 abbf bfc6 703f
00000290: aadd d43f d8c7 ba3d 866f cfbf 5e64 81bf
000002a0: 956f bdbf 231a 543f 3f20 813e e069 24bf
000002b0: c0ef 6cbf bc14 823f 19df a53d 951b 8abf
000002c0: 2001 c23f c2a9 d33e d33d dabf cd70 a5bf
000002d0: db30 903e b04e 95be e2da 963f fea5 3d3e
000002e0: e749 68bf 2f6b c1be 33dc b13f b373 893f
000002f0: c6e7 cb3d 9f92 1bbf 62e8 833f b500 92bf
00000300: f65f 8cbd a69b 853f 4dc9 1bbf c7c2 5ebf
00000310: 1017 d03e 60d8 b4bf 4f17 d13e 00ab 113f
00000320: 5cb0 c4bf 159e 1cbf 1824 d5bf 9972 fb3d
00000330: 164a 783d c3fc 97bf fb67 98bf 86a5 9cbf
00000340: 0cdd 8e3f 3862 d8bc b657 3d3f 27d5 a93c
00000350: 2aec af3f 1685 aabf 64a9 aa3f 1c6a ae3f
00000360: 88cf 623f 9f85 f7bd e385 7abe 2b0b afbf
00000370: 89e3 d53e 2eac 153f 9b0e a23f 055a b13f
00000380: e193 0c3e 48fc 9dbf 1545 613f 6247 dc3f
00000390: ad4e b8bf 2f5b 723c d094 413f 6c90 08be
000003a0: 6a9c dabf 8065 c6be 2838 e3bd 1d25 15be
000003b0: ca16 2abf f2ce 023e 2642 0cbe 9ab9 283f
000003c0: 9a62 8c3f be02 1fbe 84b0 f6be 5902 e4bd
000003d0: 1d5f a9bf db65 8dbf 2252 5d3f 49aa b83f
000003e0: 2c1e 4d3f 55fa 823d d882 4bbf ef8b 5ebf
000003f0: 6622 cebf 0f96 8fbf 6cb5 5bbe fc50 e6bd
-0.2873613 1.0918599 1.6791557 0.3733119 0.6238713 0.95042866 0.9074568 -0.270386
-1.7011875 0.42909294 -1.0958507 1.7365606 -0.8011259 0.09828669 -0.5604786 -1.4687194
1.1829104 1.1616069 -0.5851177 0.37273136 1.3080074 -1.1826205 -0.29814953 -0.83534086
-1.693263 -1.0837463 0.31721348 1.6919892 -1.0799663 0.14216468 1.484724 0.57601386
-0.3986007 0.72491896 0.18264687 -0.50940794 -1.0518545 -0.29761565 1.4081767 -0.8364135
1.227478 1.1213734 1.2694398 0.5540487 -0.8383599 1.3402635 -0.21561804 1.5045377
0.7603683 0.39191198 -1.0096458 0.46707237 -1.0525513 0.16113655 -1.557812 0.5105686
-0.5869619 0.24208501 -1.5749506 -0.6398182 0.4444703 1.2222043 -1.6104386 0.06430847
-1.6604321 -1.1339544 -1.4328603 1.2976978 1.358019 1.2769822 0.16771781 -0.27471283
0.86158115 -0.39522126 0.16665062 -0.16483617 -1.4013994 0.45591453 -1.0500115 0.5908493
1.2728567 0.22180031 -0.2457286 0.15127218 1.0710429 -0.25059325 1.6210841 1.3187904
-0.8582064 -1.5055009 -0.93651986 1.096971 0.21127276 1.2326455 1.264636 0.8481735
-1.104779 -0.5130756 0.5875278 0.72515726 0.38194355 0.19990417 -0.8502262 1.3835781
-0.13269004 1.566601 -1.3829172 -1.5638256 1.6721861 -1.0300387 0.27617407 -1.4548163
1.2472756 -1.4516628 1.3182186 1.6879764 -0.9493629 -1.6519303 -0.98879695 -1.0603305
-0.33157843 0.6898039 -1.3351179 -0.059913095 1.4706198 -0.21512946 -0.48451656 -1.6065089
-0.8157166 -1.140966 -1.088103 1.6871592 -1.5590231 -0.2293665 -1.0357481 0.4405328
1.5415908 1.142088 -1.402713 0.8050301 -0.17876893 -0.30485606 -0.24619436 0.725901
-1.418451 0.43389368 0.16274321 0.28238705 -1.8291949 -0.064450376 0.04800274 1.1767228
-0.5472335 -0.82870847 -1.5087066 -1.6665235 1.3349229 0.5630583 1.5679235 -0.59568995
-1.0603058 0.08225164 -1.3415357 0.9405326 1.6630147 0.091201484 -1.6205909 -1.0108755
-1.4799677 0.8285238 0.25219914 -0.6422405 -0.9255333 1.0162578 0.08099193 -1.0789667
1.5156593 0.41340452 -1.7050117 -1.2925049 0.28162274 -0.29161596 1.1785548 0.18520352
-0.90737766 -0.37777087 1.3895324 1.0738434 0.09956317 -0.607706 1.0305293 -1.1406466
-0.068542406 1.0438125 -0.60854036 -0.87015957 0.40642595 -1.4128532 0.40838096 0.5690155
-1.5366321 -0.61178714 -1.665164 0.12277717 0.06061753 -1.1874012 -1.1906732 -1.2238014
1.1161208 -0.026414022 0.7396196 0.020731522 1.3743947 -1.3321865 1.3332944 1.3626132
0.8859792 -0.12086033 -0.24465136 -1.3675283 0.41775158 0.5846585 1.2660707 1.3855597
0.13728286 -1.2342615 0.87996036 1.7209284 -1.439901 0.014792248 0.75617695 -0.13336343
-1.7078984 -0.38749313 -0.11094695 -0.14564939 -0.66441023 0.12774256 -0.13697109 0.65908206
1.0967591 -0.1552839 -0.48181546 -0.1113326 -1.3232151 -1.1046709 0.8645345 1.4426967
0.80124164 0.06395403 -0.79496527 -0.8693227 -1.6104248 -1.1217669 -0.21455926 -0.11245915

_weight_0 f4 [128, 128]
00000000: 8f73 05be b8da 463f df97 8b3f 6ea6 a43e
00000010: 5a7e fdbe 8072 e1bd abbe ffbe 272b b13f
00000020: 2d20 b9bf ef10 15bf 53a2 a5bf eb3c 423c
00000030: 4b80 dd3e dcd1 ba3f d54c afbf f60d 9b3f
00000040: f798 90be 79a9 bebf bc7d d7bd 327b b9be
00000050: be06 eb3e e840 b63f 37ed 00be 4c0e bdbf
00000060: 4952 2b3e e02a 213e 5950 a5bf 7981 b9bf
00000070: 2c60 3bbf 4271 663f 25b6 c4bf 0841 c0bf
00000080: d5ce 413f 8afb ea3e 4623 a8be 3ede 933f
00000090: cb22 8a3d 0537 4bbf ce15 b23f 8daf 89bf
000000a0: 3f32 b8bf cc72 173f 9622 82be 5458 903f
000000b0: 8fe2 353f 8803 173f 55a3 9bbf fab3 553f
000000c0: 1722 d13f d36a f03e 02cb a83f be7c a7bf
000000d0: 54f7 c63e f4fb 74bf 53da 49bf 83f4 4f3d
000000e0: fcea af3e 91e8 e33d 166a f43e 498c 0ebf
000000f0: 0aa7 c9be 9e95 99bf 0ae4 2cbf 2980 493f
00000100: 3cf4 ae3f 8576 e73e e819 b53f 449d 6c3f
00000110: 6923 e13f 9925 08ba 76c4 8d3f 640a 003f
00000120: eb4d dfbd a24c 883f 8247 a6bf e64b 133c
00000130: 88bb ca3f 6691 213f 0eea 6c3f 8ff3 88bf
00000140: 0fb4 7abf de0c 2f3f 53dc 0cbf 96d5 c3bf
00000150: 0abb 1b3f b5f0 a23f a6c2 5ebf b6f4 013e
00000160: 2f68 b7be 63c6 d83f 6b0a 1ebf c9d9 823f
00000170: 2e6d c13e a520 483f 7852 c43f 9f2b dc3e
00000180: f49f 11bf 9297 bf3f 1eec c73d 154c 893f
00000190: 8609 673b d48b 103f 85c6 8e3f 677b bdbf
000001a0: bb0a e93e e72d b1bf ceec 6abf 66cc a5bf
000001b0: 988a a63f 90a7 3fbf d642 00be 5fd6 97bf
000001c0: 9782 b4bc 7eb5 f6be f19b 833e cf82 8b3f
000001d0: 5b80 4c3f 77ac 753e d99c 833f 5b4d 6b3f
000001e0: 87d9 c73f 48be 643f 2146 acbf a3d1 733f
000001f0: 5359 44bf 6982 f63e 02a7 943f 8b16 ebbe
00000200: 0129 d63e 4b7e c4bf 6ddc 89bf 9b61 b83f
00000210: 9126 a23e 304c d03f cb61 11be 1dee 90bf
00000220: c53a a43f 7632 b7be 98c0 debe 6279 b43f
00000230: 1c9f bdbf e669 8c3f e9dd cc3f cd82 393f
00000240: c93d 2c3f f41d 2d3f 48bc dfbe ba8d c23f
00000250: 2325 46bf 2268 bebf 3648 383f 74a0 883f
00000260: 5544 ac3f 4bd5 66bf c0f5 69bf 3eba 6bbf
00000270: 43c0 413f 405a 9c3f ecd8 9abf 685d 3fbe
00000280: 2532 8ebe 9013 c93e 7555 3b3f 86d3 5a3d
00000290: cbcc 353f 708b 1c3e 52b5 3b3f 0924 6dbf
000002a0: c929 bbbf 56ba a03f 183e bcbd f4bf debf
000002b0: 84a1 fa3e 98f1 253f 56e1 f33d a1ba 5d3f
000002c0: 9b47 d5be 33bb b53e c702 cc3e b3d8 d1bf
000002d0: a9a4 84bf aa0f c73f abbe 6ebf 9848 113f
000002e0: cc0c 94bf d6f4 a83f 016a c33f ea3e 883f
000002f0: 6fec 90bf c64e 3c3f dcc2 1ebf 52fa 54bf
00000300: 67fd 52bf 09f4 d43f 2abf 553f a888 23bf
00000310: 5fde 953f 2ae0 8c3f 968e e93e ddaf 3fbf
00000320: bc27 0d3f 6603 1b3f 57ab 943d 76bd d2bf
00000330: 7356 ecbe bf71 4b3e ef69 a6be 7754 94bf
00000340: 47ea c1be 200f d5bf 2142 53bf 18af c83f
00000350: c0d0 ec3e 6a20 26bf 021f 8e3f 51d9 873e
00000360: fa03 5cbf e802 c53f a799 8ebd 2bbc c73f
00000370: f8ee e53e 1d66 6b3f 689c 8a3f 6907 903f
00000380: b15c 643f 51d5 ddbe e970 2b3f b1f3 b3bf
00000390: 1c73 c03f 2fdc 863f 3e2a b2bf 7e0a af3f
000003a0: 3b93 d3bf 2d82 b13f 3ae9 323f 7639 62bf
000003b0: 8517 a1be 8095 4c3d 612a 89bf 2324 fa3c
000003c0: 8ddc c7be 78b7 dcbf c262 613f 921b a93f
000003d0: fddd 40bf c6cf 8fbf 1b77 b6bf f310 a1bf
000003e0: f057 bd3f 55ca 733f 346b bfbf 0ed6 02bf
000003f0: 16e6 b7bf ff27 833e 130e fe3e 93cf 993e
-0.13032363 0.7767749 1.0905722 0.32158226 -0.4951046 -0.11008167 -0.49950156 1.3841294
-1.4462944 -0.58228964 -1.2940162 0.011855344 0.43261942 1.4595294 -1.3695322 1.2113636
-0.28241703 -1.4895469 -0.10522029 -0.36226803 0.4590358 1.4238558 -0.1259049 -1.4769988
0.16730608 0.15739012 -1.2915145 -1.4492637 -0.7319362 0.9001657 -1.5368086 -1.5019846
0.75706226 0.45895034 -0.32839411 1.1552198 0.067449175 -0.7938083 1.3912904 -1.0756699
-1.4390334 0.5915954 -0.25417012 1.1276956 0.71048826 0.58989763 -1.215922 0.8347775
1.6338528 0.469565 1.3186953 -1.3084943 0.3886057 -0.9569695 -0.7884876 0.050770294
0.34358966 0.11128343 0.47737187 -0.5568281 -0.39385253 -1.1998785 -0.6753546 0.7871118
1.3668284 0.4520761 1.4148531 0.9242747 1.7588931 -0.0005193591 1.107558 0.50015855
-0.109035335 1.0648386 -1.2990572 0.008990264 1.583848 0.63112485 0.9254464 -1.0699328
-0.97931 0.6837901 -0.5502369 -1.5299556 0.60832274 1.2729708 -0.8701576 0.12691006
-0.35821673 1.6935543 -0.61734647 1.0222713 0.3777861 0.7817481 1.5337667 0.4300203
-0.56884694 1.496813 0.09761833 1.0726343 0.003525348 0.5646336 1.1154333 -1.4803284
0.45516 -1.3842133 -0.91767585 -1.2953002 1.3011045 -0.74865055 -0.12525496 -1.1862296
-0.022034926 -0.48185343 0.2570491 1.0899295 0.79883355 0.23991571 1.0282241 0.9191491
1.5613259 0.89352846 -1.3458902 0.95241755 -0.766988 0.4814637 1.1613467 -0.45915636
0.41828158 -1.5351042 -1.0770394 1.4404787 0.3167005 1.627325 -0.14197461 -1.1322666
1.2830435 -0.35780686 -0.43506312 1.4099543 -1.4814181 1.0969818 1.6005222 0.7246521
0.67281777 0.6762383 -0.43698335 1.5199502 -0.77400416 -1.4875529 0.71985185 1.0673966
1.3458353 -0.9016921 -0.9139061 -0.9208106 0.75683993 1.2215042 -1.2097449 -0.18687975
-0.27772632 0.39272738 0.7317727 0.05342438 0.71015614 0.15287566 0.7332355 -0.9263311
-1.4622127 1.2556865 -0.09191531 -1.740233 0.48951352 0.6482177 0.11908214 0.866129
-0.41656193 0.35494384 0.3984587 -1.6394256 -1.036275 1.5551655 -0.93259686 0.56751394
-1.1566405 1.3199718 1.5266725 1.06442 -1.1322154 0.735577 -0.6201608 -0.8319446
-0.8241791 1.6636974 0.8349482 -0.63880396 1.1708487 1.100591 0.45616597 -0.7487772
0.55138755 0.6055206 0.07259243 -1.6464069 -0.46159706 0.1986761 -0.32502696 -1.1588277
-0.37874052 -1.6645241 -0.8252278 1.5678434 0.46253014 -0.6489321 1.1103213 0.26532987
-0.8594357 1.5391512 -0.069629006 1.5604299 0.4490888 0.9195269 1.0828981 1.1252261
0.89203936 -0.4332681 0.6696916 -1.4058744 1.5035129 1.0535945 -1.3919141 1.3675077
-1.6529306 1.3867851 0.69887125 -0.8836893 -0.31463256 0.04994726 -1.0716058 0.03053481
-0.39035454 -1.724349 0.8804132 1.3211539 -0.7533873 -1.1235282 -1.4255098 -1.2583297
1.4792461 0.9523061 -1.4954591 -0.5110787 -1.4367092 0.25616452 0.49620113 0.3004118

_weight_1 f4 [128, 1]
00000000: d2a5 ad3f 6f8e 9dbc 7b1e 99bf d63e c9bf
00000010: 6626 9b3e ecc0 99bf 6a4c 93bf 09f9 cd3f
00000020: 1ebe 483f 6235 8ebf 3b20 8fbe 7b38 403e
00000030: 23c0 69bf c2fd 9a3b c3a6 b03f e90c 39bf
00000040: 2c41 6abf cbb3 c03f e04a ffbe 5511 09bf
00000050: 12b9 b3bf f5d4 cf3e d1d4 76bd a955 74bf
00000060: 4c07 53bf faf1 54bf 9b68 063f 01bf b1bf
00000070: a332 bb3e e1e0 3cbf 9a6d 95bf 8265 583f
00000080: bc7d d0bf d378 41bf 1d83 97bf fac6 18bf
00000090: b922 6dbd 092e a23e 167a 9ebf d1fc 363f
000000a0: 96fc c13f 303b 28bf e220 1bbf 5b0d 68be
000000b0: 4a80 103f 3740 2c3e 9c00 833e 0528 183f
000000c0: d428 aebf 9137 a7bf 9b66 6dbf 5d36 ffbe
000000d0: c66b 9fbf 9903 3ebf 2f31 993f 1b9c 87bf
000000e0: d4e6 bfbe d987 cd3f f9c6 673f af16 a8bf
000000f0: f08c abbe 96bc 11bf b162 c9bf e14d a63f
00000100: c8bc 77be ea20 633f 7419 2ebe 2475 cfbf
00000110: a223 413f 6f7e 643f 51d3 cd3e 1e29 fbbe
00000120: 0960 b43f 2487 e3be c61b 22bf 1fb1 b6bf
00000130: 5679 adbf 7a8d 233e 0a56 b03f f709 a13e
00000140: d6bf d63c 1990 87bf 9bf6 02be 699b 603f
00000150: cee9 953d fb98 633f 2a85 3b3f 3838 cdbe
00000160: d54a 04bf 99ba e13e 291e f2bd 3dc5 bdbf
00000170: b832 79bf b33b 993f e21d 443f 3654 a4bf
00000180: 91b5 81bf c783 2b3d 6b93 64be 2ed8 873e
00000190: 38f1 82bf d02c b33f a86a 723f f3a8 61bf
000001a0: 53cf 48bf 6c6b 84bf b2b6 ad3f 438a 27bf
000001b0: 2278 ed3e 6f75 b63f 853c d0be cfa6 853e
000001c0: 3adb ca3c 6380 fa3e 8467 c4be d368 b43e
000001d0: fec2 60bd 7f70 14bf 66b2 7abf 1f65 af3f
000001e0: 3801 38bf 99cd 50bf 2a18 d0bf 392e d9be
000001f0: 5a09 413f 6785 69bd 896a a9bf 1346 85bf
1.3566229 -0.019232957 -1.1962427 -1.5722301 0.30302733 -1.2012 -1.1507695 1.6091624
0.78415096 -1.1110041 -0.27954277 0.18771546 -0.913088 0.0047299573 1.3800892 -0.72285324
-0.91505694 1.5054868 -0.49861813 -0.5354207 -1.4040854 0.4059216 -0.06026155 -0.9544321
-0.8243301 -0.83181727 0.52503365 -1.3886415 0.3656207 -0.7378064 -1.1674073 0.8452989
-1.6288371 -0.7557499 -1.1836888 -0.59678614 -0.057894442 0.31675747 -1.2381008 0.7147952
1.5155208 -0.6571531 -0.6059705 -0.22661345 0.56445754 0.16821371 0.25586402 0.59436065
-1.360621 -1.3063833 -0.9273469 -0.49846163 -1.2454765 -0.7422424 1.1968135 -1.0594515
-0.37480795 1.6057082 0.90537983 -1.3131922 -0.33505964 -0.56928384 -1.5733243 1.2992517
-0.24193108 0.887221 -0.17001897 -1.6207623 0.75444996 0.8925542 0.40200284 -0.49054807
1.4091808 -0.44439042 -0.6332363 -1.4272803 -1.3552654 0.15971938 1.3776257 0.31452915
0.026214521 -1.059085 -0.12789385 0.8773714 0.07319985 0.88905305 0.7325007 -0.40081954
-0.51676685 0.44087675 -0.11822159 -1.4825817 -0.97343016 1.1971344 0.766081 -1.2838199
-1.0133535 0.04187372 -0.2232186 0.2653212 -1.0229864 1.3998051 0.94693995 -0.8814842
-0.7844135 -1.0345283 1.3571379 -0.65445346 0.46380717 1.4254588 -0.40671173 0.26103827
0.024762738 0.48926076 -0.38360226 0.35236225 -0.05487346 -0.57984155 -0.97928464 1.3702735
-0.7187686 -0.8156372 -1.6257374 -0.42418078 0.75404894 -0.057011988 -1.3235637 -1.041201
