example_scripts/calculators_example/interlayer_beefy_truncated.pth (torch, 369917 bytes, 24 tensors)

_mean f4 [8]
00000000: b3ad 173d a638 e83c 9819 093d e637 f43c
00000010: 8cb1 053d 2454 f83c 1f2a 043d 8a58 fa3c
0.037030887 0.028347325 0.033471674 0.02981181 0.032640025 0.030313559 0.032266732 0.030559797

_inv_std f4 [8]
00000000: 9971 4542 2868 9341 6ced 6b41 4f02 4241
00000010: 9396 2c41 659b 1a41 b9ca 0e41 5048 0441
49.360935 18.425858 14.745464 12.125564 10.786761 9.662938 8.924493 8.267654

bessel_weights f4 [8]
00000000: 0eaa 4b40 6a24 cb40 26be 1741 e2b9 4741
00000010: bdfd 7841 806f 9841 5816 af41 4020 cc41
3.1822543 6.348195 9.483923 12.482882 15.561948 19.054443 21.88591 25.515747

env_sum_normalizations f4 [3]
00000000: b566 a23d b566 a23d b566 a23d
0.07929746 0.07929746 0.07929746

_latent_resnet_update_params f4 [3]
00000000: 0000 0000 0000 0000 0000 0000
0.0 0.0 0.0

per_layer_cutoffs f4 [4]
00000000: 0000 2041 0000 2041 0000 2041 0000 2041
10.0 10.0 10.0 10.0

_weight_0 f4 [20, 16]
00000000: e98c 35bf 1753 7a3e 32c3 24be 9bf8 d13f
00000010: ce49 51bf 02c3 393f 2126 6f3e 2000 b73f
00000020: c6f3 a83d 5b9d 853f 1cd3 b03f 47c2 fc3e
00000030: cfa9 b53e 46ac 66bf 0849 6f3f 4da0 c43f
00000040: 7fa7 f0bd 3d7a c4bf b188 47be a08d aabf
00000050: ee62 fa3d e2fb bebe a14a 153f 33ee a03f
00000060: dae2 4abd 3d90 ffbe 4a18 5a3f 1b96 113e
00000070: 6d53 b1be b913 debf 4469 aa3f 361e 883f
00000080: deb2 41bd 3365 6b3f 1007 9cbf e4b3 b13f
00000090: 1fb2 cf3f cd02 ec3d 4a73 14bf 0635 253f
000000a0: f3d9 853f 2625 253e 748e 493e 34ca 8c3f
000000b0: 16d7 ae3f 5fe3 a0bf 46e1 afbd 4bd5 973d
000000c0: f48d 6b3f c555 333e d9e0 6bbf f3fa 15be
000000d0: b131 b73f dd5a cbbf 4fa5 9c3f 46ce 85bf
000000e0: 922b 953e 8c01 97bf 374f 3ebf 4ee2 533f
000000f0: e58e a13f e2a2 aebe f0f9 bfbe c1ed e53e
00000100: 32dc b4bf 0c65 eebf 0d75 b43e 7b0c 023e
00000110: 210b 933d 2664 8d3e a86c 86be 6e61 b73f
00000120: f509 b3bf 933c 483e 4d15 d2bf 323c 5fbf
00000130: 355b 9cbf 9940 053f e7c4 83bf 3209 ba3f
00000140: 2003 96bf f3fd 453f 1d77 5a3e 2b7f b1be
00000150: bfcd 9f3f 9811 583f 55d5 a63f 2d0f aebf
00000160: 432b 043f f22d dabf 96e5 d2bf 3780 d83f
00000170: 32ae a03f c71d a63f d755 393d 1e52 d5bf
00000180: 44a1 b9bf c67f 41bf 6b72 c4be 6628 0e3f
00000190: 0e60 c63f 3d60 3bbf 6097 1ebf f4ed d7bd
000001a0: bf24 b03f 4ef9 70be 63e3 9e3f 2946 c13e
000001b0: 4e01 c5bd 6300 99bf cef6 b33e af02 f9be
000001c0: 35d7 373f b0f9 143e 90a7 a43e 6ecd a8bf
000001d0: 1361 6cbf ec52 0d3f 0bfc 723f 8c2c c63f
000001e0: ec04 ba3f e552 2b3f 2637 00bf 6e36 b23e
000001f0: e518 f4be 8d1d d63f d91e 0abe c4fa b93f
00000200: d2cd ebbc efbd e9bf 5959 6d3f 3c13 a63e
00000210: f02d 8c3d 3a89 65bf 00cd 013f 1c1c dd3f
00000220: 6213 b73e 2ba8 ef3f 27cd c6bf 7d33 683f
00000230: 1c08 723f 01fa 393e 487a 29be 9066 8f3e
00000240: b5c3 16bf 6c0f bb3e d886 91bd 410d 243f
00000250: 6bc6 86bf f773 73bd 74de 76bf 716c b83f
00000260: e9dd bbbe b14a abbf 8ac3 c23e 1ad9 d5bf
00000270: 16bb 423f 71f3 cc3f 85d2 9f3d 2588 11be
00000280: f462 3f3f 214b 8c3f fe35 cb3f 4f68 5cbf
00000290: 44c4 c03f eecb 943e 015f c03e 3804 a6bf
000002a0: 500d 5b3f fe4d 16bf 7e3e 843b fc76 adbf
000002b0: 6435 c1bf 3173 c0bf c142 783f 29c4 363e
000002c0: 920d 983f b8c9 67bf b3b3 c2bf ff7b 93bf
000002d0: 2528 9f3f cda8 7cbf 9863 893f 2253 29bc
000002e0: c858 983d 0160 893e 802f ba3f 56aa ffbd
000002f0: de85 b4bf 6439 fcbe 054a 6d3f 7451 c8be
00000300: 5c19 f4be f9b6 c1bf 462c d63f 7b56 dbbe
00000310: 9052 b6bf 6d6d 783f b374 48be 204d 5a3f
00000320: ae5d 9f3f a1fc d8be 915f 883f a581 b63e
00000330: 3a60 a6bf 7d92 41bf f73b bdbf 58ea 663f
00000340: 00d6 05bf de7c debf edf0 903f f4d7 583f
00000350: b761 0f3f d92f 9dbf 2afe c43d 9340 5e3f
00000360: d4ef b33f 3c0b c3bf b4d1 73bf cf36 593e
00000370: 8904 b1bf 0880 cd3f 685a a2bf 69f7 81be
00000380: efb1 213f 6488 8b3f 2710 183f 3f6b 1b3e
00000390: dc47 c43f d043 b2be ede6 8a3f 1142 b13f
000003a0: de0b a53f e72a 61bf 079c b7be 4d96 95be
000003b0: e176 a4bf 9e6b c3bf d63a d13f 8e23 b8bf
000003c0: c516 ec3f f075 b2bf c3ee fcbe 073d 9abf
000003d0: 1658 e1bd 24f0 e13d dfb7 1abf a2ea 983f
000003e0: 2e98 8cbf 1d60 d2bf 16e0 1d3f 16b7 aabd
000003f0: 955b 563f 1000 d6bd d760 bfbf 7516 163f
-0.70918137 0.24445759 -0.16090086 1.6403993 -0.8175324 0.72563183 0.23354389 1.4296913
0.08249621 1.0438646 1.3814425 0.49366972 0.35481116 -0.9010662 0.9347081 1.536142
-0.11750697 -1.5349804 -0.19485737 -1.332447 0.122259006 -0.37301546 0.58317 1.2572693
-0.04953275 -0.49914733 0.8519331 0.14217417 -0.3463396 -1.7349769 1.3313375 1.063422
-0.04728972 0.9195129 -1.2189655 1.3883023 1.6226233 0.11523972 -0.5798842 0.6453403
1.0457138 0.16127452 0.19683248 1.0999207 1.3659389 -1.2569388 -0.085878894 0.07413729
0.9201348 0.17513187 -0.92139965 -0.14646511 1.431204 -1.5887104 1.2237948 -1.0453575
0.29134804 -1.1797347 -0.7433962 0.8276719 1.2621733 -0.34108645 -0.37495375 0.44907954
-1.4129698 -1.8624587 0.35245553 0.12700073 0.07179857 0.2761547 -0.26254773 1.4326608
-1.3987414 0.19554357 -1.641275 -0.87201226 -1.2215334 0.52051693 -1.0294465 1.4534056
-1.1719704 0.7734062 0.213345 -0.34667334 1.2484664 0.84401846 1.3033854 -1.3598381
0.5162851 -1.7045271 -1.6476314 1.6914128 1.255316 1.2977837 0.04524788 -1.6665685
-1.4502339 -0.7558559 -0.38368544 0.55530393 1.5498064 -0.7319372 -0.6194973 -0.10543433
1.3761214 -0.23532602 1.2413143 0.3774884 -0.096193895 -1.1953243 0.35149235 -0.4863486
0.71812755 0.14548373 0.3215909 -1.3187692 -0.92335624 0.55204654 0.9491584 1.5482345
1.4532752 0.6692336 -0.5008415 0.34807152 -0.47675243 1.6727768 -0.1348833 1.4529653
-0.028784666 -1.8261088 0.9271446 0.3243655 0.068446994 -0.89662516 0.5070343 1.7274203
0.35756975 1.8723196 -1.5531358 0.90703565 0.94543624 0.18161775 -0.16550553 0.28007936
-0.58892375 0.36535203 -0.071057975 0.64082724 -1.0529302 -0.059436765 -0.96433187 1.4408094
-0.36692742 -1.3382169 0.3803981 -1.6706879 0.7606672 1.6011792 0.07803825 -0.14212091
0.74760365 1.0960428 1.5875852 -0.8609666 1.5059896 0.29061836 0.37572482 -1.2970037
0.8556719 -0.58712757 0.00403577 -1.3551936 -1.5094419 -1.5035154 0.9697686 0.17848267
1.1879141 -0.90542173 -1.521109 -1.1522216 1.2434126 -0.9869507 1.0733519 -0.010334762
0.07438809 0.26831058 1.4545746 -0.12483661 -1.4103353 -0.49262536 0.9269107 -0.39124644
-0.47675598 -1.5133964 1.6732261 -0.42839417 -1.4243946 0.9704197 -0.19575767 0.85273933
1.2450464 -0.4238024 1.0654165 0.35645786 -1.2998116 -0.7561415 -1.4783925 0.9020133
-0.52279663 -1.7381856 1.1323525 0.8470452 0.56008476 -1.2280227 0.096187904 0.8681728
1.4057565 -1.5237803 -0.95241857 0.21212314 -1.3829509 1.6054697 -1.268384 -0.2538407
0.6316213 1.0900998 0.59399647 0.1517763 1.533443 -0.34817362 1.0851723 1.3848287
1.2894247 -0.8795609 -0.35861227 -0.29216233 -1.2848779 -1.5267217 1.634608 -1.438585
1.8444449 -1.3942242 -0.4940091 -1.2049874 -0.11003129 0.11032131 -0.60436815 1.1946604
-1.0983942 -1.6435581 0.61670053 -0.08335702 0.83733493 -0.10449231 -1.4951428 0.58628017

_weight_1 f4 [16, 32]
00000000: eb1d f83e 605a f93b 7dcc 633f ad86 d4bf
00000010: 0d0e a6bf de45 b43e 748e b0bf 797d 88bf
00000020: 1a28 513e 0aca 203f 25eb b9be 6cd9 25be
00000030: 98c6 1ebf f4ce ca3f 9e6c 6bbf 77ac b23f
00000040: e577 c33f 0b3d c43f 54e1 233f 4f30 7d3e
00000050: 8f48 5bbe 2b5c 82bf bc81 313e aeb6 acbf
00000060: c8f6 a73f 9d83 2fbf cc1b 95bf d874 36be
00000070: ac38 b33e e907 80bd 1e99 cdbf fe1a 243e
00000080: 9fca db3f 5e1d b2bf 5d7a cdbf a7f4 3b3f
00000090: f462 96bf 5fe8 e1bf d602 15be 0d4b 2dbf
000000a0: 0928 393e e0db 483f fe20 a93e ecb1 8b3f
000000b0: 6636 8f3e 9971 563f 2c4c 2c3f a379 ac3e
000000c0: c680 bc3e 9796 93be 3526 6abf a5b3 acbf
000000d0: 8924 c2be 4fd1 4cbf 06c6 853e e35f 87bf
000000e0: 7224 3fbf bbe3 1c3f d213 f0be 04a2 623e
000000f0: e5f2 67be dfd0 87bf 531c 073f fd0c f73e
00000100: 637d f63d b15b 0a3f 9e27 9abe 9603 a33f
00000110: f66c 633f 4161 b83f a6ad e8bd 817c ddbf
00000120: b3d1 c83f cd67 76bf d51c 9dbf e9bb a83f
00000130: 52fe cc3f 9c43 83bf a05c c23e 9e50 ed3e
00000140: 19ec 323f 220b 453e 49fa e9be 10fa 7f3f
00000150: cec2 9dbf 7d91 943f 4d29 34bf 9f92 793f
00000160: 5741 b23f 0ffe 48bf 75bb a6bf 2ea8 b1bf
00000170: dea8 903e 2983 9c3e caa9 5abe 7eec 7ebe
00000180: 914e 4e3f 2a44 903f 0cae e03f febb 873f
00000190: 95bf b6bf 4769 a2bf c4af 5abf 953a 28bf
000001a0: 7106 2abf 2e82 913f 0f93 09bf 74f4 973f
000001b0: 0c11 ecbe 7503 bdbf 5f9b 7f3f 6b24 8abf
000001c0: 5f1a c33f 781f 063f 09c2 50bf 8ef8 1b3f
000001d0: ef7c c83f 72cb a43f ac57 753d 6cf7 3fbf
000001e0: d1c7 9b3f ac98 c5bf b608 8f3e 77d9 a53f
000001f0: b0f7 aebf 3ba8 b3be d89e 66bf 20eb 983f
00000200: f863 7dbf e2ff 0fbf 7fae 8e3d 477a 333f
00000210: 6fbf 55bf 3779 e73e 1f2b 1e3e b724 9fbf
00000220: e9b0 8a3f 28a0 1a3f 91ac 7c3f 4975 883f
00000230: 5364 ccbe ceaf d9be 852e 723f 4163 60bf
00000240: 3de2 593e 2078 18be 151d e93d f5eb bf3f
00000250: a9eb 8e3f 0ab1 cebf f98b 3cbe 3ed8 b73f
00000260: 901c f8be 595a a43f 999b 31bf 1076 3dbf
00000270: 3a49 4b3f 68ee 7abd d19f 40bf 71b5 d53d
00000280: 87ef d8bf 9a58 bb3f d859 ac3f 0a3f 6bbf
00000290: 6718 d33f b99e b63e b14f 693e 486d de3e
000002a0: f3c4 d93f ebe5 aabf a493 90bf 7938 c33e
000002b0: 2ff2 b2bd 5023 c7bf 8712 f5be 4a59 2cbf
000002c0: f64c 7f3f 53f2 a33f 5093 813f a22d bf3f
000002d0: 0bee 24bf 8fc8 80bf 91da dabe f98c abbf
000002e0: 1a97 933f 71fe 303f 3aae c83d 4e82 d73f
000002f0: c852 883e 05ff 1c3f 05e9 e5be 1c02 9b3c
00000300: 8208 46bf c314 e83d af93 dabf 7329 9a3f
00000310: eb4a 88be 2c44 28be 66f1 bdbf 3824 73bf
00000320: 4d1f 5cbf 49e7 dfbd 6f88 9f3f f1f8 e7bf
00000330: ba5e 23bf 4997 b8bf a483 92bf 31d3 d0bd
00000340: 3d1f 39bf 887d d3bf 7e31 b93f cd58 203d
00000350: 0553 073f e4a4 ac3f 9f4d 8bbf 064e c2bf
00000360: 9867 95bf 409e 5bbf c7c8 113e c77c 21bf
00000370: 009b eabe c626 0440 f6ac adbf 70bc d83e
00000380: 1f18 8dbf e653 67bf 409e 9e3f 2baa ac3f
00000390: a1bb a7bf 82c6 78bf bd87 ec3e 5e0d ca3f
000003a0: cd17 0cbf ac54 d0bf a365 c83e 6413 debf
000003b0: 0725 b5bb 648d 903f bc90 673f 4655 e73e
000003c0: e20e 473f 2c6d bc3f aebd e13f 4192 da3d
000003d0: 2b92 1a3f fa0c 86be 61d2 26bf 6dc9 a2bf
000003e0: 881d af3f 07b1 c43f c8b8 bcbf 45c7 0ebe
000003f0: e393 adbf e6f3 39bf db39 8a3e aea6 303f
0.48460326 0.0076096505 0.889839 -1.66036 -1.2973038 0.35209554 -1.3793473 -1.0663291
0.20425454 0.6280829 -0.36312214 -0.16196221 -0.6202178 1.5844407 -0.9196261 1.3958882
1.5270964 1.5331129 0.640157 0.2472546 -0.21414398 -1.0184377 0.17334646 -1.349325
1.3122187 -0.685602 -1.1649108 -0.1781801 0.35004175 -0.06251509 -1.6062353 0.16025922
1.717121 -1.3915212 -1.6052967 0.73420185 -1.1748948 -1.7649039 -0.14551863 -0.67692643
0.18081678 0.784605 0.33032984 1.0913672 0.2797119 0.83767086 0.6730373 0.3368655
0.36816996 -0.28825828 -0.9146455 -1.3492323 -0.379185 -0.8000688 0.26127642 -1.0576137
-0.74664986 0.6128499 -0.46890122 0.22132117 -0.2265125 -1.0610617 0.52777594 0.48252097
0.12035634 0.5404616 -0.3010835 1.2735469 0.88838136 1.440468 -0.11361246 -1.730362
1.5688995 -0.9625214 -1.2274424 1.3182346 1.6015112 -1.0255008 0.37961292 0.4635057
0.69891506 0.19242528 -0.45698765 0.9999094 -1.2325075 1.16069 -0.7037552 0.9748935
1.392619 -0.7851266 -1.3025957 -1.3879449 0.28253835 0.30568817 -0.21353832 -0.24894902
0.8058863 1.1270802 1.7553115 1.0604246 -1.4277216 -1.2688378 -0.8542445 -0.6571439
-0.6641608 1.1367853 -0.5374002 1.1871476 -0.46106756 -1.476668 0.9984645 -1.0792364
1.5242423 0.5239177 -0.81546074 0.6092614 1.5663127 1.2874587 0.059898064 -0.7498691
1.2170354 -1.5437217 0.27936333 1.295699 -1.3669338 -0.35089287 -0.90086126 1.1946754
-0.98980665 -0.5624982 0.06966876 0.70108455 -0.8349523 0.45209667 0.15446137 -1.243308
1.0835239 0.6040063 0.98700815 1.0660793 -0.3992029 -0.4251694 0.94602233 -0.8765145
0.2127771 -0.14889574 0.113825 1.4993883 1.1165668 -1.6147778 -0.1841277 1.4362867
-0.4845929 1.2840072 -0.6937805 -0.74008274 0.7940861 -0.06126252 -0.7524386 0.10434998
-1.6948098 1.4636414 1.3464918 -0.91893065 1.6491822 0.3566797 0.22784306 0.4344275
1.7013229 -1.3351415 -1.1295056 0.38129023 -0.08737599 -1.5557652 -0.47865698 -0.67323744
0.9972681 1.2808326 1.0123081 1.4935801 -0.64425725 -1.0061206 -0.42744878 -1.3402396
1.1530488 0.69138247 0.09798856 1.6836641 0.26625657 0.6132663 -0.44904342 0.018921904
-0.7735673 0.11332085 -1.707632 1.2043899 -0.26619658 -0.16432256 -1.4839294 -0.9497714
-0.8598526 -0.10932786 1.2463511 -1.8122846 -0.63816416 -1.4421169 -1.1446424 -0.101965316
-0.7231329 -1.6522684 1.4468229 0.039147187 0.5286105 1.3487821 -1.0883063 -1.5180061
-1.1672239 -0.85788345 0.14236747 -0.6308102 -0.4582138 2.0648665 -1.3568408 0.42331266
-1.1022986 -0.90362394 1.2392044 1.3489431 -1.3104135 -0.971779 0.4619731 1.5785329
-0.5472382 -1.627584 0.39140043 -1.7349668 -0.0055280956 1.1293149 0.9045522 0.45182246
0.77757084 1.4720817 1.7636011 0.10672427 0.60379285 -0.26181775 -0.6516476 -1.271772
1.3680887 1.5366524 -1.4743891 -0.13943203 -1.3560756 -0.72637784 0.26997265 0.69004333

_weight_2 f4 [32, 64]
00000000: 53fc 27bf 5f46 c23f a2c3 983e 228a 013f
00000010: 82d7 e33f 16f5 bf3f 7db9 d5bf 2cb3 57be
00000020: c5da d6be b2fd 003e e9bc 1d3f 0f64 433f
00000030: 6959 72bf b5db 543e dea5 db3e 139a 9abf
00000040: fb28 91be ab3e a23f 9cc4 b53e 74bb b3bf
00000050: 40a5 173f b4fa cebf 5e6a b83f d1e7 6abe
00000060: 3c54 bcbf 94e9 c5bf 8ea4 cd3f 8948 1ebe
00000070: 4b31 b63f 2b61 733f c926 70bf cb0a d6be
00000080: 5893 203f 0732 993f 0e95 b1be ad9f b6bf
00000090: 06bd 87bf e821 7c3f be97 d3be 3750 fabd
000000a0: 5fce bd3f ddd5 9abf 0ed0 e23e 1fb0 c0bf
000000b0: 42e2 a63f 0592 a5bf 29e6 5d3f a65f bc3e
000000c0: 2237 ad3f 1d50 fdbe f69a aebf 0137 5abf
000000d0: c481 353e ee2f 68bf c1e7 dabe 108b 5bbf
000000e0: a681 58bf 25e8 a83e c804 573f f9ac e13f
000000f0: b877 2f3e d704 7d3f b01b 9ebe c956 8cbf
00000100: 2c93 f0be e225 90bf bcb7 d33f a537 91bf
00000110: a0ed 5ebe 5169 65bd 550d ca3f d555 9a3f
00000120: 85a2 6b3f 5d22 e83d cf40 c7be 3fc2 cbbf
00000130: a15f 04bf 36ea 823e b95e 143e af6f 5cbf
00000140: 4d05 cd3e 0149 a0be d244 6ebf c47a 8fbf
00000150: 5ee6 8c3f 35bc 16bf 49c5 c23e a237 a73f
00000160: 58dd a63f 39da f43d b3be acbf d298 a63f
00000170: 00e5 a33f 2792 20bf 5d2c 533f 018e 89be
00000180: 571c 9e3e 973a d73f c38d ee3e d5a9 8b3f
00000190: 561c 2cbf 4403 8dbf 0713 fd3e 6b5e 0abf
000001a0: 4021 b33f 3198 50bf 8755 843f a1e9 973d
000001b0: 4075 683f 1be8 76bf 6359 873e 7fe1 683f
000001c0: 4655 653f 3fda c4bf 34ba c8bf c789 59bf
000001d0: 64c8 823f bfb6 12bf 5009 b6bf 5e25 b8be
000001e0: ffca c23b 28dd 85bd 6f3f 4fbf 7064 81bf
000001f0: f8d8 d33e 141b a5bf e32f 183f a6b0 1bbf
00000200: d08c c4bf 5f0a 1f3f 99ad 21bf 84c3 a8bf
00000210: af66 a3bf 593a 8dbf ada0 b93f 4b31 ddbf
00000220: 0111 e43e 54f0 5d3e 0bf1 51bf 58ea cd3f
00000230: 52e2 45bf 199b a93f b84f 4f3f ce4b 8a3f
00000240: 1af8 f5be f95f 833e 8eb7 a43f ccbb 60bf
00000250: dffa 853f 203b d4bf ca3d b1bf f3e6 52bf
00000260: a96b 333d 58e4 a33f 0f40 913f 84b0 d1bf
00000270: fc38 103f 24a1 d6bf 935f c83f 1315 5fbf
00000280: ae08 d83f c0d0 16bd 70a0 8a3f dde8 c03f
00000290: 7135 cfbf 51cf 1fbf 3c5b 3bbf fe5b a9bf
000002a0: 6b72 c3bf db40 653d f0b3 4dbf a62b c0bf
000002b0: fa4e 82be b0b7 5ebe eca5 66bf 13ed bdbf
000002c0: 65d4 9ebf 095c 11bf e9b3 5cbf e9d0 92be
000002d0: 9c6e 4a3f 5cd9 703e 6727 bd3f bde5 f03e
000002e0: 28f9 9fbf 051f 203d 6b4d b8bf 16bd 56be
000002f0: 75c9 a1bf 1c00 aabf 9461 bebf 6b5f e2be
00000300: 29e6 0a3f 8ea1 b0bf 39af a5bf 53ad 843f
00000310: 59c9 58bf 4a5d 9abe 8a02 983e ed87 c6bf
00000320: 8478 813e 8943 a4bf 0749 433f 5e95 81bf
00000330: 0aad 7dbf 66a2 953f a48b 8dbf d1dc 143e
00000340: ea22 903d 7a4f cebf b7ac 41bf fee3 40bf
00000350: 1e58 9f3f be88 d83f abca e4bf 547f 71be
00000360: 20eb 163f 985b 58bd d59b 86bf 16d6 d83f
00000370: 4c79 09bd 0285 07bd abb5 c3bf fee6 ca3d
00000380: e07b 0abf cae6 0abe 8bb1 c2bf 2cfa 45be
00000390: c8b7 b4bf 4ed4 cbbe e37b 883f 326e dd3f
000003a0: 455e e43d 370e f9be 1f06 373f 54bc 90bf
000003b0: befe dbbf 33a9 323e 7b59 a03f e8f4 90be
000003c0: 454e 673f f347 6a3f aa2e d73f 20c1 63bf
000003d0: 29c9 323f a28f 90bd fbc2 85bf 52f0 873f
000003e0: 2e32 01bf 7b1c c4bd df3f da3e 261d e4bf
000003f0: 79a3 bc3e 8c3c 63bf 031b 02bd 0612 b93f
-0.6561939 1.5177726 0.29836756 0.506014 1.7800143 1.4996669 -1.6697232 -0.21064442
-0.41963783 0.12596777 0.6161638 0.7632455 -0.9466768 0.20786937 0.42899984 -1.207827
-0.28351578 1.2675375 0.35501564 -1.4041581 0.59236526 -1.6170259 1.4407461 -0.22939993
-1.4713206 -1.5461907 1.6065843 -0.15457357 1.4233793 0.9507014 -0.9380918 -0.4180511
0.6272483 1.1968392 -0.34684032 -1.4267479 -1.060456 0.98489237 -0.41326708 -0.12222331
1.4828604 -1.2096516 0.44299358 -1.5053748 1.3037798 -1.2935187 0.8667932 0.36791724
1.353245 -0.49475184 -1.364104 -0.8524018 0.17725283 -0.90698135 -0.4275494 -0.8575907
-0.8457283 0.32989612 0.8399167 1.7630912 0.17135513 0.9883551 -0.308805 -1.0963985
-0.46987283 -1.1261561 1.6540446 -1.1345106 -0.21770334 -0.05600864 1.5785319 1.2057444
0.9204486 0.11334679 -0.38916633 -1.5918654 -0.5170842 0.25569314 0.14489259 -0.86107916
0.40043107 -0.31305698 -0.9307376 -1.120934 1.1007802 -0.5888093 0.38041142 1.3063853
1.3036299 0.11955685 -1.3495697 1.3015387 1.280426 -0.6272301 0.8248957 -0.26866153
0.30880997 1.6814755 0.4659253 1.0911204 -0.6723074 -1.1016622 0.4942858 -0.5405032
1.3994522 -0.81482226 1.0338601 0.07417608 0.9080391 -0.96447915 0.26435384 0.9096908
0.8958324 -1.5379103 -1.5681825 -0.84975857 1.0217404 -0.573101 -1.4221592 -0.3596601
0.005944609 -0.06536323 -0.80956167 -1.0108776 0.41376472 -1.2898889 0.5944807 -0.6081642
-1.5355473 0.621252 -0.63155514 -1.3184667 -1.2765712 -1.1033431 1.4502159 -1.7280668
0.44544223 0.21673709 -0.8200843 1.6087141 -0.7729846 1.3250457 0.80981016 1.0804384
-0.4804085 0.2565916 1.2868516 -0.87786555 1.0467185 -1.6580544 -1.3846982 -0.8238365
0.043803845 1.280406 1.1347674 -1.6381993 0.5633695 -1.6767926 1.5654167 -0.8714153
1.6877649 -0.036820173 1.0830212 1.5071064 -1.6188184 -0.62425715 -0.7318609 -1.3231199
-1.5269293 0.055970054 -0.8035269 -1.501332 -0.2545088 -0.21749759 -0.90096927 -1.4837974
-1.2408568 -0.5678106 -0.8621202 -0.2867501 0.79075027 0.23520416 1.477765 0.47050276
-1.2497911 0.039092083 -1.4398626 -0.20970568 -1.2639605 -1.3281283 -1.4873528 -0.44213423
0.54257447 -1.3799303 -1.2944099 1.0365394 -0.8468223 -0.301493 0.29689437 -1.5510231
0.2528726 -1.283311 0.76283306 -1.0123708 -0.9909216 1.1690185 -1.105824 0.1453736
0.07037909 -1.6118004 -0.75654167 -0.7534789 1.2448766 1.691673 -1.7874349 -0.23583728
0.5895252 -0.052821726 -1.0516306 1.6940334 -0.033562943 -0.03308583 -1.5289816 0.099073395
-0.5409527 -0.13564602 -1.5210432 -0.19333714 -1.4118586 -0.39810413 1.0662807 1.7299254
0.11150793 -0.48643658 0.71493715 -1.1307473 -1.7187116 0.17447357 1.2527307 -0.2831185
0.90353805 0.91516036 1.6811116 -0.8896656 0.69838196 -0.07058646 -1.0450128 1.0620215
-0.50467193 -0.09575745 0.42626855 -1.7821395 0.3684347 -0.8876426 -0.03176404 1.4458625

_weight_0 f4 [80, 64]
00000000: 61bd b03d a58d ca3d 0223 a6be bd67 aabf
00000010: 5f1a 363f 8358 1b3f 9c7d 12bf 800d d23e
00000020: 23c3 a1be 0469 8c3f 5a42 8abf b77f 9f3f
00000030: a50f 7e3f d156 babf 6115 9c3d 1d6a 0abf
00000040: 761f a4bf 0b11 bc3f 7c77 993f be24 3bbf
00000050: a02c 8d3f 35b0 553f f5dc 92bd c08d 5f3f
00000060: fadc 933e a9f2 9ebf 95f7 85bf 74a8 32be
00000070: 19f1 5b3e b454 8fbf 0ecb c3be 24ce c4bf
00000080: b768 b53e 5be6 38bf 60df ac3c 9c02 d93f
00000090: 9c5f 68be 8c9b d03f 3042 683f 971f 60bf
000000a0: 3827 b53f 7280 cc3f f718 1c3d 8513 a23f
000000b0: f9b3 913e b12a 33bf 1a41 e03e 461c 3bbf
000000c0: 9893 2a3e ff25 d53f 7a2a 33bf 1e76 6c3f
000000d0: fcc0 b43f c2a3 4bbe cc70 d8bf 6a5e 7dbe
000000e0: 86a5 b13e 5dde aa3f 14c6 b73f b4dd 95bf
000000f0: 860c c9bf cc0c cc3f ae39 9ebe bc83 58be
00000100: 6493 90bf b161 073f a16b 173f bd14 b3be
00000110: 915c 5b3f 913b 993f 04bb c7bf b9f2 c0bf
00000120: 94a4 193f ea52 35bf 022a 0abf 2f7e 9dbf
00000130: 8d6a 053e 3ac0 983f a476 b4bf 5bc8 953e
00000140: 1551 22be 4291 5c3d 866f 34bc c599 ab3f
00000150: 0072 13bf 4133 b93e af28 dbbf 0a74 56bf
00000160: 14c5 8dbf e1af 313e 74e6 a63f 1245 953e
00000170: 9446 1b3f 4505 c13f c666 a73e 002c 92bf
00000180: 7dd7 82bf 14a1 c13f 7998 a6bf d7f8 abbf
00000190: 9e63 ab3f 7bc6 42be c6b2 e4be f952 1a3f
000001a0: c414 39be e805 b13f 2935 abbf 75a5 013f
000001b0: 2f41 4fbf 4112 1e3f c36c 9a3e db63 c2bc
000001c0: 4c14 96bf c92e 8fbf aaa6 4cbf 3f90 703f
000001d0: 672e acbf 4b5c 8abe ecd6 a7be 7700 19be
000001e0: e370 47bd 3709 d7bf 8bfe f13e d325 043f
000001f0: 36a4 183f 0705 af3f f1e1 0f3f 36f9 f53e
00000200: d177 9c3f 3a96 bfbf 27a5 d0bd eab9 d9bf
00000210: a84a 9ebf 4406 b63d 4a02 a03d 0fb3 c73f
00000220: 29f8 b33f e846 993f cb01 8cbf 87ab 8dbf
00000230: 59dc b3bf e23a 2a3f 1996 963f e95a e3be
00000240: a7a3 7bbf f807 b63f 4927 66bf a3ad d53f
00000250: c7aa 88bf 7a73 c8bf fefc d13e 071d acbf
00000260: 3da9 dbbf 998f 853f 9d63 46bf 7a81 c03f
00000270: 2370 7b3d ff82 4e3f dff7 8b3e 238d a5bf
00000280: aabd ce3f 5377 25bf 4de1 cc3f 56f3 febd
00000290: d189 debf 780b 52bf 75b4 7a3f 2de1 acbf
000002a0: 4c47 d83f c32d 6f3f ec89 78bf 582b 45be
000002b0: f607 d23f c550 4d3e 115c 60bf abbf bfbf
000002c0: 8fb6 ad3f 724c 66bf eca6 67be 9b5e b6be
000002d0: 6095 59bf fab1 0c3f ed0a 52bf e05f b8bf
000002e0: 3a02 cebe accf c23f b81b 8f3c 00d4 023f
000002f0: 864e a9bf d07a c0bf fc53 44bf 705e db3f
00000300: 80a9 5c3f 2bcd 8b3f 988d 6cbd 4b6f 643f
00000310: 0a1e 803f ccc9 adbe 15ed 083f 22da ef3d
00000320: 276c f7be 1948 9d3c cb9c 1abf f2ef ba3f
00000330: 701b ab3f 5874 5a3e 50bd 82bf c2eb 903f
00000340: 2346 bebf 314e edbf c973 cf3f a978 bb3f
00000350: 66ac 303f 6991 a93f 0e50 b63f c820 d33f
00000360: acf1 e4be 53b1 71bf 9a82 c93f ed38 9b3e
00000370: 086c 5e3f 887a 5a3e bc34 ba3f 345e 21bf
00000380: 368c b83f 8c11 5c3f 4cbe 8f3d acfa 023f
00000390: 9471 c73f e84b e03f cf26 8d3e 6825 a5bf
000003a0: fa6e 593f d5de 743e 18cb f4be 83a7 9fbf
000003b0: 5309 c23f a959 91bd 4f9e 93bf 85e4 64bf
000003c0: bb6d debf aa37 2dbf 9c10 2f3f 172a 91bf
000003d0: bd42 c93e 8193 babd 08f2 db3f 7665 b8bf
000003e0: 245d 9c3f 9cde b0bf 1759 b83f bb48 313f
000003f0: fe0b ab3f a4e3 623f cdf6 df3f 35d5 a4bf
0.08629871 0.09890298 -0.32448584 -1.3312908 0.7113399 0.60681933 -0.57222915 0.41025925
-0.3159419 1.0969548 -1.0801499 1.246085 0.9924262 -1.4557744 0.07621265 -0.54068166
-1.2822101 1.4692701 1.1989589 -0.7310294 1.1029243 0.83471996 -0.071710505 0.8732567
0.2887953 -1.2417804 -1.0466181 -0.17447072 0.2147869 -1.1197724 -0.38240856 -1.5375409
0.35431454 -0.72226495 0.021102607 1.6953921 -0.22692722 1.6297469 0.90725994 -0.875482
1.4152594 1.5976698 0.038109746 1.2662207 0.2845762 -0.69987017 0.4379967 -0.73090017
0.16657865 1.665222 -0.6998669 0.9236773 1.4121394 -0.19886687 -1.6909423 -0.24743047
0.34696597 1.334911 1.4357324 -1.1708283 -1.5706947 1.5941405 -0.3090338 -0.21144003
-1.129498 0.5288344 0.59148604 -0.3497676 0.8568812 1.1971303 -1.5603948 -1.5074073
0.6001675 -0.7082964 -0.5397035 -1.2304133 0.13028927 1.1933663 -1.4098706 0.29254422
-0.15851243 0.053849466 -0.011012917 1.3406302 -0.57595825 0.36171916 -1.7121791 -0.8377081
-1.1075768 0.17352249 1.3039079 0.2915426 0.6065457 1.5079733 0.32695597 -1.1419678
-1.0222012 1.5127282 -1.3015281 -1.3435315 1.3389776 -0.19021027 -0.44667643 0.60282856
-0.18074328 1.3829927 -1.3375598 0.5064309 -0.8095884 0.61746603 0.30161104 -0.023729255
-1.1724944 -1.1186153 -0.7994181 0.939701 -1.3451661 -0.2702354 -0.3278116 -0.14941584
-0.04869164 -1.6799687 0.47264513 0.51620215 0.59625566 1.3673409 0.56204134 0.48041695
1.2224065 -1.496772 -0.1018775 -1.7009861 -1.2366533 0.08887914 0.078129366 1.5601519
1.4060107 1.1974764 -1.0938047 -1.1067971 -1.405162 0.664961 1.1764556 -0.44405296
-0.9829659 1.4221182 -0.89903694 1.6693615 -1.0677117 -1.5660241 0.4101333 -1.3446358
-1.7161022 1.0434448 -0.7749575 1.5039513 0.06138624 0.80668634 0.27337548 -1.2933697
1.6151631 -0.646352 1.6006256 -0.124487564 -1.7385808 -0.8204875 0.97931606 -1.3506218
1.6896758 0.934292 -0.9708545 -0.19254816 1.640868 0.20050342 -0.8764048 -1.4980367
1.3571337 -0.89960396 -0.2262227 -0.35619053 -0.84993553 0.5495907 -0.8204792 -1.4404259
-0.40236074 1.5219626 0.017469272 0.51104736 -1.3227088 -1.5037479 -0.7669065 1.7138195
0.86196136 1.0921987 -0.05775222 0.8923232 1.0009167 -0.3394302 0.5348676 0.117115274
-0.483247 0.019199418 -0.603955 1.4604475 1.3367748 0.21333444 -1.0214024 1.1321948
-1.4865154 -1.8539487 1.620721 1.4646198 0.6901306 1.3247501 1.4243181 1.6494379
-0.4471563 -0.944112 1.5742981 0.30316868 0.8688359 0.21335804 1.4547343 -0.6303437
1.4417789 0.85964274 0.07018718 0.51163745 1.5581536 1.7523165 0.2756867 -1.290204
0.8493496 0.23913129 -0.47811198 -1.2472996 1.5159096 -0.070971794 -1.1532687 -0.89411193
-1.7377237 -0.6766306 0.6838472 -1.134097 0.3930873 -0.091101654 1.7183237 -1.4405963
1.2215924 -1.3817935 1.4402188 0.692516 1.3363035 0.886286 1.7497193 -1.2877566

_weight_0 f4 [80, 64]
00000000: 0287 f43e b7bf 7f3f 7e64 ce3e 9f41 85bf
00000010: 0760 023f f275 d9bf 9180 b53f dee0 35bf
00000020: f91d 123f 79f1 c9bf 5cae 373f 7536 993f
00000030: ccd4 ae3f 1086 99bf 6248 763f 5408 f9be
00000040: fd2f d0bf 282c a7bf 8e9e c9bf 08f2 163e
00000050: 217b 933f b1c4 383f 1592 0cbf d03b 95bf
00000060: 6009 8fbf dde4 82bf 1078 9abf 52f1 a83f
00000070: f36e ffbe c884 60bf d0b6 9cbf 684b 6d3f
00000080: 9f84 9cbe 5038 e5be 09ae 733f 0e9f 3f3e
00000090: a90d debf 5a68 50bf 09a2 9b3c 1d79 02bf
000000a0: 4bf9 c33f 62d8 d33f 3407 95bf 9a5f 1fbf
000000b0: 01dd 6a3f 2464 01bf 1106 39bf 7622 9e3f
000000c0: 15c3 35bf 937d 94bf 179c aa3d 2970 cfbf
000000d0: 438b a0ba 8a5b c6bf 83ee a33e 6a87 c6bf
000000e0: 7eb0 b93e 3e1b 573f 28ce b63f 9cd7 69bf
000000f0: de20 803f 173b 7e3f 11af 733d 5810 b8bf
00000100: 1d78 883e 305f 24bf 4c11 97be b974 8cbf
00000110: 402f 3bbf f4ee 223f 39ac d2bf db73 a6be
00000120: 519e 51bf f161 d1bf 887f 153a 54dd 803f
00000130: 36b4 ec3e ba01 28bf 7f2c ab3e 5877 e1be
00000140: e649 c7bf a325 7bbf a60a 8f3f 8143 0ebf
00000150: b87b da3f ff76 c33f f741 d53f 6b2e 353f
00000160: bfd3 13bf ea7e cc3f bb7f aabf fb9a f8be
00000170: 86af 573f 5da1 8d3f e34b 0abf 2953 3fbf
00000180: 2da9 98bf 9c16 00bf 42b1 8d3f 8788 69bf
00000190: a4f7 88bf 8f78 bbbf a7d3 cc3f de0a 11bf
000001a0: f458 73bf f007 3d3f 0f41 91bf bdbe 95bf
000001b0: fa2e e7be d064 2d3f c88a 90be cf28 233f
000001c0: 665c 9a3f 5f6f 83bf 5ec3 a03f 3822 303e
000001d0: 6148 2b3f a5ab 9abf 7848 74be cf7f bd3f
000001e0: 5a68 debf fadb 9bbf 464b 2abf 9450 97bf
000001f0: 3978 873f 461e 5ebf b033 d23f e161 0a3f
00000200: e7bd 94bf 042e 353f f199 aa3f 58e1 69be
00000210: 1dcc aebf 1221 9dbf 290d 26bf bf59 9fbf
00000220: 9e8d a5bf 614e e1be dcff b43e 9efc bcbf
00000230: fa0d abbf 202a d4bf 2f80 e2bf 31c6 d2bf
00000240: 8d31 223f 5103 a2bf 8a87 7a3f 663e e33f
00000250: 70b3 fb3f 9962 133f f43f a33f f349 92be
00000260: 5768 99bf 2489 eebe bc6d 813f affb 383f
00000270: 491d 85bf 0283 5bbf e678 873f 5504 993f
00000280: 2d02 a23e e1c9 76bf 84fa 0dbf e338 d93e
00000290: 2520 f6be 34b7 b63e 1ab3 a7bf a7de acbf
000002a0: 6507 933d 4a84 f53d c1dd 86bf 4813 92be
000002b0: 776a 9d3f 585f f5be 19c7 1e3f b280 babf
000002c0: 3042 24be 32ac a13f f3ce f6be 317a 553e
000002d0: f86d 11bf b168 9bbf d02d 8c3f 4b84 c73f
000002e0: aa81 c73f 1d73 a63e b17d 6ebe 6800 b0be
000002f0: 8088 3e3f 940b 593f dabb 21bf 3cf0 06be
00000300: f4aa 953f d4c8 d13f 1e65 543f 28c5 94be
00000310: 5ebc 3fbe 0d95 4ebf a10b d9bf 182f b4be
00000320: dacb bebf 53a6 643f b602 913f 301b 09be
00000330: 4350 85bf e52f 423f b5f3 9dbf 55d8 4e3f
00000340: 05d0 26be 965d 4a3f b720 673f 0ad4 93bf
00000350: 2e45 883f 3a6d 6ebf d782 b63e 6891 e3be
00000360: 954b 5dbf 1c82 ca3e 71aa 45bf 75ac cc3f
00000370: fc6c eabf d5e4 5abf 0863 91bf 672d c33f
00000380: b15e 823e 17a4 103f 1b25 ff3c 1c26 2dbf
00000390: c8db d9bf 0d6d e13d 71af 56bf f41c 393e
000003a0: 3019 bd3f 9c6f af3e c60d bdbd d87b b4be
000003b0: a941 34bf b4b3 b6bf d8c6 12bf 22ca e63f
000003c0: e33d 963f ad1b 77bf 692d fe3c 78ec 733f
000003d0: 20d7 8cbf 0f48 9b3f 498d ba3f 7189 8f3f
000003e0: d828 593f 113e c0be bb7a b63e 8c37 f03e
000003f0: 23bf e8bf 9f0d d1bf dc12 a73f f3b1 1a3f
0.47759253 0.9990191 0.40311044 -1.0410651 0.50927776 -1.6989119 1.417986 -0.71046245
0.57076985 -1.5776817 0.71750426 1.1969744 1.365869 -1.1994038 0.962042 -0.48639166
-1.6264645 -1.306035 -1.5751512 0.14740765 1.1521951 0.7217513 -0.54910403 -1.1658878
-1.1174736 -1.0226094 -1.206789 1.3198645 -0.49889335 -0.8770261 -1.224329 0.92693186
-0.30569932 -0.44769526 0.9518743 0.18713018 -1.7347919 -0.8140923 0.018998163 -0.50966054
1.5310453 1.655041 -1.1642823 -0.6225525 0.91743475 -0.5054343 -0.7227488 1.2354267
-0.71000797 -1.1600822 0.08330553 -1.6206104 -0.0012248534 -1.5496686 0.32017908 -1.5510075
0.36267465 0.84025943 1.4281664 -0.9134462 1.001003 0.99308914 0.05949313 -1.4379988
0.2665414 -0.64207745 -0.29505384 -1.0973121 -0.7311897 0.63645864 -1.6458808 -0.32510266
-0.81882197 -1.6358014 0.00057029026 1.0067544 0.4623124 -0.65627635 0.33432385 -0.44036365
-1.5569427 -0.98104304 1.1175125 -0.5557175 1.7069006 1.527069 1.6660756 0.70773953
-0.57744974 1.5976231 -1.332023 -0.4855574 0.842522 1.1064869 -0.54022044 -0.7473627
-1.1926628 -0.500345 1.106972 -0.9122395 -1.0700574 -1.4646167 1.6002091 -0.56657207
-0.95057607 0.73840237 -1.1347979 -1.1698834 -0.45153028 0.6773195 -0.28230882 0.63734144
1.2059448 -1.0268363 1.2559621 0.17200553 0.66907316 -1.2083632 -0.2385577 1.4804629
-1.7375596 -1.2176507 -0.6652111 -1.1821465 1.0583564 -0.86764944 1.6422024 0.540556
-1.1620454 0.7077334 1.3328229 -0.22839868 -1.365604 -1.2275717 -0.6486383 -1.2449263
-1.2933843 -0.4400511 0.35351455 -1.4764593 -1.336364 -1.6575356 -1.7695369 -1.6466733
0.6335686 -1.2657262 0.97863066 1.7753417 1.9664135 0.57572323 1.2753892 -0.28572044
-1.1984967 -0.46589005 1.0111613 0.7225904 -1.0399562 -0.8574678 1.058377 1.1954447
0.31642285 -0.9640179 -0.5546038 0.42426214 -0.480714 0.35686648 -1.3101532 -1.3505448
0.07179145 0.11988123 -1.0536424 -0.28530335 1.2298115 -0.47924304 0.6202255 -1.4570525
-0.16040874 1.2630675 -0.48204765 0.20847394 -0.56808424 -1.2141324 1.0951481 1.5587248
1.5586445 0.325097 -0.23290135 -0.3437531 0.7442703 0.8478329 -0.63177264 -0.1317758
1.1692796 1.6389413 0.8296679 -0.29056668 -0.187242 -0.80696183 -1.6956674 -0.3519218
-1.490596 0.8931629 1.1328952 -0.13389277 -1.0415119 0.7585433 -1.2339998 0.80798846
-0.1629029 0.7904905 0.90284294 -1.1549084 1.0646112 -0.93135417 0.35646698 -0.44446874
-0.86443454 0.3955239 -0.772132 1.599013 -1.8314509 -0.8550542 -1.1358347 1.5248231
0.2546287 0.5650038 0.031145623 -0.67636275 -1.7020197 0.11007128 -0.8386145 0.18077451
1.4773312 0.3426484 -0.09231143 -0.35250735 -0.7041269 -1.4273591 -0.5733466 1.8030436
1.1737636 -0.96526605 0.031027513 0.952827 -1.1003151 1.2131366 1.4574367 1.1213819
0.8482795 -0.37547353 0.3564051 0.4691738 -1.818333 -1.6332282 1.305263 0.6042778

_weight_0 f4 [64, 32]
00000000: 89b7 c83f 1bab d5bf bcba 96bf 042e febe
00000010: 0384 11be 8938 4d3f 88c3 823f a957 153f
00000020: 8643 2abf e3ef b23f 533b dc3f e71f c0bf
00000030: ce8b 99bf 6189 14bf 2ff1 683e 369e d1bf
00000040: 087f 813f 5527 863f 4493 d5be 6a16 d7bf
00000050: 63a3 ccbf 0baf ac3f 432f 683f 14e8 803f
00000060: e6e9 b5bf 6422 a03f 0af8 25bf 07a7 353f
00000070: d904 6dbf 0067 85bd 1750 32bf 61c1 1bbf
00000080: 21f8 b2bf c1b7 b3bf 31f2 823e 64ec 433e
00000090: 2f94 6fbf acaf 5a3e 1973 cfbe c8ed a8bf
000000a0: bf74 ccbd 4dd5 28bd 3f9b e2bf 429a 5d3d
000000b0: d557 d43f 92d0 bfbf 4133 f6be cbbf aa3f
000000c0: e7d6 44be 5fcc 8cbf d3e3 7d3f 48eb 573f
000000d0: 0e73 9f3f afb3 82bf bed1 753f bb87 9abe
000000e0: 9600 aa3f 8c28 24bf 7d9a f1be 5cfe 5d3f
000000f0: 000c d6bf 1f11 bb3f 6dde 93bf 6c34 c4bf
00000100: 5dec e63f d09e 2cbf c9f6 6abf cce2 57bf
00000110: d81a 643f 9713 80bf 9bd9 213f 7580 843f
00000120: 55fe 60bf 9199 583f 8f74 a9bc 1218 8ebf
00000130: 6477 183f 6b57 a7bf 228b c2bf 7413 8d3f
00000140: 2b03 5dbe 22ef 9e3f 6ccf d03f f54e 983f
00000150: f5b2 a6bf 28cc 7fbf fa51 04bf 85f2 d13f
00000160: f3c4 c23f 16d7 82bf c6c4 66bf 010e af3e
00000170: 6728 dbbf 5500 5f3f 5f9a 923f 07ff d73f
00000180: 04e6 913e bf9a a53f f267 583f 61d1 b3bf
00000190: 26ad e6be 3efc 4f3f 8508 39bf 4680 c9bf
000001a0: e9d3 ca3f 8a00 0e3f 3fa4 cebf 4318 603e
000001b0: f3e4 1cbf b297 4abf b12a e43f e3d1 183d
000001c0: f7cf b6bf 25cd f33f cb11 073f 9555 a4bf
000001d0: 4b8a d13f dc82 3a3e 3243 c2bf eab1 f6bf
000001e0: 9b94 e7be bfc6 1dbd 2ccb c63f 6e49 b03f
000001f0: e7a3 323f 4396 48bf ac48 753f 6b39 943f
00000200: 0afc 0abf 2614 b4be 31d1 953f 2bec b33f
00000210: 37ad c33e 1c82 89be 21af 2bbf 7db7 713f
00000220: 773c b43f 425c 0cbf 038f b9bf d1f7 acbe
00000230: 3531 88bf b8ed 533f 8c34 6a3f 6f57 4d3f
00000240: 57d3 993f 24d8 05c0 43f7 0abd d842 e93f
00000250: d0a8 1c3f f936 88bf 170b 6fbe a9ed a43f
00000260: 70c6 46bf a7d6 393f be0f 9fbe 3b99 df3e
00000270: fd05 c33d 8dfc 8b3f 8fd4 bcbf f7f7 d5be
00000280: a070 3fbf a30e 20bf 0371 a4be 8917 bcbc
00000290: 8bc7 afbd d2b0 e43d 22a6 053f dfbd 133f
000002a0: 5637 75bf 3b46 b0bf bfe6 a9be 0522 ae3f
000002b0: 0e42 78bf d789 9a3f 082d 463f eb59 80be
000002c0: 1598 1ebf 3f4b b13e 08c2 6c3f 90b9 acbf
000002d0: 746b 683f db65 c4bf 297b 7a3f 3cfd d83f
000002e0: 66a5 48bf 548b 58be 6a05 05bf 720c bdbe
000002f0: 0b51 e0bf 1b3d c73f 97d1 1f3e bf85 61be
00000300: b40e 31bf 17ec a03f 6782 c43f 0537 bcbf
00000310: 8dfc 1a3e ce4d 593f 0db2 47bf a431 e33d
00000320: 4ce9 bc3f 1279 8bbf 6cc1 86bf cd6f 9e3f
00000330: 3b93 09bf 8542 9e3f 818b bcbe 5fe9 9e3f
00000340: f91c 823d 0efe 6ebf 9e80 7bbf 180a d2be
00000350: 5550 b2bf 4f39 bfbf 716d 523e bb09 a33f
00000360: 9b86 773f 7cc1 e13f d19e 6e3e df6d b63f
00000370: bad0 d0be e9e6 c53f 72e3 91be 77aa a7bf
00000380: ab6e bd3f 9238 f83e b9dc 003f 47b1 98bf
00000390: a418 bdbd a302 973f e7a8 9a3f feaa ac3f
000003a0: b4e5 983f 6e94 53bf e53a a0be fa23 86bf
000003b0: 70db ffbe 1204 bbbf 8edd 34be 823e 9cbf
000003c0: 65bd d33f 9543 edbe e6a5 dabc ead7 21bf
000003d0: 2218 b43f d5f0 e4bf 9e1c b7be a83c e43d
000003e0: 0016 61be 8b88 ddbf 2326 723f 487b a4bf
000003f0: 79d5 9dbe 5c1e 06bf ea6f 793f ba9d d73f
1.568101 -1.6692842 -1.1775737 -0.49644482 -0.14210515 0.8016439 1.0215921 0.58336884
-0.6650928 1.3979458 1.7205604 -1.5009736 -1.199579 -0.58022124 0.22748254 -1.6376407
1.0116892 1.0480753 -0.41713917 -1.6803715 -1.5987362 1.3490919 0.90697116 1.0070825
-1.4212005 1.2510495 -0.648316 0.7095799 -0.9258552 -0.06513786 -0.6965346 -0.6084195
-1.3981973 -1.4040452 0.25575402 0.19133145 -0.93585485 0.21356076 -0.405175 -1.3197565
-0.09983205 -0.041219044 -1.7703627 0.05410219 1.6589304 -1.4985526 -0.4808598 1.333978
-0.19222604 -1.0999869 0.9917576 0.84343386 1.2456987 -1.0211085 0.96023166 -0.3018168
1.3281429 -0.6412437 -0.47188178 0.86716247 -1.6722412 1.46146 -1.1552254 -1.5328498
1.8040882 -0.6742983 -0.91782814 -0.8433044 0.8910346 -1.0005978 0.63222665 1.0351702
-0.8788808 0.84609324 -0.020685462 -1.1101096 0.59557176 -1.3073553 -1.519871 1.1021562
-0.2158324 1.2416728 1.63133 1.1899096 -1.3023363 -0.9992089 -0.51687586 1.6402136
1.5216354 -1.0221889 -0.90144 0.34190372 -1.7121705 0.8710988 1.145336 1.6874703
0.284958 1.293785 0.8453361 -1.4048272 -0.45053977 0.81244266 -0.72278625 -1.5742271
1.584592 0.5546957 -1.6143874 0.21884255 -0.6128685 -0.7913772 1.7825528 0.03730954
-1.4282216 1.904698 0.52761525 -1.2838618 1.6370329 0.18213981 -1.5176756 -1.9273045
-0.45230564 -0.038519617 1.5530753 1.3772409 0.69781345 -0.7835428 0.95814013 1.1580023
-0.5429083 -0.35171622 1.1704465 1.4056448 0.3821809 -0.26857078 -0.670641 0.94420606
1.4080952 -0.54828274 -1.4496769 -0.3378282 -1.0640017 0.82784605 0.9148643 0.8021154
1.2017621 -2.0913172 -0.033927213 1.8223524 0.6119509 -1.0641776 -0.23344074 1.2885028
-0.7764654 0.7259316 -0.31066698 0.43671593 0.095226265 1.0936447 -1.4752368 -0.41790745
-0.7478123 -0.62522334 -0.3211747 -0.022960441 -0.08582982 0.11166538 0.52206624 0.57711595
-0.9578756 -1.3771433 -0.33183858 1.3604132 -0.9697579 1.2073315 0.7741246 -0.25068602
-0.6195081 0.3462772 0.9248357 -1.3494129 0.9078896 -1.5343584 0.9784418 1.6952281
-0.7837738 -0.211469 -0.51961386 -0.36923558 -1.7524732 1.5565523 0.15607296 -0.22023676
-0.6916306 1.2572049 1.5352296 -1.4704291 0.15135403 0.84884346 -0.7800606 0.110934526
1.4758697 -1.0896323 -1.0527778 1.2377869 -0.5374028 1.236405 -0.36825183 1.2414969
0.06353182 -0.93356407 -0.9824313 -0.41023326 -1.3930765 -1.4939364 0.20549561 1.2737345
0.96689767 1.7637172 0.23302771 1.425228 -0.40784246 1.5461093 -0.2849384 -1.3098897
1.4799398 0.4848066 0.50336796 -1.1929101 -0.092332155 1.179768 1.2082795 1.3489683
1.19451 -0.8264836 -0.31294933 -1.0479729 -0.49972105 -1.4610617 -0.17662641 -1.2206576
1.6542174 -0.46340623 -0.026690435 -0.63220084 1.4069865 -1.7885996 -0.3576402 0.11144382
-0.21981049 -1.7307295 0.9458944 -1.2850122 -0.3082693 -0.52390075 0.9743639 1.6845009

_weight_0 f4 [64, 16]
00000000: ca54 073f 2b79 973f 810c 59bf e8e4 9dbf
00000010: 5740 603f c119 d4be 9756 463f dc47 74bf
00000020: 5497 64bf 9dcf 88be 71ee ac3f d295 8e3e
00000030: f9ff 9d3f a89a 103f 48f6 67bf d17b cc3e
00000040: 9367 d33d 898c cabf 38d2 a6be 820a 853f
00000050: 1801 17bf 2001 6abf 3601 16bf bacf 8ebf
00000060: 04fd 22bf 857f 8bbf 86ee 553f 7c90 343e
00000070: c8b2 1dbf ddb9 c23f eede bdbf a0ba 8ebf
00000080: b675 ae3d 0081 b13f f10c cf3f e356 cfbf
00000090: cb5e ce3e 39df b7be 8b67 85bf dcc2 973f
000000a0: 8cb6 dd3f 80dd 873f 9b90 c3bf 8796 aa3e
000000b0: 3d96 82bf 0294 0b3f a878 bfbf b7ff a43f
000000c0: 639b a83f 67a6 e13d 95fb 95bf 9513 b5bd
000000d0: 1c10 a83f 890f eb3e 5256 dabe be35 cbbf
000000e0: 7877 21bf e188 dabf 228a 3a3f e5c2 c43e
000000f0: 3c80 db3f 532e de3f f808 583f ef5c bdbf
00000100: 4a91 9dbf fedd ecbe c190 8dbf 8094 813e
00000110: 565a 243f 505d 0fbf b3e5 d4bf b8f3 833e
00000120: d2de bfbf 3c5f 50bd edfe 09bf 6933 c1bf
00000130: 2f8c bcbf 33c1 383f a188 a1bf e615 283e
00000140: 3f19 ffbe 0d9c b43f 6c50 40bf b193 b73f
00000150: 9c19 2bbf 0e09 b83e 263f 203f 8ed2 9bbe
00000160: 8001 a5be 92e8 90bf fe98 833f 4553 e1bf
00000170: 5a12 bcbf 7e99 223f 8747 c0bc 51a9 aa3f
00000180: 29aa 28be ecef 983f 8e5e 3f3f 1233 52bf
00000190: 8af7 29bf ccfb bc3f e498 b53f bc6e fabc
000001a0: ff73 c23f 0bb9 6cbe 1310 cabf ee32 f23e
000001b0: 163e 4f3f e93c 203e ad9a dd3f 3866 d43f
000001c0: 71cb 143d b235 b73d 9060 1f3d df81 4a3e
000001d0: b475 0b3f 563a ed3e f91f 5dbf ea10 c5bf
000001e0: b01f cbbf 930b a2bf 7757 09bf 3882 513d
000001f0: f6ef cf3f 8e47 81bc c948 57bf 4bd2 c9bf
00000200: 275c ed3e 0490 17bf a975 d0be 8fb6 c9bf
00000210: b6d9 c03f 0013 043e dc37 d6bd 6138 ebbc
00000220: 18d7 96be eec7 adbf f2b0 b43f 0dda a9bf
00000230: 2393 03bf 09e7 86bf d360 bf3e e556 633f
00000240: 7def a9bf e18b bb3f b947 16bf 85e2 f03e
00000250: 23cd c7be 34eb 4cbf 97bb 75bf b183 123f
00000260: 8ddb 373f 3b1b 97bd e016 a53f b03f 92bf
00000270: 9add 9c3f 04d0 db3f 7dd6 96be 958a 633e
00000280: d0a1 503f 86bb babe ee1a aa3f c23a a73f
00000290: 5df6 d43f e5b2 923f 944c 24bf cddb 753f
000002a0: 6676 b8bf 066b fb3f 16c3 2a3d 30fc d6bf
000002b0: 88fe 90be 1d29 d8be b6ec 8a3f 3983 013e
000002c0: e6de 103f f7fc ccbf 9149 d2bf cb17 383f
000002d0: 5dcd 7a3f e859 3e3f 70ef 0f3d 34a6 2cbf
000002e0: 92d4 913d 25a1 663f 0a37 b3bf 8274 91bf
000002f0: 4157 53bf 1c40 5ebf 5045 513f 4d4b 893f
00000300: 6c36 ba3f cd51 89be c073 6f3e d3b8 09bf
00000310: 4c91 843f 25c5 8d3d b6ca 6ebe 7b5c c43f
00000320: af0a a5bf 16f3 d8bf 3b21 943f 702a ccbd
00000330: 5878 a73f b59f bebf 55ae 483e 05a2 89bf
00000340: 423e 7b3f 5125 fabe f5cb 893f 7b23 70bf
00000350: 0d8f 55bf d3c7 c63f 14e8 883f f2f6 eebd
00000360: e325 ddbf 51df 693f 83c8 59bf a115 833e
00000370: 4b55 b93f 4a46 7d3e ca75 5abf 14b2 9ebf
00000380: 05de dcbf 1ec1 74bf 161f d43f de2f aabf
00000390: 16c3 bdbf 35f4 c53e 14ce 77bf 952f 8abf
000003a0: 8e13 4f3e 2acc a23e ee46 c7be e0f5 353f
000003b0: d412 0ebf 8ada 47bf dd30 bcbf 6838 d03f
000003c0: c099 60bf 8b5b a83f b2d5 f83e 6d18 723f
000003d0: f0ed ce3f 61ea 813e 6e54 e83e f32b abbe
000003e0: 51ff 63be be16 a2bf 0324 85bf f25f 91bf
000003f0: 95a4 d2bf dcbf acbe 2813 8c3f 2d4b a0bf
0.5286375 1.1833853 -0.84784704 -1.2335482 0.87598175 -0.414259 0.77475876 -0.9542215
-0.8929341 -0.26720896 1.3510267 0.2784868 1.2343742 0.56485987 -0.9061017 0.39938214
0.103224896 -1.5824138 -0.3258226 1.0393832 -0.58986044 -0.91407967 -0.585956 -1.1157143
-0.6366732 -1.0898291 0.8356708 0.17633241 -0.61600924 1.5212971 -1.4833658 -1.1150703
0.08518545 1.3867493 1.6175824 -1.6198391 0.40306696 -0.35912493 -1.0422224 1.1856341
1.7321334 1.0614471 -1.5278505 0.33317968 -1.0202099 0.54522717 -1.4958696 1.2890538
1.317242 0.11018067 -1.1717402 -0.088416256 1.3129916 0.4591029 -0.42643982 -1.5875776
-0.6307292 -1.7073022 0.72867024 0.38429943 1.7148509 1.7357887 0.84388685 -1.4793986
-1.2309964 -0.46263117 -1.10598 0.2530861 0.6420034 -0.5600176 -1.6632599 0.2577188
-1.4989874 -0.050872073 -0.5390461 -1.5093814 -1.4730281 0.721698 -1.2619821 0.16414604
-0.4982395 1.4110123 -0.75122714 1.4341947 -0.6683595 0.35944408 0.62596357 -0.30434078
-0.32227707 -1.1320975 1.0281065 -1.7603537 -1.46931 0.6351546 -0.023471607 1.3332921
-0.16471161 1.1948218 0.74753654 -0.8210918 -0.6639334 1.4764342 1.4187284 -0.03057038
1.5191649 -0.23117463 -1.5786155 0.4730448 0.8095411 0.15648235 1.7312828 1.6593695
0.03632683 0.089457884 0.03891045 0.19776104 0.54476476 0.4633357 -0.8637691 -1.5395787
-1.5869045 -1.2659782 -0.53649086 0.051149577 1.6245105 -0.01578119 -0.84095436 -1.5767301
0.4635937 -0.59204125 -0.40714768 -1.5758837 1.506644 0.12897873 -0.10459873 -0.028713407
-0.29460979 -1.3576639 1.41165 -1.3269669 -0.5139639 -1.0539256 0.3737856 0.88804466
-1.3276211 1.4652063 -0.5870319 0.4704782 -0.39023694 -0.8004639 -0.95989364 0.57232195
0.7181938 -0.07378241 1.2897606 -1.1425686 1.2255127 1.7172856 -0.29460517 0.22220834
0.81496906 -0.36471194 1.3289468 1.3064806 1.6637684 1.1460844 -0.6417935 0.96038514
-1.4411132 1.9642036 0.041689955 -1.6795712 -0.28319192 -0.42218867 1.0853488 0.12647714
0.56590116 -1.6014699 -1.6428701 0.71911305 0.9796961 0.74355936 0.035140455 -0.67441106
0.07120623 0.9008964 -1.4001172 -1.136368 -0.82555014 -0.86816573 0.8174639 1.0726105
1.4547858 -0.26820222 0.23383999 -0.53797644 1.0356841 0.06922368 -0.23319516 1.5340723
-1.2893885 -1.6949184 1.1572641 -0.09969032 1.3083601 -1.4892489 0.19597752 -1.075257
0.9814187 -0.48856595 1.0765368 -0.9380414 -0.83421403 1.5529732 1.0695825 -0.11668195
-1.7277187 0.9135638 -0.8507158 0.2560244 1.4479154 0.24733844 -0.8533598 -1.2398095
-1.7255255 -0.95607173 1.6571987 -1.3295858 -1.482516 0.38662878 -0.96798825 -1.0795771
0.20222303 0.3179639 -0.38921303 0.710783 -0.5549748 -0.7806784 -1.4702412 1.6267214
-0.87734604 1.3152937 0.48600537 0.9456852 1.6166363 0.2537413 0.45376915 -0.33431968
-0.22265364 -1.266319 -1.0401615 -1.1357405 -1.6456476 -0.33740127 1.0943346 -1.2522942

_weight_0 f4 [64, 16]
00000000: b9b9 7ebf 78e3 c9bf 720c e2bf bb8e 513f
00000010: 6e26 2b3e 9c9c a1bf 16f6 6abf 0fcc 70bf
00000020: 85d1 1a3e 7a97 e5be 5098 6f3f 4ced 473f
00000030: 57a1 c6bf 5728 c83f 3bea 65bf efa9 63bf
00000040: 9d46 33bf 04d3 ef3d 79d4 0d3f 3621 563a
00000050: f73c f7bd df64 dd3d 71ad ce3f fea3 a5bf
00000060: ce9d 0b3f 8b46 483f b250 86bf f198 bd3f
00000070: 8144 56bf 44a7 90bf f863 a73f 5e6c bc3e
00000080: a5c5 dcbf 7295 b43e dcdd bebf 7ef8 a63f
00000090: 7deb 5bbe 8af2 c4bf 30c5 adbd 324e fe3e
000000a0: d32f c4bf 73c9 adbf 43ca 3bbf b75e be3f
000000b0: 937a 43bf 8bca 5cbf 5cec 223e 7f72 bf3e
000000c0: a8d5 a43f 7ee0 5abf 60ad 623e ef59 88bf
000000d0: 33a8 ccbf 5c1a 8ebf da8e 8cbf 721e 463e
000000e0: 41de 9b3f 8a13 f43e d28e abbf b175 9d3f
000000f0: 1e61 c73f c7ca 84be 19f8 57bf 962c c93f
00000100: 9a15 ddbf 2743 6dbf b704 95bf c9dd 9d3f
00000110: a3b5 a93e 0f58 67bf c2d1 193f ff5a 46bf
00000120: aec8 5a3e fe81 8dbf 96e1 bbbf 3f3d fcbd
00000130: 8b8c 31bf 6cb2 52bf b029 d5bf b244 fe3e
00000140: f93a 92bd 78b8 a4bf d4e2 d43f 99f1 a83f
00000150: 5e43 adbe 120e 98bf 041e a23e 7261 3e3f
00000160: 3d59 87bf 0d20 a0bf e28a 8c3e 73b6 41be
00000170: e0ae 873f 83ec a3bf c02a b93f d4e0 673f
00000180: be91 e33f bec8 cc3d 9b8e c0bf 9779 8dbf
00000190: 9d0f 403f 0522 a2be 62a9 7d3e 3d11 96bf
000001a0: 0ecb 343b e00a 9bbd 0675 8b3f 0da6 9abe
000001b0: 4b31 e0bb e9c9 603f 98d7 28bf 71b9 973f
000001c0: 885a 913d 5e71 b33f 44cf 433f f9e9 dcbe
000001d0: fa1f 9d3f 95c6 5ebf fb16 1abd 9898 d73e
000001e0: 96e1 47bf e853 2d3f 7218 593f e537 2c3f
000001f0: ce40 c33f 8549 2cbf 844a 15bf 8384 a53f
00000200: f68a d7bf 2938 e53f eeeb d93f 8163 c5bf
00000210: 3919 613f 9714 cfbf 860e 2abf 4e6c 3b3e
00000220: 51e7 223f cfdb 4f3f b219 19bf 5d02 63bf
00000230: 4fbf cebf a113 d2be 7903 873f 576f 7f3e
00000240: 3cf4 993d 9ed9 debe e57e 2a3f 2e04 e63f
00000250: 44be 913f b60b babf f291 8e3f bd3e d0be
00000260: a77d a9bf 8fae ffbe cc76 a23e 84bd babf
00000270: c85b 8a3f d6f3 c3bf 3ffb 973b 45ff d8bf
00000280: 0d71 b7be b52d e1bf 1250 c53d 3439 073f
00000290: 097b a23d edf3 32bf 7f8d 4d3f cd96 ad3f
000002a0: 3a28 853f eea5 c7bf 9a8d 3ebf 0307 2ebf
000002b0: 8a3f d6bd bc04 95bf 343e 3c3f 96fe aa3d
000002c0: 364a 953f 7682 98bf 47e4 b8bf 324f b93f
000002d0: de04 783f e5cd 2dbf 8df7 03bf ee5b f4be
000002e0: 557d c6bf 284a 03bf 6da1 dcbf 0536 d8bf
000002f0: 2315 7a3e 1294 1d3f 2147 79be f4cb d4bf
00000300: e22d fe3e 9071 533f 0fac e5bf 17a5 ee3e
00000310: 8e80 6f3d d887 c93d 8e20 f13e c010 d7bf
00000320: 11b9 ed3d a7db 0ebe 38fb a23f 1a05 9ebf
00000330: 1e06 933f 838b 50bf 500f 81bf 445c 79bf
00000340: ef31 b2bf 8736 7ebf 5f6d 2e3f d43e 8a3f
00000350: be0e d53d 6c26 d03f 69dc 8e3f 6932 98bf
00000360: 377a fabe 1a0e 973f 9306 c53f 0437 eabf
00000370: b08e a9bf fb79 40bd eab4 7a3e 8d14 c83f
00000380: 5709 80bf 8794 1ebf b3d7 033f 6d15 81bf
00000390: cab0 acbe a5db 94bf 60d7 23bf 2a58 633f
000003a0: 4c24 d03e 6a48 c73f 29a7 9ebf e7c6 d8bf
000003b0: a6cb a1bf 536e 28bf 094c 49bf f2e1 3e3e
000003c0: a484 e83f 2a9f 20bf 1d50 c8bf edfa 47be
000003d0: 04b1 9cbf d9f6 adbe a4bd 583f 535d c13f
000003e0: 8783 aebf 01ea bc3f 4ec4 79bf 167c 08bf
000003f0: 89d9 bbbf 5dbc 783e b856 5fbf 5c54 09bf
-0.9950214 -1.5772543 -1.7660048 0.81858414 0.16713879 -1.2625918 -0.9178175 -0.9406137
0.15118988 -0.4484213 0.93591785 0.7809646 -1.5517987 1.5637311 -0.8981053 -0.88931173
-0.7002962 0.1171017 0.5540233 0.0008168401 -0.12072175 0.10810255 1.614668 -1.2940671
0.54537666 0.7823264 -1.0493376 1.4812299 -0.8369828 -1.1301045 1.3077383 0.36801428
-1.7247816 0.35270268 -1.4911456 1.3044584 -0.2147655 -1.5386517 -0.08484876 0.49669033
-1.5327095 -1.3577102 -0.733555 1.4872655 -0.7635891 -0.86246556 0.15910476 0.3739204
1.2877703 -0.854988 0.2213645 -1.0652446 -1.598883 -1.1101794 -1.0981095 0.19347551
1.2177202 0.47671157 -1.340296 1.2301542 1.5576513 -0.25935957 -0.8436294 1.5716732
-1.7272217 -0.9268059 -1.1642064 1.2333308 0.3314639 -0.9036874 0.6008569 -0.774826
0.21365616 -1.1055295 -1.4678218 -0.12316369 -0.69355077 -0.823035 -1.6653347 0.49661785
-0.071401544 -1.2868795 1.6631722 1.319873 -0.3384046 -1.1879294 0.31663525 0.7436744
-1.0574108 -1.2509781 0.2744971 -0.18917255 1.0600243 -1.2806553 1.4466171 0.90577435
1.7778852 0.09999226 -1.504352 -1.1052731 0.75023824 -0.3166658 0.24771646 -1.1724011
0.002758685 -0.075704336 1.0895088 -0.30204812 -0.0068418137 0.8780809 -0.6595397 1.1853467
0.070973456 1.4018972 0.7648814 -0.43147257 1.2275383 -0.8702176 -0.037619572 0.42108607
-0.7807859 0.67706156 0.84802926 0.6727279 1.5254152 -0.6729968 -0.58316827 1.2931064
-1.6839283 1.7907764 1.7025125 -1.5420991 0.8792911 -1.6178159 -0.6642841 0.18303034
0.6363421 0.81194776 -0.5980483 -0.8867548 -1.6152133 -0.410306 1.0547935 0.24944817
0.07517287 -0.43525404 0.66599876 1.7970026 1.138619 -1.4534824 1.1138289 -0.40672866
-1.3241471 -0.49937865 0.3173126 -1.4589086 1.080926 -1.5308788 0.004638105 -1.6952902
-0.35828438 -1.7592074 0.09634413 0.5282166 0.07933623 -0.6990345 0.8029403 1.3561646
1.0402901 -1.5597513 -0.74434817 -0.6797945 -0.10461338 -1.164207 0.73532414 0.0834934
1.1663272 -1.1914814 -1.4444665 1.4477293 0.96882427 -0.67892295 -0.5154961 -0.47726387
-1.5506998 -0.5128503 -1.7236763 -1.6891485 0.24422126 0.6155406 -0.2434354 -1.6624742
0.4964438 0.8259516 -1.7943133 0.4661033 0.05847221 0.09840363 0.4709515 -1.6801987
0.11607564 -0.13950978 1.2732916 -1.2345307 1.1486242 -0.8146288 -1.0082798 -0.9740641
-1.3921489 -0.9930195 0.6813564 1.0800424 0.104032025 1.6261725 1.1161014 -1.1890384
-0.48921368 1.1801178 1.5392631 -1.829804 -1.324667 -0.04699133 0.24483076 1.5631272
-1.000285 -0.61945385 0.51501006 -1.0084664 -0.3372863 -1.162953 -0.6400051 0.888064
0.40652692 1.5568974 -1.2394763 -1.69357 -1.2640274 -0.6579334 -0.78631645 0.18640879
1.8165479 -0.62742865 -1.5649449 -0.19529314 -1.2241521 -0.33977392 0.8466437 1.5106605
-1.3633889 1.4758912 -0.9756516 -0.5331434 -1.4675761 0.24290605 -0.872417 -0.5364435
